captcha_model.pth (torch, 194706 bytes, 18 tensors)

cnn.0.weight f4 [12, 1, 3, 3]
000000 81 04 04 bf a5 f0 16 bb 7d 77 fa 3e 79 e1 c3 3e
       -0.5156937 -0.002303162 0.48919287 0.3825796
000010 fb 96 88 3f bb 2f 21 bf 6b 9b ab 3e 92 b1 54 bf
       1.0671076 -0.62963456 0.33517012 -0.8308345
000020 fb f1 02 3e 8a 59 d5 3e 45 9d 88 3f ad 75 09 3f
       0.1278762 0.41669875 1.0672995 0.53695184
000030 d2 92 81 3e da af 3a bf 87 bf 5b bf c5 a4 87 be
       0.25307328 -0.7292458 -0.8583912 -0.26492897
000040 6d cb f1 be ed 72 f3 3c e4 bf d4 bd 97 06 6d be
       -0.47225514 0.029717887 -0.10388163 -0.23147045
000050 73 47 31 3e 98 b1 52 be 94 fd 9a bf 5e 09 12 bf
       0.17312412 -0.20575559 -1.2108636 -0.57045543
000060 00 f3 0b 3f 94 d9 88 3f 47 34 95 bb ac 35 2c bf
       0.54667664 1.06914 -0.004553351 -0.67269397
000070 e4 a9 dd be bd 1d 79 3f c9 75 0e 3e 59 95 10 bf
       -0.4329368 0.97311 0.13912119 -0.56477886
000080 99 cc 98 3e 21 94 78 3f 17 6d 8a bd d2 e2 49 bf
       0.29843596 0.97101027 -0.067590885 -0.78861725
000090 23 4e 5b be f0 3b b3 3e 5f 50 31 3e 4b d7 33 bf
       -0.21416526 0.35006666 0.17315815 -0.70250386
0000a0 fe 98 1c 3e 3e b1 14 3f a5 02 9f 3f 5b 63 f4 be
       0.15292737 0.5808295 1.2422682 -0.47732052
0000b0 97 16 99 be 3a b7 e8 3e 62 88 dc be e4 80 c9 3e
       -0.29900047 0.4545229 -0.43072802 0.39356148
0000c0 29 62 7e 3f 0b 95 ab 3e be a2 6e 3f a6 84 11 3e
       0.9936853 0.33512148 0.93217075 0.14210758
0000d0 80 3d 40 bf fa 48 e9 bc 9c 80 8e 3e 7a c6 83 bf
       -0.7509384 -0.02847718 0.27832496 -1.0294945
0000e0 71 af 6f 3f 0b b3 90 be 92 62 f1 be f6 a7 e0 3e
       0.9362708 -0.282616 -0.47145516 0.43878144
0000f0 e9 c4 e4 be dc 2d 98 bd 39 58 4a 3f 86 4c ce 3b
       -0.4468148 -0.07430622 0.7904087 0.0062957434
000100 52 60 82 3f 9f 24 2a 3e c8 ae 83 bf ba 5d d7 b9
       1.0185645 0.16615532 -1.0287714 -0.00041077827
000110 21 43 e8 3e c8 d0 29 be 80 6f 1c bf 1a 46 02 3f
       0.45363715 -0.1658355 -0.61107635 0.50888216
000120 0a ef 83 3f 9d ed 30 bf 69 1f 43 3d fd 7c 46 3f
       1.0307324 -0.6911257 0.047637377 0.77534467
000130 e3 f9 06 bf 27 c7 a8 be fd d3 5f 3f 5e ef 8a be
       -0.52725047 -0.3296444 0.87432843 -0.27135748
000140 5d 5b 84 be 8e e4 54 3e fe 0a f0 3e cd 58 1e bf
       -0.25850955 0.20790312 0.46883386 -0.6185425
000150 a1 75 98 be 6a 16 8f 3f f8 08 ce be 01 c3 25 bf
       -0.29777244 1.1178715 -0.40241218 -0.6475068
000160 f5 a4 19 3f 83 2a b6 3d f0 5f cc be 66 8f 19 be
       0.6001733 0.08894827 -0.39916945 -0.14996108
000170 71 e8 cd 3e 17 e9 45 bf 27 f6 62 3f 1f c2 6d bc
       0.402164 -0.7730879 0.8865685 -0.014511614
000180 ea fa 15 3e 2a 17 4d 3f f0 2a 21 bf 31 dc 13 3f
       0.14646497 0.8011347 -0.6295614 0.5775786
000190 57 15 41 3f 6e d6 01 3f 44 25 1f bf 96 a2 2f bf
       0.75423187 0.5071782 -0.6216624 -0.6860746
0001a0 c4 74 e0 3d 57 38 c2 3e a7 73 42 3d 85 5b 2e be
       0.10959771 0.3793361 0.047473576 -0.170271

cnn.0.bias f4 [12]
000000 55 c4 b9 3e 80 92 78 bd 77 be bb be 64 5f 2b bf
       0.36282602 -0.06068659 -0.3666875 -0.6694243
000010 50 48 b2 3e 86 fa 5b be 8f 4f ae be aa 54 a8 bf
       0.34820795 -0.21482286 -0.34045073 -1.3150837
000020 0a e8 18 3f bd 46 f8 3e 14 a5 a9 3e 98 7b ac 3e
       0.59729064 0.4849147 0.33133757 0.33688045

cnn.1.weight f4 [12]
000000 3b 0f 14 3e eb 60 1e 3e ca d5 fe 3d 8a 56 d5 3d
       0.14458935 0.15466659 0.12443121 0.10416897
000010 9a c8 99 3d a3 3e 2f 3e e7 5c 26 3e bd b1 0d 3e
       0.07508965 0.17113738 0.16246377 0.13837333
000020 f3 e9 4c 3e 6f 04 4a 3e f4 22 28 3e 46 40 a0 3d
       0.2001112 0.19728254 0.16419584 0.07824759

cnn.1.bias f4 [12]
000000 85 90 99 bd 6f 60 bc bd 7e b8 ae bd 59 7e a0 bd
       -0.07498268 -0.09198081 -0.08531283 -0.07836599
000010 48 97 1b bd 4c 86 80 bd f7 96 a7 bd a0 b8 99 bd
       -0.03798607 -0.06275615 -0.08183091 -0.075059175
000020 da 28 c1 bd d3 13 b4 bd 3a ae be bd 01 61 42 bd
       -0.0943162 -0.08792844 -0.09310575 -0.04745579

cnn.1.running_mean f4 [12]
000000 11 f4 20 3f f0 43 f9 bd 11 84 36 bf c5 f6 3f bf
       0.62872416 -0.12171161 -0.7129527 -0.74985915
000010 97 11 5b 3f 7f 84 8b 3f 52 c6 a1 be b9 7d 8a bf
       0.85573715 1.089981 -0.3159662 -1.0819618
000020 01 7a 72 3f 9c fc 58 3f c7 10 ff 3e ce f4 4e 3f
       0.94717413 0.8476045 0.49817488 0.8084229

cnn.1.running_var f4 [12]
000000 79 e3 4e 3e 3e 14 51 3f 3a 29 1f 3f 60 88 ac 3e
       0.20203961 0.8167151 0.6217228 0.33697796
000010 5a 81 89 3e ea c8 8f 3f 65 5a 21 3f 23 2e 25 3f
       0.268565 1.1233189 0.63028556 0.64523524
000020 85 46 5c 3f a7 f2 b7 3e 62 5d a5 3e 17 91 e2 3e
       0.86045104 0.35927317 0.32297808 0.4425132

reshape.weight f4 [48, 144]
000000 89 84 8a 3e bb 89 29 3f a1 d0 b4 3d a0 a4 d5 3d
       0.2705424 0.66225785 0.08828855 0.1043179
000010 42 a6 e7 3d 1d a8 94 bd 24 d4 cf be 83 d4 b6 bd
       0.11311008 -0.072586276 -0.40591538 -0.08927252
000020 fe db 03 bf c3 8d 63 be d5 2d 2a bf 0a bd fb be
       -0.51507556 -0.22222047 -0.66476184 -0.49167663
000030 b6 fa e9 3e 45 d6 42 3e c9 cb 19 3f bf 6b 83 3e
       0.4569909 0.1902705 0.60076576 0.2566814
000040 c7 27 b2 3e 6b 38 0d 3f 39 c7 ca 3d 58 15 4e bc
       0.34795973 0.5516421 0.0990128 -0.012578331
000050 19 9f f1 bd d9 21 bf 3e 5d d9 02 3f b1 23 50 3e
       -0.117979236 0.3733051 0.5111292 0.20326115
000060 ce 8c 7e 3e 01 8f 75 3e 4e ae ea 3e 88 72 1b 3f
       0.248584 0.23980333 0.4583611 0.60721636
000070 2e e3 08 3f 68 37 36 3f a8 63 c6 3e b7 e0 0f 3f
       0.5347165 0.71178293 0.38747907 0.5620226
000080 9d de 11 3f 8e 6c 23 3f 36 80 93 3e d4 67 1c 3f
       0.56980306 0.63837516 0.28808755 0.6109593
000090 f8 47 bf bd 0b 6a 87 3e 68 01 13 3d 7b 40 d5 bd
       -0.09339899 0.26448092 0.035890013 -0.10412689
0000a0 6a 4a ac 3d 4d 31 2a 3d 30 41 f4 3e d3 50 0b 3e
       0.08412631 0.041550923 0.47705984 0.1360505
0000b0 08 f2 0b 3e b6 b9 68 be b6 b4 9d bd 94 68 15 3e
       0.13666546 -0.22727093 -0.077004835 0.14590675
0000c0 87 00 04 be 60 c7 81 3e 70 9a 8c 3d e6 cc bd be
       -0.12890826 0.25347424 0.06865394 -0.37070388
0000d0 cf de 01 be 23 53 40 bd b4 0d 1d bf 04 d7 f7 3c
       -0.12682651 -0.046954285 -0.61349034 0.030253895
0000e0 f2 8c 30 3e 66 e0 2a bf e7 4c 13 bf c6 a6 1c 3d
       0.17241266 -0.66748655 -0.5753922 0.038244985
0000f0 32 08 5f be 04 dd 7d 3d bb 3e 1d be 36 2f 5e 3c
       -0.2178047 0.061978355 -0.15355961 0.013561061
000100 5d d0 9f bd d0 55 10 be 42 ea 88 be 00 9a cd be
       -0.07803414 -0.14095235 -0.26741225 -0.40156555
000110 04 6e 01 bf 80 2c 24 be fb a2 59 3e c5 b4 70 3e
       -0.50558496 -0.160326 0.21253578 0.23506458
000120 3b f1 df be f1 b1 3f 3e c4 f1 66 bc 72 ac 87 bd
       -0.43738732 0.18720223 -0.014095727 -0.06624688
000130 fc 24 3f 3e 01 a7 3c 3e 95 0d 6c 3e 11 c6 7a 3e
       0.18666452 0.18423082 0.23052056 0.24489619
000140 b6 f9 b2 3e 3f 90 00 bf 04 80 cd bb 3e 8d d0 be
       0.3495614 -0.502201 -0.006271364 -0.4073276
000150 0f e3 e9 bd c3 83 16 3e 01 9c a7 3e fd 5c 36 3e
       -0.11420261 0.146987 0.3273621 0.1780891
000160 27 17 e1 3d 93 cc 3b bd 72 df 09 3d a2 a9 86 be
       0.10990744 -0.045849394 0.03366036 -0.26301295
000170 e4 23 5c be 55 fe d0 bc f7 90 e9 bd 7b 6a 13 be
       -0.21498066 -0.0255119 -0.11404603 -0.14396088
000180 82 7b 4a 3d d1 2e 44 bd 7b 42 92 bd 7e 6a 5a be
       0.049434192 -0.04789621 -0.071415864 -0.21329686
000190 84 a6 ec bc aa f0 43 be f5 39 ba 3e be 6e c9 3e
       -0.028887995 -0.19134775 0.36372343 0.39342302
0001a0 9c 43 f3 3e 57 86 40 3f 54 b8 a2 3f d9 98 61 3f
       0.4751252 0.75204986 1.2712502 0.8812385
0001b0 4f e1 bf 3d f8 96 89 be 3b 39 a8 be bf 5c 16 be
       0.09369146 -0.26872993 -0.32856163 -0.14683817
0001c0 e0 72 6a be 6c 27 db bd d6 aa be bc b0 20 9e 3d
       -0.22895384 -0.107008785 -0.02327482 0.077210784
0001d0 1c 52 04 be d1 0b 72 3e b0 6b d8 be 5b 1f 07 3d
       -0.12921947 0.2363732 -0.4226966 0.032988887
0001e0 09 7f 09 be 51 ff 3f be 3d 62 5a be 40 52 13 bf
       -0.13427366 -0.18749739 -0.21326537 -0.5754738
0001f0 9a 45 53 be 35 b9 50 3e 5c e8 18 bc 01 32 88 be
       -0.2063202 0.20383151 -0.009332743 -0.2660065
000200 45 ea 9a be 05 dc 93 be 69 94 95 be 6b 20 f6 bd
       -0.30256858 -0.288788 -0.2921479 -0.12017902
000210 ea 2f fd 3e 93 ce 87 3e e1 fc ef 3d 5b 10 18 be
       0.49450618 0.2652479 0.11718155 -0.14849989
000220 a2 95 72 3d a2 58 82 be 8f bf 6e bd 73 1b 71 be
       0.059224732 -0.25458246 -0.058288153 -0.23545627
000230 22 01 45 be fb cf 05 be 40 d2 a8 be 25 2f d8 3e
       -0.19238713 -0.1306762 -0.32972908 0.42223468
000240 a8 81 c6 be b4 96 72 bc 25 af 3f 3e e7 bf 41 3d
       -0.38770795 -0.014806438 0.18719156 0.047302153
000250 cd fd 7a 3e 93 50 8a 3e d1 4f aa bd 96 0b 3e be
       0.2451088 0.27014598 -0.08316005 -0.18559107
000260 06 6b d1 bd bd 74 e0 3b 2f 72 29 be 0b 15 00 be
       -0.10225491 0.006849854 -0.16547464 -0.12508027
000270 9c 84 11 bf 24 3f 99 be 14 60 38 be 41 ef 42 be
       -0.5684297 -0.29930985 -0.18005401 -0.1903658
000280 48 a2 1a be 14 9e 4b be 59 b4 5a be c7 c4 87 be
       -0.15100968 -0.19884521 -0.2135786 -0.26517317
000290 46 01 94 be cf b0 b3 3d 48 51 ba 3c 81 14 3d 3d
       -0.28907222 0.08773958 0.022743836 0.046162132
0002a0 d8 0c 68 be 3d f2 19 be 1e 1a de bc 17 cc 8c be
       -0.2266115 -0.15033813 -0.027112063 -0.27499458
0002b0 38 3b f1 bd 4a 5d bd 3d 2d 36 34 3d 79 7b 08 3e
       -0.11778873 0.09246309 0.04399698 0.13328351
0002c0 20 2e 07 3d 10 a9 b6 bc e3 eb 1d bd 4d 74 c7 be
       0.033002973 -0.022297412 -0.038555037 -0.38955918
0002d0 13 b2 e7 3e e3 3b da 3c 46 f9 2e 3e e1 68 2c 3e
       0.45253047 0.026639884 0.17087278 0.16836883
0002e0 8c 44 bb 3e 44 cd 12 3f 5e e8 00 3f db 86 d2 3e
       0.36575735 0.5734446 0.50354564 0.41118512
0002f0 f7 85 b8 3e bf 01 ce 3d 5d 58 e1 bc 58 0b 37 bb
       0.36039707 0.10058927 -0.027507955 -0.0027930345
000300 04 9b ff be 6d 28 9b bd 7a e8 f9 3e f7 86 d4 3e
       -0.49922955 -0.0757607 0.48810178 0.4150922
000310 37 e9 c9 3e 22 bd de 3e 20 fa f6 bd 76 3e 96 3e
       0.3943574 0.43503672 -0.12059426 0.2934453
000320 ed b3 18 be dd 5d ee be 28 bd fa be cd 2c 2d bf
       -0.14912386 -0.46555987 -0.4897244 -0.67646486
000330 c6 f8 73 be 57 78 e9 be e0 fa ef be cb 4d 8b be
       -0.23825368 -0.45599625 -0.4687109 -0.2720779
000340 ba 4a bb bd 14 db 3f be 6b 2a 4e be a1 5f 87 be
       -0.09145112 -0.18735915 -0.20133369 -0.26440147
000350 c2 f7 45 bf cb cd f3 be e5 a4 99 be e3 20 00 be
       -0.77331173 -0.47617945 -0.30008617 -0.12512545
000360 53 d2 8e 3e a9 02 5b bd 0a 81 a5 3d 5c a5 97 be
       0.2789484 -0.053469334 0.08081253 -0.29618347
000370 24 79 56 bd c3 6c 87 be 0b ae c2 be a8 0c 2b bf
       -0.052361622 -0.26450166 -0.3802341 -0.66816187
000380 4d c5 06 bf d8 b7 37 bf 47 c4 2c bf 78 52 1d bf
       -0.5264481 -0.717649 -0.67486995 -0.6145396
000390 c5 4a c3 3c d5 28 77 3d 53 08 08 be b4 50 e0 bc
       0.023839364 0.060341675 -0.13284425 -0.027382232
0003a0 3b 95 9a bd f6 92 af 3e df 7c a9 3e 27 ee 4c 3e
       -0.07547995 0.3429181 0.33103082 0.20012723
0003b0 e9 7c 8a 3e 70 0e 2c 3e 25 2b 2c 3e 7c 80 c8 ba
       0.27048424 0.16802382 0.16813333 -0.001529708
0003c0 44 f6 fd 3d 0c f1 7a 3e ba 8d d4 3d d7 d5 9a 3d
       0.12400487 0.24506015 0.10378595 0.07560318
0003d0 13 93 09 be f0 6d 3c 3d c1 6d 51 3e 38 59 d8 3e
       -0.1343501 0.046003282 0.20452024 0.42255569
0003e0 5f 79 93 3e 21 ae 5b 3e d9 08 3a 3f 29 6f 98 3f
       0.28803536 0.21453144 0.7266975 1.1908923
0003f0 25 92 00 be 77 13 a1 be a1 c2 1a 3e 5d 11 02 be
       -0.1255575 -0.31460163 0.15113308 -0.12701936

reshape.bias f4 [48]
000000 77 80 3a be a1 63 44 3e d2 f9 03 3e 3b eb 5a 3a
       -0.18213068 0.1917863 0.12888268 0.0008351092
000010 20 54 1e 3e 40 94 9e 3d b1 39 a4 bc 18 18 a4 3e
       0.15461779 0.0774312 -0.02004704 0.32049632
000020 96 6a 54 3d c9 bf e1 3c 8a 7e b3 3d ea 56 5e 3e
       0.05185946 0.02755727 0.0876437 0.21712843
000030 98 43 15 bd 2a 0e d6 3d 90 5b ef bd 0f 55 e4 3e
       -0.036441416 0.1045192 -0.11687386 0.44596145
000040 77 59 bb bd 4a e3 f6 3d 8a eb 22 be 04 82 24 bd
       -0.091479234 0.12055071 -0.15910164 -0.040163055
000050 75 5f 02 be c6 df be 3d 55 1a 8b be f2 9d 59 be
       -0.12731726 0.09320025 -0.27168527 -0.21251658
000060 77 a0 89 bd 7a 0b 8d 3d 86 5c 88 bd cf 8c 5b bd
       -0.06720059 0.068869546 -0.066582724 -0.053601082
000070 5a 19 42 bd c7 39 c3 bd c5 45 f2 bd f2 0e 04 3e
       -0.04738746 -0.095325045 -0.11829714 0.12896326
000080 75 40 2a bc 33 e1 99 3e 81 c2 28 3e 2f f7 03 be
       -0.010391344 0.30054626 0.16480447 -0.12887262
000090 ba 30 cb 3c 71 ad a1 3d ae cc 46 3d 66 a8 88 3d
       0.024803508 0.078944094 0.04853504 0.066727445
0000a0 35 8f ba bd db b5 91 3e fe b8 92 bc f3 69 59 3e
       -0.09109346 0.28459057 -0.017910477 0.21231823
0000b0 b2 d3 72 bb c2 fd a5 3c 4c 08 73 bc 71 c1 a2 3d
       -0.003705245 0.020262603 -0.014833521 0.07947052

lstm.weight_ih_l0 f4 [192, 48]
000000 55 54 40 3f db c2 c7 bf 49 ff 5a 3f 41 87 aa 3e
       0.7512868 -1.560634 0.85545784 0.33306316
000010 c2 73 98 bf 59 71 3f be be 0b df 3d a6 1c c0 3e
       -1.1910326 -0.18695582 0.108909115 0.37521857
000020 8a 8e 3a 3e cd cb 13 3f 62 16 7d be 75 aa 1e bf
       0.18218437 0.5773285 -0.2471557 -0.61978847
000030 32 23 32 bf ef 33 1b 3e cc 2e 06 bd d6 9d 5a bd
       -0.69584954 0.1515653 -0.032759473 -0.05337318
000040 c0 36 17 be 06 f8 ba be 3e 19 87 3e 23 77 a7 3f
       -0.14766979 -0.36517352 0.26386446 1.3083233
000050 40 b8 75 3f 74 24 70 3f 53 09 f2 3e e3 2c 3f bf
       0.9598427 0.93805623 0.4727274 -0.74677867
000060 b7 b9 98 3e a6 00 12 3e bd bc 4e 3f c7 78 03 3e
       0.2982919 0.1425806 0.8075674 0.12839042
000070 e4 fe d5 3e 34 40 38 bf c5 8a e9 3d c2 66 a6 be
       0.4179603 -0.71972966 0.11403421 -0.32500273
000080 82 7e 22 3d d8 ca 18 be 80 93 21 bf 44 12 b4 3e
       0.03967143 -0.14921129 -0.6311569 0.35170186
000090 eb ce 4c bf f2 69 39 bf 7e c2 93 be 89 7f 0e 3c
       -0.8000323 -0.72427285 -0.28859323 0.008697399
0000a0 cb e0 61 be 3a 05 3d bd d9 50 1c 3e 61 75 01 bb
       -0.22058408 -0.046147563 0.15265216 -0.0019753801
0000b0 cc d1 de 3f 12 fc f1 3e 21 33 3f 3f 78 e1 3d 3f
       1.7407775 0.47262627 0.7468739 0.74172163
0000c0 4e 0a 3c be 48 f3 71 3d 76 be 40 3e 59 40 18 be
       -0.18363306 0.0590699 0.18822655 -0.14868297
0000d0 f5 63 8c 3e c6 62 0b be 65 69 30 3e fd f6 0c be
       0.2742001 -0.13611898 0.17227705 -0.13766094
0000e0 0c 88 44 bb 35 f3 d1 bd ac 89 13 3e bf 0c 6c be
       -0.0029988317 -0.10251466 0.14407986 -0.23051737
0000f0 cc 5b 0d bc af 9f ea 3e 2e 3a 9e be 68 d5 fd 3d
       -0.008627843 0.45824954 -0.30903763 0.1239422
000100 e9 f3 a3 be d9 1e 5d 3d 07 34 17 bc 31 55 bc 3c
       -0.32022026 0.053984497 -0.009228713 0.022989841
000110 f1 6d 2b bf 90 fb 28 3e 2c 68 79 be 57 55 87 be
       -0.6696463 0.16502213 -0.24356145 -0.26432297
000120 5b 1f 31 3e 4d 93 5f be 4e a7 8d bd b8 e3 78 3e
       0.17297117 -0.21833535 -0.069166765 0.24305618
000130 d4 c0 21 3e 67 a7 5f 3e e3 8f cd 3d 8e 23 63 3e
       0.15796214 0.21841203 0.1003721 0.22181532
000140 38 a9 c5 be 26 59 a3 3e ce 59 41 bb 70 e7 26 bf
       -0.38605666 0.31903952 -0.002950299 -0.65196896
000150 30 b9 7a be 69 b0 46 be 51 5c 26 be d7 92 9b 3e
       -0.24484706 -0.19403233 -0.16246153 0.30385467
000160 7c eb 61 3f fc 47 a1 3c 3e 67 a4 3e a2 83 5a 3e
       0.88249946 0.019687645 0.32110018 0.21339276
000170 fc c3 dc 3e ad 1f 77 be 54 5e af 3e a1 3b dd bd
       0.43118274 -0.24133177 0.34251654 -0.10802389
000180 cc 7b c8 3e b4 d2 12 bf f0 4a 6d be 2a 26 90 3e
       0.3915695 -0.5735276 -0.23173118 0.28154117
000190 c8 88 c8 be 1a 0a 19 bf 9b f1 d4 be 68 21 11 3f
       -0.39166856 -0.5978104 -0.4159058 0.566916
0001a0 33 d9 31 3e 3a 47 6d bf 58 44 94 3f 26 50 cb be
       0.17368011 -0.9268681 1.1583357 -0.39709586
0001b0 d4 c8 94 3d 0a fa 07 bf 12 4e 3d 3f 7a df 80 be
       0.072648674 -0.53115904 0.7394725 -0.251705
0001c0 e0 a1 58 3f a3 ac 91 3f 44 f7 69 bf 9f 55 d2 bd
       0.84622 1.138081 -0.9139292 -0.10270237
0001d0 52 76 1a be 17 77 34 bf 0d bc 36 3f 21 64 2d 3e
       -0.15084198 -0.70494217 0.7138069 0.16932727
0001e0 d4 fc 76 be f8 7d 29 be 28 da ed be 39 fc 1b bf
       -0.24119884 -0.1655196 -0.46455503 -0.60931736
0001f0 ab 47 0b be 4d 46 23 3d 6e 28 35 be 3d f5 6c 3e
       -0.13601558 0.039861966 -0.17691204 0.23140426
000200 ff 0e bb 3e 7e 9d 8a 3f 5b 09 8c 3d 4a 35 a9 be
       0.3653488 1.0829313 0.06837722 -0.3304847
000210 ce 79 1a be 86 2f 9b bc 5e a9 fb bd 26 6b f6 be
       -0.15085527 -0.01894356 -0.122881636 -0.48128623
000220 09 e1 42 be c3 18 34 bf a6 c1 81 bf 05 4d 39 3f
       -0.19031157 -0.70350283 -1.0137222 0.7238315
000230 e8 51 f5 be e6 c2 62 bd dd cf 71 bf 4c c9 36 3f
       -0.47914052 -0.05536165 -0.944578 0.71400905
000240 40 ca 59 bc 91 ae a4 bd 5f ac 51 be f9 c6 90 3c
       -0.013292849 -0.080411084 -0.2047591 0.017673003
000250 40 b4 5d 3e 1e e5 ca 3d 3a e3 25 3d 29 c5 68 bd
       0.21650791 0.09906982 0.040499903 -0.05682865
000260 4c 5c e7 bc 0e f2 e1 3b ae c9 38 3a 3b 85 71 3d
       -0.028242253 0.0068953102 0.00070490956 0.05896495
000270 24 04 e6 bd 50 c8 f4 3d a3 f4 8d be 5d cd 9a bd
       -0.112312585 0.11952269 -0.27725706 -0.07558701
000280 53 18 8c be f6 60 5d 3d e6 57 12 3e 5d ab 26 be
       -0.27362308 0.054047547 0.14291343 -0.16276307
000290 9d 68 9b be a7 c6 c6 bd 1a 10 43 be 0e 72 e6 bd
       -0.3035325 -0.09705859 -0.19049111 -0.11252223
0002a0 c1 a5 06 3e 32 c3 ab 3c 63 7f 9c 3b 51 1c 8c 3e
       0.13149168 0.0209671 0.004775928 0.27365354
0002b0 bd c2 b8 bd fe 21 36 3e 3c 85 da 3d 33 98 0e be
       -0.090215184 0.17786404 0.10669944 -0.13925247
0002c0 d2 a7 af bd 2b f5 5d 3d 2f ee 4d 3d b9 0d 75 be
       -0.08576931 0.05418889 0.050275978 -0.23931016
0002d0 03 0c 5f be 6c 64 cb 3d 3b 79 76 bd 27 f5 ff 3d
       -0.21781926 0.09931263 -0.060174208 0.12497931
0002e0 f0 0c 93 3e 71 e3 27 3e 89 eb 1d 3d 29 4c 3e 3d
       0.28720808 0.16395356 0.038554702 0.04645935
0002f0 f9 0e 3f 3e 73 09 00 be b8 e5 5f 3d 8e c9 06 3e
       0.18658055 -0.12503605 0.054662436 0.13162825
000300 08 04 21 3f 1f 15 a4 be 38 aa 28 3f 43 cc 28 3e
       0.62896776 -0.32047364 0.65884733 0.1648417
000310 d6 d8 b1 be 0a cd a2 3d d3 94 25 3e 16 c4 d6 be
       -0.34735745 0.07949264 0.16170053 -0.41946477
000320 78 2a fa be 64 db 64 be d7 c5 eb be df 64 92 3e
       -0.48860526 -0.22349316 -0.46049377 0.28592584
000330 d9 b6 fe 3e e7 f2 ce 3e fd f0 03 be 8c b4 f1 bd
       0.49748877 0.40419695 -0.12884898 -0.11802015
000340 02 dd 10 bd a6 8d a4 bd 7a 56 2c be d6 a2 ef bd
       -0.03536702 -0.0803483 -0.16829863 -0.1170098
000350 6a c5 cf 3d 3b 1b ef 3d 0c 55 d4 3e a6 4f 74 3d
       0.101450756 0.11675116 0.41471136 0.05964627
000360 ad ab fd 3c c1 b8 75 3e 7a 69 16 bb 10 86 39 be
       0.03096565 0.2399626 -0.0022951053 -0.18117547
000370 47 58 9d 3e 91 af 07 bf 12 8d 80 be d1 bb 0f 3e
       0.30731413 -0.5300227 -0.25107628 0.1403649
000380 1f 68 aa 3e d1 56 80 3e 3e b5 15 be 47 90 ed 3e
       0.33282563 0.25066236 -0.1461992 0.46399137
000390 10 8e 36 3e 55 1c ed be 68 cb 5f 3e a6 d6 e0 be
       0.1782763 -0.46310678 0.21854937 -0.43913764
0003a0 e9 df b5 be dc 50 8d 3e 74 e9 e6 bc ae e8 b0 bd
       -0.35522392 0.27600753 -0.028187491 -0.0863813
0003b0 83 1a 29 bf 8a 49 e3 3e d2 f0 4e be 52 97 22 bf
       -0.6605608 0.44392043 -0.20209053 -0.63512146
0003c0 8a d4 45 be ba df f8 3e b1 4e 87 bf 24 81 d3 3d
       -0.19319358 0.4860819 -1.057089 0.10327366
0003d0 37 e3 2e 3e 2f ae ba 3d 7a db a7 3e f0 f5 87 3e
       0.17078863 0.09115254 0.32784635 0.26554823
0003e0 b3 8f 44 3f c0 28 a4 bf c6 8c 16 3f 20 cb 68 3e
       0.7678177 -1.2824936 0.58808553 0.22733736
0003f0 54 c2 f6 ba b5 40 64 3e 67 1b 00 be 38 ba a3 3c
       -0.0018826225 0.22290309 -0.12510453 0.019986257

lstm.weight_hh_l0 f4 [192, 48]
000000 bf f5 a4 3f a2 69 e1 3d 03 99 45 bf dd be 34 bd
       1.2887496 0.11006476 -0.771866 -0.044127334
000010 1f 64 f6 bd d8 ac b4 3e a8 3c fe 3e 8f dc e6 3d
       -0.12030815 0.3528812 0.49655652 0.11272537
000020 d9 76 cc be a0 35 6d bf 35 11 bd 3f 11 13 1a 3f
       -0.39934424 -0.9265995 1.4770876 0.60185343
000030 57 9c de 3e a5 c4 f2 be 0c 47 31 3e 1c d9 04 3f
       0.43478653 -0.47415653 0.17312258 0.5189378
000040 9a 1c b9 3e 44 67 d7 3f 34 60 86 3d 6e b0 4d 3e
       0.36154634 1.6828389 0.06561318 0.20086834
000050 d9 aa 57 3e 82 27 74 bf e3 91 40 bf fa 4b 27 40
       0.21061267 -0.95372784 -0.75222605 2.6140122
000060 25 62 c1 3b f5 b4 42 3f 3a 37 22 40 d1 9a cb be
       0.0059015923 0.7605737 2.5346208 -0.39766553
000070 87 f0 e9 3f f8 05 fe be 87 38 a8 3f 9e f9 83 bf
       1.8276528 -0.4961393 1.3142251 -1.0310552
000080 62 61 1f 3e c4 f1 5f bf de 3f 77 3e 3d 5c 84 bd
       0.15564492 -0.8747828 0.24145457 -0.064629056
000090 d6 bf d8 3d fe 2f 24 3f a2 52 10 3f 40 84 1d 3f
       0.10583465 0.6413573 0.5637609 0.6152992
0000a0 65 00 88 3f 77 7d a8 3f 66 fd 8e 3f 2b 95 51 bf
       1.062512 1.3163289 1.1171081 -0.8186824
0000b0 6c fa c2 3f 3c 43 e8 3e a9 5c 99 3e ce 3f d6 bf
       1.5232673 0.45363796 0.29953507 -1.6738222
0000c0 94 38 7c bf 1d 41 3d 3f 5a 2a 38 3e 91 8d 0d bf
       -0.9852383 0.7392748 0.17984906 -0.5529414
0000d0 44 d1 db 3e 8f fe 0a be 03 51 9c 3e 52 a9 1e be
       0.42933095 -0.13573669 0.30530557 -0.15494278
0000e0 25 f9 d2 3e 0d 54 1c 3f d2 6e 3b be 0d 4f e6 3e
       0.41205707 0.6106575 -0.18303993 0.44982186
0000f0 43 06 c0 be d3 b4 ea bc 26 59 32 bf d0 de 60 be
       -0.37504777 -0.028650677 -0.6966728 -0.21959996
000100 9c d9 3b bf 61 35 c6 be 58 2a b1 be 1a 15 11 3f
       -0.7337892 -0.387126 -0.34602618 0.56672823
000110 b3 26 4c 3f 7d 81 dc 3d 89 fc 65 3f 14 86 aa be
       0.7974655 0.107668854 0.89838463 -0.33305418
000120 a2 09 9e bd 3e 5e b6 be 42 b2 86 bd 65 b3 08 be
       -0.07716681 -0.35618776 -0.06576969 -0.13349684
000130 84 56 f8 3e 24 7d ea be 12 6b 38 bc df eb 0b 3f
       0.48503506 -0.457986 -0.011255996 0.54656786
000140 da a4 d9 3e 8c 4e be 3e 1b aa c1 be 39 82 31 bf
       0.42508584 0.37169302 -0.37825093 -0.6933933
000150 bf a4 bb 3e 6c 9f a0 be 83 ae 09 3f a7 5d 83 be
       0.3664913 -0.3137163 0.5378191 -0.2565739
000160 88 3d cf be 2e 04 d5 be 1e 10 03 bf 90 c8 21 3f
       -0.40476632 -0.4160475 -0.5119647 0.6319666
000170 a8 77 a2 be e3 2f f5 be 31 b7 8a be 1b 00 d7 3d
       -0.31731915 -0.47888097 -0.2709289 0.10498067
000180 30 42 d1 3f ed 40 bc 3e f4 6d 40 3e d0 2c 47 be
       1.6348324 0.36768284 0.18791944 -0.19450688
000190 6a 72 e3 be f5 a0 d3 be 9f 59 40 3f a5 09 c1 be
       -0.44423229 -0.41333738 0.7513675 -0.3770267
0001a0 39 aa d0 bd 6c 0f df bf 66 c8 45 bf 9a d8 19 bf
       -0.101887174 -1.7426581 -0.7725891 -0.6009613
0001b0 27 c1 90 bf 81 5b d0 3f ab d5 86 3e 62 5a 3a bf
       -1.1308945 1.6277925 0.2633489 -0.72794163
0001c0 6f 1c 90 be 31 31 17 3f 6c 0b 06 bf 3e 87 06 3f
       -0.28146693 0.59059435 -0.5236118 0.52550113
0001d0 4e 37 ce 3e 02 ba 1b 3d 22 f6 b0 bf 91 32 0f be
       0.4027657 0.038019188 -1.3825114 -0.13984133
0001e0 2a b4 36 3e 07 54 8c bf d1 b1 37 bf 6a 2a 54 3f
       0.17842165 -1.0963143 -0.717557 0.8287722
0001f0 00 73 99 3f eb 1f fb be e1 5c b3 bf 86 97 f1 3d
       1.198822 -0.4904779 -1.4012719 0.11796479
000200 97 cf fe 3e 97 f6 8c 3f df c0 b6 bf 2b d2 eb 3d
       0.49767753 1.1012753 -1.427761 0.11514696
000210 7a 21 9e bf b9 ab 87 be 10 d4 cd be 92 72 cd be
       -1.2353966 -0.264982 -0.40200853 -0.40126473
000220 e4 ea 70 be d4 e8 da 3d 22 c4 24 3e f1 c0 71 bd
       -0.23527104 0.1068894 0.16090444 -0.059021894
000230 49 0f ff bf a3 f1 13 3f 8c 9d 55 be 19 d9 d6 3e
       -1.992654 0.57790583 -0.2086088 0.41962507
000240 b8 91 a3 bd 3c d8 79 3e a5 49 4d 3d 71 58 02 bc
       -0.07986778 0.24398893 0.05011906 -0.007955656
000250 7a 01 8a 3e ca ce ad bd 38 f4 18 3e 0f 4b ee bc
       0.26954252 -0.084867075 0.14936912 -0.029088525
000260 c0 e7 34 3e aa 40 24 3d 09 97 b4 3b f5 c7 f2 3d
       0.1766653 0.04010073 0.005511169 0.11854545
000270 92 ce 8c bd 9b 1f 12 3e 9d 20 cf be dc 87 67 bd
       -0.06875338 0.14269869 -0.4045457 -0.05652605
000280 dc 15 8d be b4 bb 88 be 3e 81 24 be 00 66 4a 3e
       -0.2755574 -0.26705706 -0.16064927 0.19765472
000290 c7 33 ab 3e a6 ed cb bc eb 8c 91 3e 86 b5 40 be
       0.3343794 -0.024893593 0.28427824 -0.18819246
0002a0 fe 01 89 3c 04 6c 97 3e 18 96 b3 bd 73 18 05 be
       0.016724583 0.29574597 -0.087688625 -0.12997608
0002b0 74 b7 22 3e 95 96 d0 3c e2 8f 1f be a5 86 4c 3e
       0.15890294 0.025462428 -0.1558223 0.19973238
0002c0 27 68 65 be ef 01 ff bc 88 a7 45 3c 21 3d 19 be
       -0.22403012 -0.031128852 0.012063868 -0.14964725
0002d0 a9 df e9 3c 46 58 31 bf 42 76 10 3f 02 e5 93 bd
       0.028549032 -0.6927532 0.5643045 -0.07221414
0002e0 12 aa b3 bd 2a cf a4 be 20 5c 87 bb bb 28 3c 3e
       -0.08772673 -0.32189304 -0.004130855 0.18374912
0002f0 38 31 7b 3d a1 ba 2f bf 60 14 ba bd 53 5d 5f 3d
       0.061326236 -0.6864415 -0.090859175 0.05453236
000300 b8 9f 01 bf d2 09 15 bf e7 44 61 3d d3 c5 3c bf
       -0.50634336 -0.5821811 0.05499735 -0.73739356
000310 8d 38 1d 3e 2f ba 26 bf 0b 1a 62 3f 06 19 3a bf
       0.15353604 -0.65127844 0.8832099 -0.7269443
000320 2e 96 29 3f 3d f2 d0 be d8 2a 01 bf c2 bc 43 3d
       0.6624478 -0.40809813 -0.50456 0.047787435
000330 84 0a 17 bd 28 58 65 bf 47 57 3a bf ea 8b 48 bf
       -0.036875263 -0.8958764 -0.72789425 -0.7833849
000340 da 76 4d be d4 f9 3b bf f2 f2 1f bf f6 3b 4d 3f
       -0.2006487 -0.7342808 -0.6248008 0.8016962
000350 96 0c 24 be b0 d9 df be 94 ca 8f 3f 8a d7 98 bf
       -0.16020426 -0.4372077 1.1233697 -1.1940777
000360 f1 8d 2a 3d be 8b a7 c0 e0 08 b7 be c5 4b 17 bf
       0.041639272 -5.2358084 -0.3574896 -0.5909999
000370 62 d6 6e 3f 9b 30 30 bf 7e b9 69 3f 8a f1 24 3f
       0.9329587 -0.68824166 0.91298664 0.6443106
000380 e1 d2 71 3e d1 b6 a2 3f d9 88 3c bf 17 1c 46 be
       0.236156 1.2712041 -0.7364631 -0.19346653
000390 d8 36 ff bc 17 ad 86 be 86 13 95 bc 21 c0 e9 be
       -0.031154081 -0.26303932 -0.018197786 -0.45654395
0003a0 bb 88 bf bf 66 20 48 3f 73 83 88 bf 66 c5 04 3e
       -1.4963602 0.78174436 -1.0665115 0.12965927
0003b0 3c db 62 bf 09 5d 26 3e 66 12 c2 be 80 ae e3 be
       -0.88615775 0.16246428 -0.37904662 -0.4446907
0003c0 8b 90 c8 3f b7 24 59 bf ff 66 3e bf cd eb 85 be
       1.5669111 -0.8482165 -0.7437591 -0.26156464
0003d0 1b a3 e1 bd 1f 4a c6 be 13 0f 79 3e 1e ef d1 bc
       -0.11017438 -0.38728425 0.24322157 -0.025626715
0003e0 c6 86 aa bf 02 4c 33 3f 7c 2d 8e be d7 44 11 be
       -1.332238 0.70037854 -0.27769077 -0.14186417
0003f0 6f 8f 48 ba fe c2 a7 bf 1a fe 51 3c a4 4f 1a c0
       -0.0007650768 -1.3106382 0.01281693 -2.4111109

lstm.bias_ih_l0 f4 [192]
000000 90 b0 8e 3e f5 a8 1e 3f 3e d7 2e be ed f7 8b 3e
       0.27869081 0.6197656 -0.17074296 0.2733759
000010 08 8f 83 3b 23 b0 24 3e b8 2c 3f bd 59 f3 e0 be
       0.0040148534 0.16082816 -0.046673506 -0.4393566
000020 f7 f1 92 3e 94 66 3b 3d 63 99 11 bf 81 16 3d 3e
       0.2870023 0.045752123 -0.56874675 0.18465616
000030 62 1c a8 be ac b4 c1 be 8e aa 9e bd 1d 37 65 be
       -0.32834154 -0.37833154 -0.077473745 -0.22384305
000040 31 b8 4e 3e 4c 54 5b 3d ed cd 2d 3e df e9 0f bf
       0.20187451 0.05354719 0.16973086 -0.56216234
000050 15 a8 8d 3e 99 a0 94 be dd f4 82 bf 68 a0 4c 3e
       0.276673 -0.29028776 -1.0230976 0.19983065
000060 0d 54 1f be 98 fa 1c bf d4 b8 ec 3d f9 5b 3e 3d
       -0.15559407 -0.61319876 0.11558691 0.04647443
000070 e5 8f 75 3e eb 07 7f 3e 94 94 9e 3e b2 08 41 3e
       0.23980673 0.24905364 0.3097273 0.18850973
000080 73 a8 90 3e 81 a1 64 be 27 64 03 3f 52 d4 f6 be
       0.28253517 -0.22327234 0.51324695 -0.48208863
000090 a2 66 0f 3e 13 49 79 3e 03 5f ac be 42 b5 a5 3e
       0.14003995 0.24344282 -0.33666238 0.3236485
0000a0 b2 84 73 3e ea f1 bf 3e df db 16 bf 9b 98 9e 3e
       0.23781088 0.37489253 -0.58929247 0.30975804
0000b0 9f 2c 1e 3f dd a2 10 3f 38 71 ab bd db 0a 0a be
       0.61786836 0.5649851 -0.08371204 -0.13480704
0000c0 12 69 04 bf 9a a8 d4 3e ee 33 d7 3e ad 2b 97 3d
       -0.51722825 0.41534883 0.42031807 0.07381377
0000d0 6f 85 e3 3c 2d 3b b5 3e c1 0c 24 3f 3b 72 14 bf
       0.027773587 0.3539671 0.6408196 -0.579868
0000e0 80 67 2b 3e 91 c5 07 3e 30 73 11 3e 19 70 83 3e
       0.16738701 0.1325896 0.14204097 0.2567146
0000f0 4f ca a2 3e 57 d0 b9 3e 33 e7 ec 3e 1e b1 24 be
       0.31794974 0.36291763 0.4627014 -0.1608319
000100 e6 d3 81 3d d5 9e 0f 3e 2c 0a f2 3e 48 02 1b bb
       0.063392445 0.14025433 0.47273386 -0.0023652483
000110 a6 fa fa 3d 23 01 7a 3e 79 03 be 3e d5 12 66 bf
       0.12254839 0.24414496 0.37112024 -0.89872485
000120 3e f6 66 3e d6 65 ca 3e 2d b1 4f 3f 15 dd 3e 3e
       0.22554871 0.3953082 0.81129724 0.18639024
000130 7e fb 83 3e d8 8e fe 3e a9 97 3f be cf d1 a3 3d
       0.2577781 0.49718356 -0.18710198 0.07999002
000140 a3 e3 77 bd 99 6d bb 3d 7f 23 fc bd 7f 78 c9 3e
       -0.060519826 0.091517635 -0.12311458 0.39349744
000150 7f 36 23 39 eb 93 af 3e 0d eb c6 be 4d 96 ee 3e
       0.00015565193 0.3429254 -0.38851205 0.46599045
000160 04 8b 8b 3e 74 49 e7 be aa 47 c1 3e 79 63 7b 3d
       0.27254498 -0.45173228 0.37749988 0.06137416
000170 72 6a 4f 3f bd 8b 2e 3e 23 f2 c8 3e e3 1e f0 bd
       0.810218 0.17045493 0.39247236 -0.11724641
000180 1b 9c d1 be 64 cc 0c 3e dc 09 94 3e 63 c6 f7 bd
       -0.40939412 0.13749844 0.28913772 -0.12098386
000190 d3 ba 20 3e 60 d7 d1 be a3 b8 83 3e 90 37 fc be
       0.15696268 -0.4098463 0.25726804 -0.4926114
0001a0 8b a9 51 3e 34 a7 9e 3e 82 87 d9 be 13 1a 9f 3e
       0.20474832 0.3098694 -0.42486197 0.3107458
0001b0 91 85 e1 be 70 00 3b 3f 4d 67 02 bf c6 2a 01 3f
       -0.44047216 0.7304754 -0.50938874 0.5045589
0001c0 03 b0 5b be 5f da 31 bd 5b 6c c0 be c9 bc bf 3e
       -0.21453862 -0.043421146 -0.3758267 0.3744872
0001d0 97 86 07 3f dd 14 11 3e 62 c2 73 bd 62 70 87 3d
       0.5293974 0.14168115 -0.05951155 0.06613232
0001e0 d8 0d 24 bd 22 c3 a1 be a4 23 eb be 1d d6 9a be
       -0.040052265 -0.31594187 -0.4592563 -0.3024148
0001f0 69 28 cf 3e b5 ee 90 be 23 1f 8e be 26 3b 42 3e
       0.40460518 -0.2830712 -0.2775813 0.18967876
000200 5f 8e 93 3e f9 b1 55 3d ec cd 3d be 1b fa de bd
       0.28819558 0.05217168 -0.18535584 -0.108875476
000210 e4 80 3c 3e 31 07 32 be 69 ae 13 3f f9 57 dc be
       0.18408543 -0.17385556 0.57688004 -0.43035868
000220 63 a6 0b be a4 18 4a 3f 83 5e 0b be 53 93 09 3f
       -0.1363769 0.7894385 -0.13610272 0.53740424
000230 da 4e bd be 8c ca 7e be e2 12 36 bf 16 71 0e bf
       -0.3697422 -0.24881953 -0.7112256 -0.55641305
000240 3e 82 38 3f 5b 07 5a be c7 47 1b be 4d 87 11 3f
       0.72073734 -0.21291868 -0.151641 0.5684708
000250 16 ff 06 3e 2a 97 a0 3e 1f f6 2c be b5 a7 9e 3e
       0.13183245 0.3136533 -0.16890763 0.30987325
000260 b4 49 63 3f 8f a2 0b bf b9 62 68 3e db f0 b0 3e
       0.8878434 -0.5454492 0.2269391 0.34558758
000270 51 0f d0 bb ce 95 22 bd fc e9 e2 3e a0 d1 df 3e
       -0.006349482 -0.039693646 0.4431914 0.4371462
000280 35 39 03 3f 50 4c 22 3e 47 9d 3b 3e a5 d8 a5 be
       0.51259166 0.15849423 0.18321715 -0.3239185
000290 87 09 ba be d8 67 63 3e e9 1c 3d 3f c5 0c e9 be
       -0.36335394 0.22207582 0.7387224 -0.45517555
0002a0 94 da 58 3e 1b fd 1a 3f 29 c6 81 3e 67 d1 a2 3e
       0.21177131 0.6054246 0.25346497 0.31800386
0002b0 05 de f5 3e 77 83 df 3e 94 38 43 3e a1 49 86 3e
       0.4802095 0.43654987 0.19064552 0.2622805
0002c0 3a 61 17 3d 74 0e 32 bd 20 e6 22 3f dc f6 4d bf
       0.036957957 -0.043470815 0.6363239 -0.804548
0002d0 af 64 c3 3e a7 b2 d6 3e 9c ff 9a 3f 96 f0 f0 3e
       0.38162753 0.41933176 1.2109256 0.47058553
0002e0 9b 41 7b 3f b0 2a 11 3f 1b 0c 3e 3e d3 da 0d 3d
       0.9814698 0.5670576 0.18559305 0.034632515
0002f0 6c ce 60 3e 99 2b 91 3f 8a df ab 3d 63 a3 83 3e
       0.21953744 1.134143 0.08392246 0.25710592

lstm.bias_hh_l0 f4 [192]
000000 09 fa 9b 3e eb a2 1b 3f ba fb 57 bd 3d 7b aa 3d
       0.304642 0.6079547 -0.0527303 0.08324287
000010 c4 e6 94 bd 20 e8 7e 3e da ec 93 bd d2 ce d6 be
       -0.072705775 0.24893236 -0.0722291 -0.41954666
000020 52 12 8e 3e c1 18 15 3e 67 77 09 bf 36 0d e4 3d
       0.27748352 0.14560224 -0.5369782 0.11135332
000030 16 6c d1 be de 77 08 bf f8 1b 0e be 89 25 e6 bd
       -0.40902776 -0.533079 -0.13877857 -0.11237628
000040 42 7c a0 3e 3b 0a a1 bd 23 3d 96 3e 7b fd 0a bf
       0.313448 -0.078632794 0.2934352 -0.5429303
000050 fa a2 7d 3d 82 63 cd be 75 8c 71 bf c4 ff 23 3e
       0.061923005 -0.4011498 -0.94354945 0.16015536
000060 3b 16 6b 3d a9 5f 2b bf 6e a5 00 3e 81 e8 62 3e
       0.057394248 -0.6694284 0.12563106 0.22159006
000070 97 42 7d 3e 2c b2 41 3e 17 33 1e 3e f9 50 9e 3e
       0.24732433 0.18915623 0.15449177 0.30921152
000080 db cb 18 3e ef de 67 be 76 82 8d 3e 2c 11 eb be
       0.14921515 -0.22643636 0.27638596 -0.4591154
000090 19 be 13 3d f2 0c 26 3e f9 5b b4 bd d0 f2 fc 3e
       0.036069963 0.16215876 -0.08806605 0.49404
0000a0 65 33 41 3e 34 7f 22 3e d4 ea ee be 1b 97 39 3e
       0.18867262 0.15868837 -0.46663535 0.18124048
0000b0 ef 0c 2d 3f 72 8c 22 3f c1 c9 60 be 58 02 9e be
       0.6759786 0.6349555 -0.21951963 -0.30861163
0000c0 f7 50 e9 be 74 85 ca 3e 7a 80 e6 3e a9 e8 3a 3e
       -0.45569584 0.39554942 0.45019895 0.18252815
0000d0 6c ab a1 bd 1d c7 62 3e 2b 33 26 3f 8e 55 f1 be
       -0.07894024 0.22146268 0.64921826 -0.47135586
0000e0 e8 a7 cb 3e 71 d9 b8 3d 31 78 94 3e cc 85 9f 3d
       0.3977654 0.09025849 0.2899795 0.077891916
0000f0 43 d1 e1 3e ac 92 a9 3e 8a 40 78 3e 9d 67 d0 bc
       0.44104967 0.33119714 0.2424337 -0.025440032
000100 30 96 51 3e 80 1e 9d 3c e6 16 e3 3e 67 6e 81 bd
       0.20467448 0.019179583 0.44353408 -0.06319886
000110 fe 37 89 bd 7a 99 67 3e 15 27 d2 3e 36 71 31 bf
       -0.06700133 0.2261714 0.41045442 -0.6931337
000120 7d 0b 9b 3d 5a ea 36 3e 53 5c 58 3f 02 da f1 3d
       0.075705506 0.17862836 0.84515876 0.1180916
000130 a2 dc b1 3e 9f 78 96 3e c3 56 2a be 62 49 09 be
       0.34738642 0.29388902 -0.1663466 -0.134069
000140 94 78 eb bd 90 79 88 3e 21 26 84 3d 08 4a cb 3e
       -0.11497608 0.26655245 0.06452585 0.3970492
000150 05 57 92 3e ab 71 d7 3e b2 c3 da be 8d 3f ee 3e
       0.28582016 0.4207891 -0.4272743 0.4653286
000160 e4 e1 80 3e 07 cb b5 be d8 30 c0 3e 85 09 08 3e
       0.2517234 -0.3550646 0.37537265 0.13284881
000170 0d f6 29 3f 84 89 61 3e 67 4b 86 3e 01 f5 5b be
       0.6639107 0.22025114 0.26229402 -0.2148018
000180 5c 5b f4 be 88 c9 70 3e 99 11 61 3e 55 b7 3f be
       -0.47725952 0.23514378 0.21979369 -0.1872228
000190 44 52 40 3e 5c 92 0b bf 20 39 e0 3d 1e e9 b6 be
       0.18781382 -0.545202 0.10948396 -0.3572473
0001a0 c6 5a 9c 3e 18 12 4b 3e 60 99 af be 97 53 85 3e
       0.30538005 0.19831121 -0.34296703 0.26040336
0001b0 01 32 ce be 3e a4 40 3f 66 68 a1 be 40 5b 07 3f
       -0.40272525 0.75250614 -0.31524962 0.5287361
0001c0 2f 08 5a be 8e 82 dd bc d5 4e 83 be 65 cd 05 3f
       -0.21292184 -0.027039792 -0.25646082 0.5226653
0001d0 9f fc d6 3e 17 24 9f 3e b6 da 1f 3e 86 61 c0 3d
       0.4198961 0.31082222 0.15610775 0.09393601
0001e0 a8 21 4e be d8 9f 61 be ab 1e ef be 85 48 10 be
       -0.20130026 -0.22033632 -0.46703085 -0.14090164
0001f0 f5 e4 0c 3f 93 d4 81 be 71 85 e7 be dc 2f 9e 3d
       0.5503686 -0.25357494 -0.45218995 0.07723972
000200 af 68 ce 3e 33 88 91 3e 95 ac 65 bd a4 0a 87 be
       0.40314242 0.28424224 -0.05607279 -0.26375306
000210 d4 a9 cd 3d d6 a1 8f be a4 9e e3 3e 8b 97 ef be
       0.10042158 -0.2805316 0.4445697 -0.46795306
000220 cf 03 d5 bd c0 9e 2d 3f 2f ce 41 be 97 90 f0 3e
       -0.10401117 0.6782036 -0.18926309 0.46985313
000230 f4 3a fb be 53 0e a3 be 5b b4 55 bf 09 b1 07 bf
       -0.49068415 -0.31846866 -0.83478326 -0.5300451
000240 b8 a9 41 3f e5 0f 8a be 39 2d 9c be e4 e7 1a 3f
       0.75649595 -0.26965252 -0.30503252 0.60510087
000250 af bd 13 3e a5 bc 0f 3f 8e bf 68 be bb d8 80 3e
       0.14427827 0.56147224 -0.22729322 0.25165352
000260 8e de 65 3f 55 68 dd be bd 44 a3 3e 79 1b 10 3e
       0.89792717 -0.43243662 0.3188838 0.1407298
000270 a3 e1 0d bd 96 ae 6c bd 21 95 98 3e 29 73 96 3e
       -0.034639012 -0.057783686 0.29801276 0.29384735
000280 2c b1 ba 3e 84 d5 06 3e a0 d4 90 bd da 9c 01 bf
       0.36463296 0.13167387 -0.07071805 -0.5062996
000290 6a ed 99 be a8 f3 7e 3e 46 53 37 3f 65 5b f2 be
       -0.30063945 0.24897635 0.7161144 -0.47335353
0002a0 67 a5 49 3e 21 35 25 3f c7 57 19 3e 2c 64 d0 3e
       0.19692002 0.64534193 0.1497489 0.40701425
0002b0 85 8b b3 3e de 99 ca 3e d1 de 1f bc 1e f2 67 3e
       0.35067382 0.39570516 -0.009757713 0.22650954
0002c0 11 2d c5 bc 57 74 4d 3e 46 f8 13 3f d1 04 5f bf
       -0.02406934 0.20063911 0.5780071 -0.87116724
0002d0 ed 47 92 3e 02 5b 36 3e a9 c0 9c 3f b1 95 cf 3e
       0.285705 0.17808154 1.2246295 0.40543893
0002e0 c9 e4 69 3f 59 f7 3d 3f f1 c6 b6 3e 7c 60 57 3e
       0.91364723 0.7420555 0.35698655 0.210329
0002f0 2b ee b6 3e 86 07 90 3f ea a9 d0 bd 61 86 a0 3d
       0.35728583 1.1252296 -0.101886585 0.07838131

lstm.weight_ih_l0_reverse f4 [192, 48]
000000 81 7f ed bc e6 e4 ca be c4 d5 d4 3c 51 87 23 3f
       -0.028991463 -0.3962776 0.025980838 0.6387835
000010 58 82 87 3e 70 94 ed be e2 a2 71 3e c1 21 6b bf
       0.26466632 -0.4640231 0.23597291 -0.9184838
000020 5a be 44 bf da f0 5a 3f 5d f5 0e be eb 35 13 bf
       -0.76852953 0.8552376 -0.13960786 -0.5750415
000030 6d 71 3f 3f 9d 13 57 3f 80 4c 5f bd 13 17 45 bf
       0.7478245 0.840143 -0.054516315 -0.76988333
000040 03 c8 ff be d1 7f d1 3e ef 71 0b 3f 9d f1 01 3e
       -0.49957284 0.4091783 0.54470724 0.12689824
000050 d2 4f 38 bf 29 79 1d 3f a3 63 ed 3e b1 6f c4 3d
       -0.71996796 0.61513 0.4636508 0.09591616
000060 b6 ea 5d 3f 9d 20 45 bf 1b 28 68 be 34 7b 1c 3f
       0.86686265 -0.7700289 -0.22671549 0.61125493
000070 74 13 0b be 39 fc 60 3e fd 97 05 3f 06 4e 1e 3d
       -0.1358164 0.21971215 0.5218504 0.038648628
000080 fa a5 88 3e 51 19 07 bf cf 38 bb 3d ca fb d3 bc
       0.2668913 -0.52773005 0.09141695 -0.025876898
000090 7b 2b fe bb a8 8b 9f 3d 0c 19 b8 be 90 49 77 be
       -0.007756648 0.07790309 -0.3595661 -0.24149156
0000a0 6f 6f 2c be 18 ad a5 3f ec cc 1f 3f 96 58 03 be
       -0.16839384 1.2943449 0.6242206 -0.12826762
0000b0 86 7a 0a 3f 74 b4 bc 3c 88 65 d9 be 3b 96 c8 3e
       0.54093206 0.023035266 -0.42460275 0.39177117
0000c0 38 fe 95 3c ff 59 0f be e6 3d ba 3e b0 99 06 3e
       0.018309698 -0.13999175 0.3637535 0.13144565
0000d0 84 1e 63 bf 87 58 e6 3c dd f2 47 3d 55 69 8a 3e
       -0.8871844 0.028118385 0.048815597 0.27033487
0000e0 89 1a 6f 3e e4 cc 4b bf ff cf 42 3f ea f7 23 be
       0.23349966 -0.79609513 0.76098627 -0.1601254
0000f0 22 82 30 3e 9f b5 39 3e 99 c6 95 3f 11 6f 04 be
       0.17237142 0.18135689 1.1701232 -0.12932993
000100 a9 31 34 be 07 fb 5e 3f 41 aa 2e bf 78 bd be 3d
       -0.17597069 0.8710179 -0.68228537 0.09313482
000110 c9 5c dd 3d f0 5f 8a be 73 16 7c bf 50 21 ec 3e
       0.10808713 -0.2702632 -0.98471755 0.46119165
000120 99 2c 37 bf 55 69 b8 3f c5 cb b8 be 17 20 a3 bc
       -0.71552426 1.4407145 -0.36092964 -0.019912763
000130 59 a1 03 bf b8 f6 a2 bf ce e4 b0 be 2a 4f bc 3e
       -0.5141807 -1.2731543 -0.34549564 0.36779147
000140 94 a9 7f 3f 61 53 5c 3f 54 44 c6 3d 6e 2e a1 3e
       0.9986813 0.86064726 0.09681001 0.31480736
000150 d7 44 00 3e a4 eb 4f bf 7c fb 02 40 35 5d ea bd
       0.1252626 -0.81218934 2.0465994 -0.11443559
000160 dd 6a a0 be 20 c3 10 3f 37 5f be bf 18 cf 11 3e
       -0.3133153 0.5654774 -1.4872807 0.14239156
000170 17 55 3b bf 25 c0 9c 3e e2 39 86 bd 9c b5 49 be
       -0.7317671 0.30615345 -0.06554009 -0.19698185
000180 e7 e8 3c 3d 84 67 93 3e 8b 5f a0 3e 51 3f f8 3c
       0.04612055 0.28789914 0.31322894 0.03030363
000190 3a 5b c4 bd e9 e3 65 3f 1b 70 a6 3c 15 3a 95 3e
       -0.095877126 0.8980089 0.020317128 0.29145876
0001a0 1e 41 12 3c 2e 63 96 be de a3 54 bf 70 da 68 3e
       0.008926658 -0.29372543 -0.8306254 0.22739577
0001b0 e3 33 9a be f6 24 13 3e 51 12 be bd cf c7 13 3e
       -0.3011771 0.14369568 -0.09280837 0.1443169
0001c0 44 1d 1c 3e a9 ac 5a be 67 d5 91 bd 69 bc e9 3d
       0.15245539 -0.21354927 -0.071207814 0.114128895
0001d0 07 7e df be 7d 8a c0 be 45 d0 b5 3e df 36 1c bd
       -0.4365084 -0.37605658 0.3551046 -0.038138267
0001e0 bc df aa be b2 ce da bc 2b a1 42 3f 52 49 b2 be
       -0.3337382 -0.026709888 0.7602717 -0.34821564
0001f0 4c 9a c3 be db 48 aa be e7 14 2a 3f ac e1 dc be
       -0.38203657 -0.3325871 0.66438144 -0.43140924
000200 6f ab 25 bf 26 c5 a1 bd b2 aa b4 bd 6d ab 7e 3c
       -0.6471471 -0.07898931 -0.0882162 0.015543801
000210 83 cc 8e be f0 62 4b be 7a e6 83 be ea f2 06 3e
       -0.27890405 -0.1986196 -0.25761777 0.13178602
000220 33 fa ce 3d 46 0f a4 be 85 be b0 bd b7 54 18 bf
       0.101063155 -0.32042903 -0.08630089 -0.59504265
000230 53 06 cc 3d ac 25 18 3e 94 4c 4c 3f a1 a6 ed 3e
       0.09962144 0.1485812 0.7980435 0.4641619
000240 9d fd ea be 84 51 48 bf 31 89 e9 3e 06 8e 83 3c
       -0.45896617 -0.7824938 0.4561248 0.016058933
000250 cb 3b 14 3f d4 08 39 3f a4 87 f8 3e 0c a2 91 3e
       0.57903737 0.72279096 0.48540986 0.28443944
000260 42 07 45 be 9e f5 7c bf b5 97 75 be 82 c2 93 3e
       -0.1924105 -0.9881228 -0.23983653 0.28859335
000270 19 4b 57 bf c4 e5 70 3e 14 56 c4 bf 02 61 26 3f
       -0.84098965 0.23525149 -1.5338769 0.6499177
000280 c2 95 83 bc 94 2e 02 be 79 23 66 be 71 b6 9b be
       -0.016062621 -0.1271308 -0.22474469 -0.3041263
000290 fb 1a 56 bf 6f 03 9e 3f 2d 6b a6 3d 94 05 0a 3f
       -0.8363492 1.2344798 0.08125911 0.5391476
0002a0 26 57 07 3f e8 06 9e bd c0 f5 2a 3f 2f 06 ba 3d
       0.5286735 -0.07716161 0.66781235 0.09083211
0002b0 6b 96 bd be 77 1b 14 bf 72 15 4f be 17 2f 9e 3e
       -0.37028822 -0.5785441 -0.20223024 0.30895302
0002c0 bb bd 39 bc 51 8a 4c 3f 14 ef 98 be 54 f7 1f bf
       -0.011336739 0.79898554 -0.29869902 -0.6248677
0002d0 9e 3a 83 bd 20 2e 69 bf ad 2f d1 be c4 96 6b 3e
       -0.06407665 -0.91086006 -0.40856686 0.23006731
0002e0 ad 49 22 3f 6d 3c 15 3f e7 ef bd 3d ea a5 a7 3e
       0.6339367 0.5829533 0.09274273 0.3274377
0002f0 71 77 b3 3e aa d7 01 3f 67 f0 68 3f 11 de 15 3f
       0.35052064 0.507197 0.90991825 0.5854197
000300 96 e4 11 3f f2 c8 9f 3e 96 91 93 be 3d a0 67 be
       0.5698942 0.31207997 -0.2882201 -0.2261972
000310 07 e3 e6 be b9 25 ae 3e d7 ed d9 bd ad 1b db 3a
       -0.45095083 0.34013155 -0.106410675 0.0016716622
000320 0b 74 ae be ea cb 3a 3f ee c0 c1 bc 6f 75 ce 3d
       -0.3407291 0.729674 -0.023651566 0.100809924
000330 7a 4d 2e be 87 fd 5f 3d 47 93 49 3f dc 38 d3 3e
       -0.17021742 0.054685142 0.7874035 0.41254318
000340 71 1c fc be e5 02 d7 3e 2e 55 bb 3e 30 9a 1a 3e
       -0.4924045 0.41994396 0.36588424 0.1509788
000350 d7 96 1a 3f d4 3c 57 3d 07 d8 2b bf 51 cb 7f be
       0.60386413 0.052548245 -0.67126507 -0.24979903
000360 e2 e7 f3 3e 16 8f 27 3f 05 fb 23 bf 98 b1 a7 3e
       0.4763785 0.65452707 -0.640549 0.3275268
000370 bb 81 f0 be 30 f6 2d 3e e0 75 32 be 94 61 53 bf
       -0.46973976 0.16988444 -0.17427778 -0.8257077
000380 c7 60 e5 3c bb 77 33 bf c9 6d 38 be 9d 6e 23 3f
       0.028000249 -0.7010457 -0.1801063 0.6384066
000390 a6 af 16 bf 8c 4c e3 bd d6 43 30 3e 59 f2 eb 3e
       -0.5886177 -0.110985845 0.17213377 0.46083334
0003a0 d6 ea c0 be 6c 5f 49 3d 7a d6 9b 3e 9f 28 cf be
       -0.37679166 0.049163267 0.3043707 -0.4046068
0003b0 59 a5 3d bf 01 fb b9 3d 2d 83 9e be d5 2b 87 3d
       -0.74080426 0.09081078 -0.30959454 0.06600157
0003c0 8e 95 d0 3e b1 7e b4 bf fb 2b 20 3d fa 37 f6 3c
       0.407391 -1.4101163 0.039104443 0.030055989
0003d0 bc 8e 4c bf 2f 40 98 bf 2e 06 93 3f 2d fc a8 3e
       -0.79905295 -1.1894587 1.1486261 0.33004895
0003e0 d7 89 5f 3f 92 10 1e 3f 57 eb e7 3e eb ac 1a bf
       0.873197 0.61744034 0.45296738 -0.604201
0003f0 73 d0 86 3f eb b3 6e 3f 52 71 f9 3d 5c 00 1b bf
       1.0532364 0.93243283 0.12179817 -0.60547423
