captcha_model.pth (torch, 194706 bytes, 18 tensors)

cnn.0.weight f4 [12, 1, 3, 3]
000000 93 6f e7 be 15 9c 89 3c 84 ba 56 3f 06 80 de 3d
       -0.45202312 0.016798059 0.8387835 0.10864262
000010 52 73 44 bf 13 2d c0 3e 0c 3c c0 3e 62 35 0e bf
       -0.76738465 0.3753439 0.37545812 -0.55550206
000020 98 c1 f4 bd 58 c0 4e 3f 6a 64 05 3f f6 1f 43 3f
       -0.119509876 0.80762243 0.52106345 0.76220644
000030 c4 59 0e 3d 84 48 50 bf c8 ea 66 bd 07 08 02 be
       0.034753576 -0.8136065 -0.05637625 -0.12698375
000040 42 91 e2 bd 0b 97 ee 3d 7f 07 80 3e 54 7b aa 3e
       -0.11062862 0.11649903 0.2500572 0.33297217
000050 1b e4 cf be 90 ca c2 be 74 f8 6f 3f da a1 ac be
       -0.40603718 -0.38045168 0.93738484 -0.33717233
000060 00 e5 03 bf e9 fe 07 3f e4 db ad 3c 7e f3 80 3e
       -0.515213 0.5312334 0.021223016 0.2518577
000070 71 b9 3b bf fa 14 54 3f 92 5b 42 be 37 1e db be
       -0.73329836 0.8284451 -0.18980244 -0.4279649
000080 4d 39 09 3e a6 79 13 bb b3 5e 23 be 2f 4b 76 3f
       0.13400765 -0.0022502928 -0.15954094 0.9620847
000090 9a a3 18 3f 7e c7 33 bf 2b e6 ba bd e4 5c 25 bf
       0.59624636 -0.70226276 -0.09125932 -0.64594865
0000a0 16 12 2d 3e 9d 00 3c 3f 01 ef 90 bd 75 7e 29 3f
       0.1690143 0.73438436 -0.070768364 0.66208583
0000b0 19 b4 f7 be 97 e2 c2 3d 8d 0e 0c be 12 db 7d be
       -0.4837959 0.09515875 -0.13677426 -0.247906
0000c0 e3 50 12 bf b3 e1 1e bf a0 9f 44 be 68 1b d1 3e
       -0.57154673 -0.6206314 -0.19201517 0.40841222
0000d0 8e da 3c 3f ef 1a df 3e 12 da 00 3f 16 34 32 3e
       0.7377099 0.43575236 0.5033275 0.17402682
0000e0 04 4f f5 be 8b 73 1d 3f c8 04 8d bf 4b 33 a9 3e
       -0.47911847 0.6150443 -1.1017084 0.33046946
0000f0 48 b5 eb be 89 90 af bd d1 29 90 3e 51 76 4a be
       -0.46036744 -0.0857249 0.28156903 -0.19771697
000100 1b 8b 20 be c6 b5 b3 bd 43 c9 99 be 2f 9c 1a bf
       -0.15678065 -0.08774905 -0.30036363 -0.6039457
000110 ad 73 50 be 9b a5 ba be 91 25 ff bd 53 1b bf be
       -0.20356627 -0.36454472 -0.12458337 -0.37325534
000120 3d 9f 05 3f 58 83 35 bf a3 72 9a 3e 5c 45 1c 3f
       0.52196103 -0.7090354 0.30165586 0.61043334
000130 40 06 d8 be c3 3e 0d bf 4d 72 05 3f 28 98 ad 3e
       -0.42192268 -0.5517389 0.52127534 0.33905149
000140 be 34 6e 3e d9 85 e4 3e bb cf 86 be 75 c7 7f be
       0.23262307 0.44633368 -0.2633036 -0.2497843
000150 83 a9 5b 3f 00 b3 ae be 3b ff c2 be 66 9c e1 3e
       0.8580553 -0.3412094 -0.3808535 0.44064635
000160 14 c8 0f 3e ae a5 3c bf 86 88 9f 3c a9 51 05 3f
       0.14041167 -0.7369031 0.01947428 0.5207773
000170 2a 80 0e 3f 2e 31 9a be 2a 37 6f bf 5b 13 32 be
       0.5566431 -0.30115646 -0.9344355 -0.17390196
000180 e1 5b 95 3e 80 cc 87 3e 21 cf 17 be f9 28 da be
       0.2917166 0.2652321 -0.14825107 -0.42609385
000190 53 1b a8 3e 12 d3 6f 3e de 66 68 bf ff 21 44 3e
       0.32833347 0.2342036 -0.9078196 0.19153593
0001a0 34 4a 52 3f ef bc 27 bf 1a 4c a6 bd 49 da 32 3e
       0.82144475 -0.65522665 -0.08119984 0.17466082

cnn.0.bias f4 [12]
000000 1e 36 08 be 4d cf 6e 3f 91 29 ee be d9 a5 50 3e
       -0.13301894 0.93285066 -0.46516088 0.20375766
000010 6f e1 29 bf a7 ab 4e 3f a0 6d ce 3c b8 11 e1 3d
       -0.6635961 0.8073067 0.025198758 0.10989708
000020 d5 91 24 bf fd e9 21 bf 8e 5d 31 3e 6a b3 9b 3e
       -0.6428502 -0.6324766 0.17320845 0.3041032

cnn.1.weight f4 [12]
000000 ff d8 2d 3e 3c da 60 3e 9a 36 4c 3e 90 44 86 3e
       0.16977309 0.2195825 0.19942704 0.26224184
000010 be db 0c 3e c8 0e 6c 3e 5f da 1a 3e 85 1b b9 bc
       0.137557 0.23052514 0.15122364 -0.02259613
000020 91 22 47 3e de 64 13 3e e6 b0 11 3e 26 0b 1b 3e
       0.1944678 0.14393947 0.14227638 0.15140972

cnn.1.bias f4 [12]
000000 26 ee e8 bd 33 a8 f1 bd 82 23 cc bd 5b f4 31 be
       -0.11373548 -0.117996596 -0.0996771 -0.1737837
000010 30 c6 cf bd de 95 21 be 3e 7e e4 bd 76 87 62 3c
       -0.10145223 -0.15779826 -0.11156891 0.013826242
000020 20 cd d6 bd 1b 0e 91 bd 2d 1c e0 bd 29 6d a5 bd
       -0.10488343 -0.070827685 -0.10942874 -0.08077461

cnn.1.running_mean f4 [12]
000000 b7 9f a7 be 71 40 cc 3f 56 09 39 be 16 c1 0d 3f
       -0.3273904 1.5957166 -0.18069968 0.5537275
000010 8e 6f 01 bf 53 b2 34 3f 99 2b 73 bd c8 1f b5 bf
       -0.50560844 0.705846 -0.05936775 -1.4150324
000020 b1 fe 3e be 29 87 2c bf 86 c5 2c 3e 52 fe 03 3e
       -0.18651845 -0.6739374 0.16872224 0.12889984

cnn.1.running_var f4 [12]
000000 32 15 95 3e e8 99 26 3f 9c 4c 70 3e d2 d2 d9 3e
       0.29117733 0.6507859 0.23466724 0.42543656
000010 6d 85 03 3e f0 38 d6 3e 65 2c 5b 3e 3d 03 97 3f
       0.12843867 0.41840315 0.21403654 1.1797863
000020 83 63 e1 3e 51 c8 30 3f 72 3b 51 3e 19 3e 4e 3f
       0.44021234 0.6905566 0.20432833 0.80563504

reshape.weight f4 [48, 144]
000000 6e 01 39 3e 62 3c 9f bb 25 f4 7a 3d 0f 8f bb 3d
       0.18066952 -0.004859493 0.06126799 0.09158146
000010 39 04 be 3d 5b 47 6b 3e de d5 e2 3e e8 34 be 3e
       0.09278149 0.22976439 0.44303793 0.3714974
000020 5e 89 c9 3e 27 ba cd 3e 19 8f 54 3e fc c9 f4 3e
       0.39362615 0.40181085 0.20757712 0.47810352
000030 6e d4 84 be 50 f7 a2 be 4d 69 5c be ad 41 42 3e
       -0.2594332 -0.3182931 -0.21524544 0.18970366
000040 26 a3 38 3e 8b e7 d9 3d e6 f4 65 bc dc ce 1b 3b
       0.18030986 0.106398664 -0.014035439 0.002377442
000050 ac d5 b7 bd 78 65 81 3e 46 fb 0b 3f 19 4e d9 3e
       -0.089763016 0.25272727 0.5468029 0.42442396
000060 af a8 91 3e 64 24 a0 3d 92 82 26 3e 47 fe 0d be
       0.28449008 0.07819441 0.16260746 -0.1386653
000070 3e 01 b7 bc ac d9 8c 3d 99 26 b6 3d 24 fb e3 3d
       -0.02233946 0.06877455 0.08894081 0.11131886
000080 04 f4 d4 3e 34 60 1a 3f cf 25 8b 3e 61 17 46 3f
       0.4159242 0.60303044 0.27177283 0.77379423
000090 ac 6b c9 3c ed e7 d4 3d f6 c2 04 3d 4f 45 b2 bd
       0.024587475 0.10395799 0.03241249 -0.08704626
0000a0 28 22 a1 bd 21 23 a3 be d0 ed de be d6 70 d1 be
       -0.07867843 -0.3186274 -0.43540812 -0.409064
0000b0 4f 44 b5 be a8 a6 16 bf f0 01 42 bf df 1d 58 bf
       -0.35403678 -0.5884805 -0.75784206 -0.8442058
0000c0 35 3f cc 3e 33 42 be 3d 76 ef 01 3c 9f 0b 32 3e
       0.39891973 0.0928997 0.007930627 0.17387246
0000d0 61 a2 d7 bd 5e f2 91 be 6a 54 09 bf a9 49 f9 be
       -0.10529018 -0.28505224 -0.5364443 -0.4868901
0000e0 69 02 f5 be c7 5d 52 bd e7 b6 5a be fe 74 04 be
       -0.478534 -0.051358964 -0.21358834 -0.12935254
0000f0 61 c4 1d be 2e d8 9b bd f0 05 51 bb 88 1f a0 bd
       -0.15406944 -0.076095924 -0.0031894408 -0.07818514
000100 ab 59 5c bd 07 1b 8e bd 6b 60 03 3e 8a 68 21 3e
       -0.05379645 -0.06938749 0.1282975 0.15762535
000110 22 37 bb 3e 05 24 53 3e 56 b7 4e bc 01 dd bb be
       0.365655 0.20619209 -0.012616953 -0.3669205
000120 48 aa 77 be 59 a4 2b bd df 83 62 3d 44 e4 23 be
       -0.24186051 -0.04190478 0.055301543 -0.16005045
000130 49 9a 2a be df 03 da be fa 80 c8 be 9c 9b cf be
       -0.16660418 -0.42581078 -0.391609 -0.40548408
000140 78 65 20 bf 24 fd 17 bf 59 55 08 bf b9 d9 58 bf
       -0.6265483 -0.59370637 -0.5325523 -0.8470722
000150 fe 7c d4 be 86 0e 9b be ad b0 aa bd 63 af 02 be
       -0.4150161 -0.30284518 -0.083344795 -0.12762217
000160 2b a3 87 3d a8 df 16 3e e1 16 2d 3e a1 24 88 3c
       0.06622919 0.14733756 0.16903259 0.016619029
000170 fc 80 08 ba a7 7a a7 3c 97 66 02 be f3 ae 5d be
       -0.00052072085 0.020444227 -0.12734447 -0.21648769
000180 ae 59 ed 3e a9 3a 17 3f 98 ff 64 3d f0 ff 34 3e
       0.46357483 0.59073883 0.055907816 0.17675757
000190 07 8b d9 3d f9 04 5b 3e 0a fd d1 3b 68 d1 b9 3e
       0.106222205 0.21388616 0.0064083384 0.36292577
0001a0 fe 91 e6 3e 66 4a 06 3f a5 9f 66 3f 3a 65 8c 3f
       0.45033258 0.52457273 0.9008735 1.0968392
0001b0 ec 84 8b 3e db 5d d5 3d a0 a5 63 bc c5 6e e7 bc
       0.2724985 0.10418292 -0.013894469 -0.028251061
0001c0 ac 1f 32 3e 2d 55 42 3d 59 bb 03 3e 4d 38 90 bd
       0.17394894 0.04744451 0.12864436 -0.070419885
0001d0 09 1f fc 3d 54 5b 49 be d5 1d f0 3e a0 0b 86 3f
       0.12310607 -0.19663745 0.4689776 1.0472298
0001e0 dc fd 9a be 8d 9e 1f be c2 58 4d bd a8 f9 16 bd
       -0.30271804 -0.15587826 -0.050133474 -0.036859185
0001f0 ee 40 54 bc 56 12 f4 bd f9 0d 2c 3e de 2c 4c 3e
       -0.012954934 -0.1191756 0.16802205 0.1993899
000200 0f c5 9b 3e a3 ce 5d 3e e0 63 a8 3e d0 52 e3 3e
       0.3042378 0.21660857 0.328887 0.44399118
000210 e1 d5 59 3e 1e 65 4f 3e 63 fe e8 3d a3 fb 05 be
       0.21272995 0.20253417 0.113766454 -0.13084273
000220 43 be 50 be 65 d5 f8 be f5 f2 ec be 08 da 1d be
       -0.20385079 -0.48600307 -0.46279112 -0.15415204
000230 1d 26 6e be fe 7b 09 bf 8e 44 a5 be c2 06 6c be
       -0.23256727 -0.5370482 -0.32278866 -0.23049453
000240 64 dd 3a be 47 11 b0 bd a3 ac cd 3c 23 3c db 3d
       -0.18248516 -0.085970454 0.025106734 0.107048295
000250 3c 95 a9 3e 2d a7 e2 3e 95 ce 56 3f c8 13 19 3f
       0.3312167 0.4426817 0.8390897 0.5979581
000260 b5 af 36 3f 73 ac 0d 3f 44 8b 0b 3f d9 9a b6 3e
       0.7136186 0.5534126 0.5450938 0.35665014
000270 24 00 5f be 5e 2d 5a be d8 92 ee bd 32 4c 89 bd
       -0.21777397 -0.21306369 -0.11649102 -0.06703986
000280 a0 66 44 be 03 be 0c be 77 bb 6e be 0f e5 e5 3d
       -0.19179773 -0.13744359 -0.233137 0.1122533
000290 52 14 14 3d d9 28 b0 bc e0 6a 97 be 37 bc dc be
       0.03615219 -0.021503853 -0.29573727 -0.43112347
0002a0 2d 87 96 3d 4a dd 26 be ad 2d 73 3c 87 f0 e2 bc
       0.073500015 -0.16295353 0.014842433 -0.027702583
0002b0 34 ca d3 3e bf ac e4 3e 6b e9 16 3f 30 c8 26 3f
       0.41365206 0.44663045 0.5894992 0.6514921
0002c0 26 84 09 3f 07 4b f2 3e c0 b9 28 3f 07 e8 89 bd
       0.5371727 0.47322866 0.6590843 -0.06733709
0002d0 10 a9 c6 bd 9d 5a 22 be 5f 46 49 be e7 5e 90 be
       -0.09700215 -0.15854879 -0.1965575 -0.28197405
0002e0 25 1b c9 bd 1e b3 4b be 13 cc 95 be 42 0e a5 be
       -0.098196305 -0.19892547 -0.2925726 -0.3223744
0002f0 4b cd 01 bf d5 73 af be 09 48 06 bf b7 20 3a bc
       -0.5070388 -0.3426806 -0.52453667 -0.011360339
000300 3c 8b 0c 3f 19 a0 d4 3e 1e 65 a2 3e ba 85 2c 3e
       0.54899955 0.41528395 0.3171777 0.16847888
000310 fe 4f 64 be b4 af 03 3c 19 05 4e be 42 da de be
       -0.2229614 0.008037496 -0.20119132 -0.43525892
000320 6e af c7 be 66 d4 a4 be de ca 2e be d8 c8 ab 3e
       -0.3900103 -0.32193297 -0.17069575 0.3355167
000330 68 5c 2e 3e 31 87 c4 3c 8e 41 46 3e 0e bc 18 bd
       0.17027438 0.023990246 0.19360945 -0.037288718
000340 e2 47 59 bc 25 2d 1e bd ab 35 55 bd d9 43 95 bd
       -0.013261767 -0.038617272 -0.052053135 -0.072883315
000350 9b 64 14 be 7f 2a e1 3c 84 07 2c 3e fc 6f b1 3e
       -0.14491503 0.027486084 0.16799742 0.3465575
000360 8e b9 4d 3e be 2e ce 3e 6f 1c 01 3f 5f bb 2d bd
       0.20090315 0.40270036 0.5043401 -0.04241502
000370 01 a6 97 be de d9 b0 be 3b 69 ba be 2a 87 be be
       -0.29618838 -0.3454122 -0.3640841 -0.37212497
000380 0f 5c e7 be ee 9e 67 be d5 7f 3a be 7f 52 3a 3f
       -0.45187423 -0.2261922 -0.18212827 0.7278213
000390 b3 1b e3 3c 81 b6 8b bd 3d e7 41 be ff fc 8a be
       0.027723169 -0.06821919 -0.18935867 -0.27146146
0003a0 69 f4 43 bd 37 f6 66 bd 3d d9 43 bd a3 e0 a8 3d
       -0.04784051 -0.056387153 -0.047814596 0.08245971
0003b0 c2 ee 25 3d 2d 51 c3 bc f2 13 57 be 0f 50 f6 bc
       0.0405109 -0.023842419 -0.21003702 -0.030067472
0003c0 1f 05 9c be ef a6 37 3d b4 e3 ba 3d d6 50 df 3d
       -0.30472657 0.044836935 0.09125462 0.1090409
0003d0 58 5e 9b 3e f0 5e 99 3e 50 b9 23 3e ae 80 c5 3e
       0.30345416 0.29955244 0.1598866 0.38574737
0003e0 0a 02 5a bd 1f 4e bd 3e d5 54 a7 3e 2a 34 91 be
       -0.0532246 0.36973664 0.3268191 -0.2836011
0003f0 90 d9 25 be cb 9c a9 3e 7a 40 d4 3d 28 12 92 be
       -0.16196275 0.33127436 0.103638604 -0.28529477

reshape.bias f4 [48]
000000 5a 01 55 3e 0b dc 94 3e 3c be 31 be 87 d9 bd 3d
       0.20801297 0.2907413 -0.17357725 0.09270006
000010 e3 bf 1a 3c f3 fb 9a 3e 22 65 67 3d 11 99 76 be
       0.009445163 0.30270347 0.056492932 -0.24081828
000020 e1 36 08 3d f6 65 b7 3d 79 e4 81 bd a9 14 2c be
       0.03325546 0.089549944 -0.06342406 -0.16804756
000030 48 a6 3a bd 81 c9 dc bd 09 ec 8f 3d b3 32 5d 3e
       -0.045568734 -0.10780621 0.07027442 0.21601371
000040 a3 53 9b 3e 8e c7 8e 3d a5 69 a9 be e1 50 30 be
       0.30337247 0.06971656 -0.33088413 -0.17218353
000050 8d eb 8a 3e 0e bb 8d bd b7 74 03 bf c2 02 ad bd
       0.27132836 -0.069204435 -0.5134997 -0.08447792
000060 7d c4 3d be ba 2b c2 3e cd ea 5a 3e 25 d4 4c 3d
       -0.18531986 0.37923986 0.21378632 0.050007004
000070 80 de 9e 3e 63 32 89 3d d1 a3 f8 3d a7 86 40 3c
       0.3102913 0.06699064 0.121406205 0.011750854
000080 91 3a b2 bb 0c 7a 66 3e a6 89 b0 3e 0f 62 30 3e
       -0.0054391106 0.22507495 0.34480017 0.17224906
000090 05 a7 65 be 31 f1 05 3f 0f d2 53 3e 80 cd 77 3c
       -0.22426994 0.52321154 0.206856 0.015124679
0000a0 35 ad 51 3e f4 8b 42 3e 6c 90 9c be 1b a9 33 3e
       0.2047623 0.189987 -0.30578935 0.17544977
0000b0 82 39 65 3e c9 bd b9 bd 41 61 5b 3d 7f a9 a2 bd
       0.22385219 -0.09069402 0.053559545 -0.07942485

lstm.weight_ih_l0 f4 [192, 48]
000000 99 ee 66 3e d7 70 3c be 52 a7 35 be a2 1c 6f bd
       0.22551955 -0.1840242 -0.17739609 -0.058376916
000010 52 88 2e 3e 42 9d 03 3e cc 5f 06 3d 98 c7 30 3e
       0.1704419 0.12852958 0.032806203 0.17263639
000020 b2 af 47 3e 5d 26 6c be e3 22 78 3f af 33 51 be
       0.19500616 -0.2306151 0.9692823 -0.20429872
000030 72 7e 74 be 59 ef 41 bd b5 d6 37 bf 5d c5 43 3d
       -0.2387636 -0.0473474 -0.7181199 0.047795642
000040 7c 22 57 3f 05 4a 22 bf fb 66 71 be 51 31 9f be
       0.84036994 -0.63394195 -0.2357444 -0.31092313
000050 27 c3 31 3f 01 1b 2e 3f 81 99 f3 3e 69 d2 a8 3e
       0.69438404 0.68009955 0.47578052 0.3297303
000060 f8 94 6a be 88 6d 9b 3d 10 92 9b 3e e9 a8 1b 3e
       -0.2290839 0.07589251 0.30384874 0.15201153
000070 f7 0a 70 3e 56 23 34 bd 69 30 c6 be e3 44 43 3f
       0.23441683 -0.04397901 -0.3870881 0.7627699
000080 44 39 94 3e d1 87 1c be 69 06 d2 be c5 9a c3 3e
       0.2894994 -0.15286185 -0.41020516 0.38204017
000090 12 9f 28 bf fa df 1c 3f f9 64 00 3f 54 16 1a 3f
       -0.6586772 0.6127926 0.5015407 0.6019032
0000a0 29 28 f7 bd 55 e2 d5 3c 6e f6 96 be 3c 82 67 3e
       -0.12068207 0.0261089 -0.29484886 0.22608274
0000b0 be 17 c9 be 0f ca dc 3e f4 ae a0 be f0 5e 18 3e
       -0.39275926 0.43122908 -0.3138348 0.14879966
0000c0 0f df 75 3e 92 76 05 3e eb 49 d7 3e 3c 57 5a bf
       0.24010871 0.13033512 0.42048582 -0.8528936
0000d0 c9 32 90 bd db 87 fb be 36 99 cb 3e 14 0d 06 3f
       -0.070409365 -0.49127087 0.39765328 0.52363706
0000e0 86 d3 57 bf 3b 30 dd bd 40 76 24 3c dd 84 f9 3e
       -0.84307134 -0.10800215 0.010037959 0.4873418
0000f0 d6 7c b3 3e f2 ce 7d 3e 09 30 9e 3e f2 45 68 bf
       0.3505618 0.24785975 0.30896023 -0.9073173
000100 5e ce 4b be 2c 9b b1 be 7c 2f 42 3e 40 dc a4 3e
       -0.19902942 -0.346887 0.18963426 0.32199287
000110 45 64 20 be a0 c8 13 bf 10 2c 8d 3e ee aa 2f 3f
       -0.1566325 -0.57728004 0.2757268 0.68620193
000120 4d e1 6b 3e d6 c4 db bd 32 11 1e 3e da be 89 3e
       0.23035164 -0.10730903 0.15436247 0.2690342
000130 61 cd b1 bd a2 56 96 3e fd 23 c4 be 64 62 69 3e
       -0.08681751 0.2936297 -0.38308707 0.2279144
000140 d3 d7 7e be e2 f6 2b bf a0 dd 8d bc e5 69 81 3b
       -0.24887018 -0.6717359 -0.017317593 0.003949391
000150 14 64 54 3e 77 20 c2 be 68 25 3b be e7 e3 ac 3e
       0.20741302 -0.37915394 -0.18275988 0.33767626
000160 a5 fd 09 be 3a b9 10 bf 2a 2c 3b bf ff 17 e7 bb
       -0.13475664 -0.56532633 -0.73114264 -0.007052421
000170 00 fc 21 3e 88 a4 e8 bd b8 5a 2b bf 5c 5a 94 3e
       0.15818787 -0.11359507 -0.669353 0.2897519
000180 50 d9 6f 3f e3 c0 8e 3e a9 4b b9 3c f7 6b 14 3e
       0.9369097 0.27881536 0.022619085 0.1449431
000190 56 c7 6d be 7f b5 9a bd bc 34 49 3d 4f 9b a3 3d
       -0.23220572 -0.07554149 0.049122557 0.07988607
0001a0 3d 9d 18 3c 18 14 05 bf fc 99 24 3e 4f 07 94 be
       0.009314832 -0.51983786 0.16074365 -0.28911826
0001b0 c6 ce 97 3e 23 e3 c5 3e f0 53 0a be f4 ae 1d 3f
       0.29649943 0.38649854 -0.13508582 0.6159508
0001c0 3f cb b3 3d c1 c1 b4 bd 13 0a a3 be 94 46 b3 be
       0.087790005 -0.08826018 -0.31843624 -0.35014784
0001d0 10 94 76 bd 63 45 45 bf e0 45 f1 bc f2 55 bb 3e
       -0.060199797 -0.77059 -0.029452264 0.3658901
0001e0 a1 e6 a0 be ec 38 ab 3e 92 df e5 bd 1c 93 0f bc
       -0.31425956 0.33441865 -0.11224283 -0.008763101
0001f0 64 0f 9d be 98 b2 29 3e b8 43 1f 3f f7 a8 65 3f
       -0.30675805 0.16572034 0.62212706 0.89710945
000200 80 18 49 be 56 ab 2a bf e1 36 6d 3b 34 6e e7 3d
       -0.19638252 -0.6666769 0.003619604 0.113003165
000210 0d 61 90 3d 2e c4 17 3f 6b 51 5a 3f 9b 9f eb bc
       0.07049761 0.5928372 0.85280484 -0.02876263
000220 68 68 e1 be 15 98 f1 3e 33 67 a8 bf d0 29 f6 3d
       -0.44024968 0.47186342 -1.3156494 0.12019694
000230 7f 56 14 be dd f0 c1 bc a5 4e 47 bf 75 c5 0a 3f
       -0.1448612 -0.023674423 -0.7785438 0.54207546
000240 ec 5b 33 3e 3e 11 5c 3e 57 bb 03 be 3b 6c 4c 3e
       0.17515534 0.21490952 -0.12864433 0.19963162
000250 98 c8 43 3d 34 c3 03 3c 5c b1 2d 3d 1c 7e da 3d
       0.047798723 0.0080421455 0.04240547 0.10668585
000260 b4 9b c4 bd 16 d1 70 3e 51 10 e6 3d 74 51 aa bd
       -0.096000105 0.2351726 0.11233581 -0.08316317
000270 4c 7a 90 3d 3e 90 68 3e 82 42 86 bd 65 0b a8 3d
       0.07054576 0.22711274 -0.06555654 0.08205298
000280 6b ff b8 3d 71 04 b2 3d 01 3a 24 be 08 2b 43 bd
       0.09033092 0.086922534 -0.16037752 -0.04764846
000290 70 fe f9 bc 1b 52 43 be 60 b7 f9 bd cc 61 1c bd
       -0.030516833 -0.1907429 -0.12193179 -0.038179204
0002a0 9a d2 da bc ed 55 42 3e cc 3d be 3d bf 5f ab bb
       -0.02671175 0.1897809 0.092891306 -0.0052299197
0002b0 61 a2 45 bc d8 5e ce bd c8 3e a4 bd 34 97 42 be
       -0.01206264 -0.10076684 -0.08019787 -0.19002992
0002c0 08 b9 35 3d dd a0 59 bd 02 77 91 b9 fb 69 19 3e
       0.044365913 -0.053131927 -0.00027745223 0.14981835
0002d0 c8 99 d5 bd 04 45 a4 3c b7 16 60 3c 5b 2f 6f 3d
       -0.10429722 0.02005244 0.013677291 0.05839477
0002e0 48 ce 50 3e 89 d4 4e be 87 b7 20 be 93 f4 9c 3e
       0.2039119 -0.20198263 -0.1569501 0.30655345
0002f0 67 17 a6 bc a2 fa c4 3c 6c 9c 30 be 9d 90 2d ba
       -0.020274831 0.024045292 -0.1724717 -0.00066209753
000300 86 22 7e 3e 0b 0d 3c 3e c2 5b 5a 3e f2 90 8b bd
       0.24817857 0.1836435 0.21324065 -0.068147555
000310 32 7f 0f 3e 6c ef 07 3e 6a 81 ca 3d cf 4b 8c 3e
       0.14013365 0.13274926 0.09887965 0.27401587
000320 b1 db 30 be c2 5b 89 be ab 2f 76 3d a1 5b 84 3e
       -0.17271306 -0.26827818 0.060104053 0.25851157
000330 cc 73 99 3e 40 79 ee 3e b9 2e d7 bd 92 a7 d4 3e
       0.29971159 0.4657688 -0.105069585 0.41534096
000340 e8 e1 df bc d9 ed 61 be 59 74 d6 3d 9d ad 68 be
       -0.0273294 -0.22063388 0.1047141 -0.22722478
000350 53 7f cd 3e e2 56 b0 be 8f f1 29 3d 24 83 0b 3f
       0.40136203 -0.34441286 0.041490134 0.5449698
000360 64 ab 1a be 83 d5 5c 3c 16 1f 16 bd 30 4e 7d 3e
       -0.15104443 0.01347864 -0.03665074 0.24736857
000370 68 dc 19 3e f2 8d 4b be 31 18 49 be a0 4b b3 3e
       0.15025485 -0.19878367 -0.19638135 0.35018635
000380 e4 9a be bd 51 1a 97 be c6 6e 93 3d a1 8c b7 bd
       -0.09306887 -0.29512265 0.07198863 -0.0896237
000390 ed d1 96 bc 96 e2 9e 3e f0 48 f4 3d 67 12 15 3c
       -0.018410647 0.31032246 0.11927974 0.009098626
0003a0 ee 6a c7 bd 2f 00 fc 3d 07 77 ab be 80 84 ed 3e
       -0.09737192 0.123047225 -0.33489248 0.46390152
0003b0 63 32 1a 3e 90 78 5d 3e b0 42 1f bf 61 84 f4 3d
       0.15058284 0.21628022 -0.6221113 0.11939312
0003c0 77 c2 03 bd ed fe 9b bd de 66 0c bf 32 3b 9b 3d
       -0.032167878 -0.076169826 -0.5484446 0.0757965
0003d0 d0 3b 2e be 62 ad 06 3f 47 c4 bf 3d cf 76 bb be
       -0.17015004 0.5260831 0.09363609 -0.3661408
0003e0 d6 31 c4 be 93 e0 61 3e 33 89 95 3e 75 d0 85 3e
       -0.38319272 0.22058325 0.29206237 0.26135603
0003f0 77 f1 eb be 2d 1d 10 3e 35 3a 20 bf 3e b1 77 3e
       -0.4608266 0.1407363 -0.62588817 0.24188706

lstm.weight_hh_l0 f4 [192, 48]
000000 4a c2 a8 be 68 53 ee be fc be 66 bf de 77 8e 3d
       -0.3296073 -0.4654801 -0.9013517 0.069564566
000010 5e aa 67 bf 35 11 83 bc 4a 7b b6 bd 04 b2 f0 bf
       -0.90494335 -0.015999416 -0.08910234 -1.8804326
000020 3a 23 aa 3f 24 81 2c 3f 03 ce 53 bf c3 1e f0 3e
       1.3292 0.6738455 -0.82736224 0.4689847
000030 99 39 5c 3e 5b 08 dd be 21 08 ff be 07 62 f7 3f
       0.21506347 -0.43170437 -0.4981089 1.932679
000040 41 ee 93 bf da 7f 90 3f b7 c8 11 3f 9e 8e 2b bf
       -1.1557084 1.1289017 0.5694689 -0.6701449
000050 f9 de e8 3f 6f 4d 60 3c 05 2c 89 3e 26 35 0f 3f
       1.8193046 0.013690337 0.26791397 0.55940473
000060 cc 94 1a 3e 32 30 45 3e 89 73 6a 3f 7d 49 44 3f
       0.15095824 0.19256666 0.9158254 0.76674634
000070 a0 e9 34 be b7 ee 7b bf f5 d5 2f 3f b2 90 cd 3d
       -0.17667246 -0.98411125 0.6868585 0.10037364
000080 53 90 aa bf cb 1b 1a be fe 23 bb 3e b0 38 f3 3f
       -1.3325294 -0.15049665 0.36550897 1.9001675
000090 fd 92 08 3f 28 ec 5d be 74 6d 8c bd 15 99 30 bf
       0.53349286 -0.21672118 -0.06856814 -0.68983585
0000a0 d3 f1 1b 3f 11 5d ab 3f 47 50 31 bf 9a ef 04 40
       0.6091587 1.3387777 -0.6926312 2.077124
0000b0 44 49 3a bf 7b b6 ce be 57 48 73 bf da f5 bc bf
       -0.72768044 -0.40373597 -0.95032257 -1.4762528
0000c0 24 1a c4 be 74 66 51 bf 81 4f c3 be 50 f0 33 be
       -0.38301194 -0.81796956 -0.38146594 -0.1757214
0000d0 d3 e5 b8 3e d5 4e a9 ba 97 7a 8c be 8b a4 9c bd
       0.36112842 -0.001291717 -0.2743728 -0.076485716
0000e0 97 27 d9 3e 39 a4 51 bd 5b da b8 3e c7 20 7b be
       0.42413017 -0.051182006 0.36104092 -0.24524222
0000f0 e5 92 9e be 6f 2e 7a 3e 00 c7 b2 3e 85 bb fb bd
       -0.30971447 0.24431776 0.3491745 -0.12291626
000100 b4 a3 d9 bc 3a a2 2c bf bc 89 94 be 14 e2 91 be
       -0.026567318 -0.6743504 -0.29011333 -0.28492796
000110 02 53 64 be db ce 9f 3e b1 d7 97 be aa 20 2e 3d
       -0.2229729 0.31212506 -0.29656747 0.04251162
000120 13 16 ba bd 9c 36 ff be 67 42 c8 be b6 53 b1 3e
       -0.090862416 -0.4984635 -0.3911316 0.3463418
000130 36 e7 07 3f 01 7e 89 3d db 9e 99 be eb 66 29 be
       0.53087175 0.067134865 -0.3000401 -0.16543166
000140 3e 7f 97 be df 80 04 be 69 1b c4 be 8d 4f 0c be
       -0.29589266 -0.12939785 -0.38302162 -0.13702221
000150 e2 6c a4 3c 2e 2d 31 bd 4c fe 28 3f b8 11 a3 3e
       0.02007145 -0.043255977 0.66013026 0.31849456
000160 70 48 d6 3c 27 96 10 bf 4b 36 96 bd f8 be 0e 3d
       0.026157588 -0.56479114 -0.07334574 0.03485009
000170 06 0c 1a 3e b6 43 c2 3e 7c c1 1d 3e c9 f0 dc 3e
       0.15043649 0.37942284 0.1540584 0.43152454
000180 0a 85 ec 3d d7 fd c5 be 51 fc 97 bf 46 60 96 bd
       0.11548813 -0.38670227 -1.1873876 -0.073425815
000190 70 ee 35 bf a6 89 47 3f 8c 95 00 3e 41 92 a3 be
       -0.7106695 0.7794441 0.12557048 -0.3194752
0001a0 70 02 9b 3e 1d 7e 16 3e 18 57 05 3f a9 06 4a bf
       0.30275297 0.14696546 0.5208602 -0.7891641
0001b0 31 6f d5 bf 4f a2 86 3f c3 b6 e7 bb d9 d5 a0 be
       -1.6674558 1.0518283 -0.0070713474 -0.31413153
0001c0 98 3b 3f bf f3 23 9e bf 1b 3a 3e bf 86 af 80 3b
       -0.7470031 -1.2354721 -0.7430741 0.003927174
0001d0 c2 9c 33 3f b2 14 f8 bf e3 51 20 be 84 bc 96 3e
       0.7016107 -1.9381316 -0.15656237 0.294407
0001e0 6d e0 63 3f f3 a3 08 3f 48 a4 04 40 33 99 aa 3e
       0.8901432 0.53375167 2.072527 0.33320007
0001f0 7e a5 a1 3e eb 61 0e bf 34 2a 34 bf e5 7e 10 3f
       0.31571573 -0.5561816 -0.70376897 0.56443626
000200 cb f4 f3 bc ce bb 56 be f3 66 fa 3c 4c 48 c1 3f
       -0.029779812 -0.2097008 0.030566668 1.5100188
000210 95 ae e6 3e 9d 6d 3a bf 73 cb 16 bf d3 66 e6 3e
       0.4505507 -0.72823507 -0.5890419 0.45000324
000220 56 61 8c be ee 41 7b 3f ee a5 bb 3e 74 4d 9e 3f
       -0.2741801 0.98147476 0.36650032 1.2367387
000230 9d 8a d2 be a9 d0 06 3f a5 27 8d 3f 8c 99 27 bf
       -0.4112138 0.5266214 1.1027724 -0.6546867
000240 ba 54 99 bd ba 76 8e bd b4 a3 c6 3c 23 d1 77 be
       -0.074868634 -0.06956239 0.024247982 -0.24200873
000250 69 c6 68 3e 92 9f b5 3d ad 71 aa bd e6 9e 16 be
       0.22731937 0.08868326 -0.08322463 -0.14709052
000260 e8 20 1f 3e 3b b9 09 3e 5b e4 1f bf 6b 73 7a be
       0.15539896 0.13449566 -0.6245782 -0.24458091
000270 81 30 43 3e 7d 5a a4 3d 85 db 1c bd 5d 72 14 3e
       0.19061472 0.08025072 -0.038295288 0.14496751
000280 11 5d 32 bc 46 9d 9e 3e 04 91 60 3e 34 62 22 be
       -0.010886447 0.30979365 0.21930319 -0.15857774
000290 d4 02 04 be ac f8 84 3e ca 2c 3e 3e 52 6e 1f be
       -0.12891704 0.25970972 0.18571773 -0.15569428
0002a0 40 f4 44 be 97 99 e6 bd a6 18 29 3d ed 5f 67 3d
       -0.19233799 -0.11259764 0.041283272 0.056487966
0002b0 df 42 d0 bd d8 c1 6b 3b 3d 49 a0 3e 06 78 a6 3e
       -0.10169005 0.0035973694 0.31305876 0.32513446
0002c0 2d 28 f4 bc 09 46 68 3e 34 65 54 3e f5 20 db 3d
       -0.029804314 0.22682966 0.20741731 0.106996454
0002d0 74 3e b0 3d 3c 38 8b bf fe 52 d1 be e7 e8 4f 3d
       0.08605662 -1.0876536 -0.4088363 0.050759222
0002e0 e8 47 e0 bc 85 59 a4 be 15 17 36 bc e4 82 fc 3e
       -0.027378038 -0.32099548 -0.011113902 0.49318612
0002f0 59 1f 3a be 46 10 aa 3c 15 46 5a 3e 12 ea a6 3e
       -0.1817602 0.020759713 0.21315797 0.32600456
000300 42 51 10 bf 2b 0a 90 be bd 90 18 bf 4e 6b e5 3c
       -0.5637399 -0.28132758 -0.59595853 0.028005268
000310 1a 5f 45 3e 79 8c 0d bf 13 98 a5 3e 70 6c 4e be
       0.1927456 -0.5529247 0.32342586 -0.20158553
000320 22 f5 4d 3f 29 93 21 3e 37 58 06 3e 01 48 8b bd
       0.8045217 0.15778793 0.13119589 -0.06800843
000330 a5 63 4c 3e 87 14 1f be 86 13 3d be 85 bc 07 3e
       0.19959886 -0.15535174 -0.18464479 0.13255508
000340 e4 64 80 be cc b5 5a 3d cd 72 01 3f 60 f4 c2 be
       -0.25076973 0.05339603 0.505658 -0.38077068
000350 09 44 4b be 0f 0f 5b 3f a9 32 b7 3e 5f f9 2d 3f
       -0.19850172 0.8556985 0.35780838 0.67958635
000360 76 1c 7b be ae 83 90 bf d7 5d 98 be 37 f9 f7 3e
       -0.24522576 -1.1290185 -0.29759094 0.48432323
000370 67 cd 97 be f1 26 0f 3f c5 7e a7 3d 77 f8 32 3f
       -0.29648897 0.55918795 0.08178476 0.6991038
000380 d3 a3 39 3d 86 ed 01 3f 87 ca 5a 3e ef 5b 3f bd
       0.04532225 0.50753057 0.2136632 -0.046718534
000390 61 3e 35 3f 7f 9b 74 bf 3b 2d bd be 1c c7 39 3e
       0.7079831 -0.9554977 -0.3694857 0.1814236
0003a0 64 0f 92 bb b2 67 f7 3d e7 e9 72 be 36 8f 1f 3e
       -0.004457401 0.12080325 -0.23722039 0.15581974
0003b0 70 bc ba 3d 1e 32 6e 3e de 80 2e 3f 05 e1 a0 bd
       0.09117973 0.23261306 0.68165386 -0.07855419
0003c0 e2 34 3c 3f ba 48 d1 3d ea f7 a4 3e 38 59 d0 3d
       0.7351819 0.102189496 0.32220393 0.10173267
0003d0 2c df 36 bf a2 79 8b 3e 0c 29 b2 3f 7e d5 2c 3e
       -0.71434283 0.27241236 1.3918777 0.16878316
0003e0 77 5c 56 bf 4b 82 b8 3e 73 5a 50 be fc 68 4c bf
       -0.8373484 0.36036906 -0.20347004 -0.79847693
0003f0 cb f0 57 bf 1d 65 65 3e a6 b7 d1 3e 65 61 e8 bd
       -0.84351796 0.22401853 0.40960425 -0.113467015

lstm.bias_ih_l0 f4 [192]
000000 21 c2 0e be ea e9 b7 3e 77 87 82 3e 8c a5 22 3d
       -0.13941242 0.3592065 0.25493976 0.03970866
000010 8f 6c 81 3e 8a e2 c3 3d a2 42 02 3f c9 87 9b be
       0.25278136 0.09564693 0.50882924 -0.30377033
000020 17 0e 9a be 4b 56 cd 3e f5 42 fe 3e 77 12 0c 3e
       -0.30088875 0.401049 0.4966046 0.13678919
000030 fc c8 21 3d 5b 6d 08 be b2 ae 52 3e 81 61 2c be
       0.039498314 -0.13322966 0.20574453 -0.1683407
000040 95 24 ef 3c c7 be 09 be f0 62 cc bd 20 e0 8b 3e
       0.029192248 -0.13451682 -0.09979808 0.2731943
000050 32 7b fa 3d a3 6b 51 bf ec 2a bc 3e 9d 19 46 bf
       0.12230529 -0.81804866 0.36751497 -0.7738283
000060 c3 d6 17 be 15 de d7 3d 3a 45 7f 3d 91 dd 4b 3e
       -0.14828019 0.10540406 0.06232188 0.1990874
000070 57 52 16 bf 26 77 1c 3e 3a 51 05 3e f7 25 47 3e
       -0.5871939 0.15279827 0.13019267 0.19448076
000080 79 cc c8 3d d0 ed 7f 3e ee 90 f3 bd 47 29 8c bd
       0.09804625 0.24993062 -0.118928775 -0.068438105
000090 9f 04 f4 bd 42 c4 6e be 6d a8 71 3e f7 80 74 3e
       -0.11914944 -0.23317054 0.23599406 0.23877321
0000a0 e2 88 ef 3d 91 84 a2 3e 17 00 8b 3e a9 51 41 3e
       0.1169603 0.31741765 0.27148506 0.18878807
0000b0 15 b0 35 3e eb 26 81 be d9 71 cb be 6d aa 60 3e
       0.17742951 -0.25225005 -0.39735296 0.21940012
0000c0 22 9f d4 be 62 cf c1 3e 06 88 8e 3c 59 3d 0c 3e
       -0.4152766 0.37853533 0.017398845 0.13695277
0000d0 6e ef 3e 3e 54 8c 32 3e 67 04 b3 3d 18 d5 23 3f
       0.18646023 0.17436343 0.08741074 0.6399703
0000e0 50 eb e5 be e5 0c 7a 3d e2 d9 b1 3e 77 2b 8b 3e
       -0.44906092 0.061047453 0.34736544 0.271816
0000f0 4b 6a 85 3e f9 07 82 be d6 42 de 3c f7 44 2f 3e
       0.26057658 -0.25396708 0.02713148 0.17116152
000100 91 ea 8e be 0b 60 88 be f4 30 3c be 4b 53 58 3e
       -0.27913335 -0.26635775 -0.18378049 0.21125524
000110 6a 23 ae 3d 44 f7 70 be e4 fc d8 3d 1e 99 12 3f
       0.085028484 -0.23531824 0.1059511 0.5726489
000120 ef 8c 5f be 2e 6a 76 3e e0 29 03 3e c8 dc e5 3c
       -0.21831106 0.24063942 0.12808943 0.028059378
000130 80 1d 3e bf 59 7a 7d 3e ba c6 1d be e6 5f 42 bd
       -0.74263763 0.24753703 -0.1540784 -0.047454737
000140 ac da f2 3c e6 fe 45 3e 37 2d ef be 6c 83 6a 3d
       0.029645287 0.19335517 -0.46714184 0.05725424
000150 e3 65 83 3d ac d1 3d bf d5 ab 9a 3e 21 1b 86 3e
       0.06415918 -0.7414806 0.30209222 0.26192573
000160 ff d9 27 3e 32 07 a9 3e 5a 33 98 3e be c4 f1 be
       0.16391753 0.33013302 0.29726678 -0.47220415
000170 1a 3b 74 bc c0 b7 f0 be d5 c2 9d be 9d 3a 9d 3d
       -0.014906669 -0.4701519 -0.30812708 0.07677195
000180 d5 e7 da bd 4d 59 02 be e1 a0 b0 be 2f 08 73 be
       -0.1068875 -0.12729378 -0.3449774 -0.2373359
000190 21 ea 8b 3e 51 74 42 be a8 2b 55 3e f1 dd 55 3e
       0.27327064 -0.18989684 0.20817435 0.20885445
0001a0 cf db 52 bd 9e 62 18 3f d3 85 77 bf 89 48 1e be
       -0.051479157 0.5952548 -0.96688575 -0.15457357
0001b0 44 3f 67 bc 11 8b b8 bc 3b 78 0b be 4c 4d a0 3d
       -0.014114205 -0.02252725 -0.13620083 0.07827243
0001c0 f5 97 8f be b0 72 b7 3e 1d 52 10 3f f7 34 9f be
       -0.28045622 0.35829687 0.56375295 -0.31095096
0001d0 d8 67 cb be da 44 b3 3e 19 31 21 3e 2b 39 b1 bd
       -0.39727664 0.35013467 0.15741386 -0.08653482
0001e0 9a 83 97 be 36 9a 51 be 74 e0 03 3f 48 d3 53 3e
       -0.29592592 -0.20468983 0.51514363 0.20686066
0001f0 26 c7 46 3d 54 2a d9 3d 8c bb d9 3e eb 3d 95 3e
       0.048529766 0.106037766 0.425259 0.29148802
000200 c0 5a 66 3e 16 6b f4 3e 7f 4d c2 3e 84 2c e8 3c
       0.22495556 0.4773795 0.3794975 0.02834154
000210 a8 df 16 bd 41 f3 0b bf 37 19 d8 be 2d 48 6b 3e
       -0.03683439 -0.5466805 -0.42206737 0.22976752
000220 c3 35 b1 3e ec 49 88 be 24 9b 44 be f6 8f 8d 3e
       0.3461133 -0.26618898 -0.19199806 0.27648896
000230 47 93 e2 bc 89 61 94 bd 30 72 60 be 6a 12 08 3f
       -0.027658118 -0.07245166 -0.21918559 0.531531
000240 56 c5 e2 39 89 3c d3 3e a5 c5 7d 3e c5 10 7f 3e
       0.00043253106 0.41257122 0.24782427 0.24908741
000250 3c c6 89 bc 69 9e ad 3e 90 dc e5 be 09 c3 ed bd
       -0.016818158 0.3390992 -0.44894838 -0.11609466
000260 1d b3 6a 3e 36 ed 55 3f 16 c9 88 3f 6d 58 06 3f
       0.22919889 0.8356508 1.0686367 0.5247868
000270 85 d4 f4 bd 16 2d 2a 3e f0 12 82 3d c6 7e d2 3e
       -0.119545974 0.16618761 0.06351268 0.41112345
000280 87 4a 6b be c4 40 22 3c 90 35 9e bc c7 c5 96 3e
       -0.22977649 0.009903137 -0.01931265 0.29447767
000290 3a fa c0 3e cb 6e 22 3f 88 1f 8b 3d 8b 66 df 3e
       0.37690908 0.63450307 0.067931235 0.43632922
0002a0 d1 d9 8f 3e 31 83 cd 3d 63 6e ac 3e 00 58 d1 be
       0.28095868 0.100347884 0.33677968 -0.4088745
0002b0 b8 f7 fa be a6 17 2b bc 36 2a b9 3e 47 ae 51 be
       -0.4901712 -0.01044265 0.36165017 -0.20476638
0002c0 75 76 e6 3d 33 77 73 3e ac e0 39 bd c4 48 87 be
       0.11253063 0.2377594 -0.04538028 -0.26422703
0002d0 d5 27 68 3d 7e 36 4a 3e 1b 21 28 3f 15 9f 28 3d
       0.05667861 0.1974735 0.65675515 0.041167337
0002e0 19 20 13 3e 6f e6 9c 3d 0c 59 15 3e d9 f9 a9 3f
       0.14367713 0.07661139 0.1458475 1.3279372
0002f0 bc 72 80 3e 66 d2 2c 3d 91 3c 0f 3f 63 d0 86 3e
       0.25087535 0.04219284 0.5595179 0.2633086

lstm.bias_hh_l0 f4 [192]
000000 82 5a 4e be 2d 46 86 3e e2 a0 14 3d 6e 6b 37 3e
       -0.20151713 0.26225415 0.036286242 0.17912075
000010 0d 6a 02 3d 54 e5 40 3e cb 7a 15 3f 98 dd 65 be
       0.03183942 0.18837482 0.5839049 -0.22447813
000020 7f a5 64 be 58 97 bb 3e 2e fa 0b 3f 13 39 ce 3d
       -0.22328757 0.36638904 0.5467862 0.1006948
000030 53 63 20 3e de b6 93 bd 18 d7 68 3d d3 5c 9b be
       0.15662889 -0.072126135 0.056845754 -0.30344257
000040 17 64 77 bc fd 2a 7e bd f3 a3 cd 3d 6d da 40 3e
       -0.015099547 -0.062052716 0.100410365 0.18833323
000050 5a 42 3a 3e f2 b0 2f bf 37 fc ce 3e 5e 6c 45 bf
       0.18189374 -0.6862937 0.404268 -0.7711848
000060 3e e3 cf 3c 2d 6f 07 3d de 0d 16 3e a8 6b 4d 3e
       0.025376912 0.03306501 0.14653727 0.20060599
000070 1d 0d c4 be bc 8c 0e 3d 60 77 30 3d 53 10 98 3e
       -0.38291255 0.034802184 0.043082595 0.29699954
000080 4e 1c 9a 3e 99 59 84 3e 23 97 12 be ee d9 3c 3d
       0.3009972 0.25849608 -0.14315467 0.04610627
000090 9b dd 7f be 4a 2a 7f be 91 f2 86 3e d9 ab 8e 3e
       -0.2498688 -0.24918476 0.26356938 0.27865484
0000a0 16 11 45 3e e5 a9 d4 3e f6 e4 1b 3e af 2b 13 3e
       0.19244799 0.4153587 0.1522406 0.14372133
0000b0 f2 f6 a0 3e 00 4f 1c be 72 bf 69 be b0 0d 0e 3e
       0.31438404 -0.15264511 -0.22826937 0.13872409
0000c0 31 5c d6 be b3 3c 80 3e 2a 31 48 bd ed d5 16 3e
       -0.4186721 0.2504631 -0.04887501 0.14730044
0000d0 1d 6c 89 bd 80 3f ea 3d e9 d4 b1 3d 84 40 17 3f
       -0.06710074 0.11437893 0.086831875 0.5908282
0000e0 e1 eb d4 be 33 00 68 3e 62 60 bd 3e 06 f7 1d 3e
       -0.4158621 0.22656326 0.36987597 0.15426263
0000f0 52 47 f6 3d 0a 55 8a be 62 8e 62 3e 06 4f f9 3c
       0.12025322 -0.27018005 0.22124627 0.03043319
000100 2b ba 94 be fb 01 6e be 75 69 93 be d2 4a 0d 3d
       -0.29048285 -0.23242943 -0.28791395 0.034495182
000110 e4 66 fa bc 94 0a a2 be 1b 66 66 bd 20 aa 01 3f
       -0.03056664 -0.31648695 -0.05624972 0.50650215
000120 ce 86 bd bd 8c 76 c9 3d f8 7c 82 3d 9d 64 76 3e
       -0.092542276 0.09837064 0.06371492 0.24061818
000130 a6 d2 21 bf bf b7 83 3e 21 f3 3d be df 15 2d be
       -0.6321205 0.25726125 -0.18549778 -0.16902874
000140 d8 38 ba bd 50 81 c2 3e 0e 3e 90 be 28 3a 7e 3d
       -0.09092873 0.37989283 -0.28172344 0.06206718
000150 9d 97 10 3e 9c ec 40 bf 94 a5 29 3e d0 07 43 3e
       0.14120336 -0.7536104 0.1656707 0.19045949
000160 d8 87 25 3d 73 aa 62 3e 99 f8 2c 3e 68 8a e4 be
       0.040412754 0.22135334 0.16891707 -0.44636846
000170 08 81 ab 3d 16 93 cf be 2b ab 4a be cf 10 96 3e
       0.0837422 -0.40541905 -0.19791858 0.293097
000180 bd fa bc be 37 42 95 bd d8 dd b6 be 8d 3f 01 be
       -0.36910048 -0.0728802 -0.35716128 -0.12621899
000190 be 32 ab 3e 82 54 d2 be f2 2c 9a 3e a3 6b b3 3e
       0.3343715 -0.410801 0.30112416 0.35043058
0001a0 c1 5a 38 be 3d 70 1c 3f 5e 16 6f bf 41 03 8d be
       -0.1800337 0.6110876 -0.93393505 -0.27541545
0001b0 52 06 b9 3d 40 3a 0b be 3b cf b8 bd 04 27 37 3e
       0.09034409 -0.1359644 -0.09023901 0.17885977
0001c0 bc 05 8b bd 40 69 bf 3e af d8 0f 3f 8f ce a0 be
       -0.06788203 0.37384987 0.5619001 -0.31407592
0001d0 72 f4 a6 be 4a bb 18 3f 33 1b 6f 3e 71 12 65 be
       -0.32608372 0.5966078 0.2335022 -0.22370316
0001e0 12 52 90 be f2 8e 01 be c4 b3 14 3f 46 44 f1 3c
       -0.28187615 -0.12652186 0.580868 0.0294515
0001f0 1f 43 97 3d 75 8f 90 3e 98 13 fe 3e 37 f0 93 3e
       0.07385849 0.2823445 0.49624324 0.28894207
000200 1a 51 90 3e dd bf e1 3e e5 02 d2 3e d2 c4 83 3e
       0.28186876 0.44091693 0.41017833 0.257361
000210 f4 e6 a3 3d 37 31 c6 be 6b dd ce be 5c ec 91 3d
       0.08003035 -0.38709423 -0.40403304 0.0712516
000220 82 5a 9a 3e 0b 5d 99 be 3a 30 4f be 1b 84 36 3e
       0.30147177 -0.299538 -0.2023324 0.17823832
000230 f0 30 8d be 81 2e de bd aa 43 36 bd 32 5a ee 3e
       -0.275764 -0.10848714 -0.044498123 0.4655319
000240 8b db bd 3d 14 c3 90 3e 8c 2e 77 3e 40 90 7d 3e
       0.0927039 0.28273833 0.2413885 0.24762058
000250 30 be a7 bd 50 ab a6 3d d0 f6 10 bf 57 01 e9 3c
       -0.08190572 0.08138144 -0.56626606 0.028443022
000260 94 81 01 3e f1 09 83 3f f6 3b 8b 3f d7 60 ad 3e
       0.12647086 1.0237409 1.0877674 0.33862945
000270 a8 a0 8d bc ae 1b 78 3e 88 e8 d9 3d a7 45 10 3f
       -0.017288521 0.24229309 0.10640055 0.5635628
000280 34 19 f0 bd 38 43 0c bd 7c 19 e1 bd a1 f5 68 3e
       -0.11723557 -0.034243792 -0.10991189 0.2274995
000290 06 ec 18 3e ec 1a 08 3f 72 bc 6b 3b c1 d1 04 3f
       0.14933786 0.5316608 0.0035970476 0.5188256
0002a0 50 94 a4 3e 8c ad 01 3e a4 75 a3 3e 18 81 d5 be
       0.32144403 0.12663859 0.3192569 -0.41700053
0002b0 58 b2 de be 77 c8 88 3e 9b 8a dd 3e 97 8b 10 3c
       -0.4349544 0.26715443 0.4326981 0.008822343
0002c0 03 78 fe bd c5 b1 d4 3d b3 d6 5a bd 2b 09 9f be
       -0.12425234 0.10385469 -0.05342741 -0.31061682
0002d0 e5 1b 77 bc d2 4f 59 3e 96 3a 36 3f 6e f8 c1 3d
       -0.015082334 0.21221855 0.71183145 0.09471212
0002e0 db 0c a0 3e 97 77 9a 3e 14 76 58 3e c9 86 a5 3f
       0.31259808 0.30169365 0.21138793 1.2931758
0002f0 95 1c ba 3e c8 c9 17 3e 05 59 d1 3e e7 60 87 3e
       0.3634993 0.14823067 0.4088823 0.26441118

lstm.weight_ih_l0_reverse f4 [192, 48]
000000 08 ca 8e 3e be 20 11 3f 5e d0 25 3f 4d a9 a3 3d
       0.27888513 0.56690586 0.6477107 0.07991276
000010 e7 b8 8d be 9c bd 3f 3d fe 69 85 3e be 8d ea 3e
       -0.27680132 0.046811685 0.26057428 0.45811266
000020 c1 38 2c 3f 95 36 a3 3c 1a ee c1 3e d2 f7 d5 be
       0.672741 0.019923488 0.3787697 -0.41790634
000030 4f 9c 3d be ae 70 cf bd f3 6d 20 3e 95 14 4f 3e
       -0.18516658 -0.10128914 0.15666942 0.20222695
000040 cd eb f3 3e d9 af 70 bd a1 ff 05 bf b0 68 dd be
       0.4764084 -0.05876145 -0.52343184 -0.43243933
000050 2b 37 7d 3f 23 92 8c be b0 fb ba 3e 87 76 23 3e
       0.98912305 -0.27455243 0.36520147 0.15963183
000060 de 05 84 be ec a7 3e 3e cb f4 87 bf 57 48 60 3e
       -0.25785726 0.18618745 -1.062158 0.21902595
000070 e8 d0 a8 be 02 17 d1 be d7 4e 14 3f eb bf 34 3e
       -0.32971883 -0.40837866 0.579328 0.17651336
000080 03 b8 57 bd dc 5d 97 bd b9 94 1c be ae d7 be bd
       -0.05266572 -0.07390949 -0.15291108 -0.093184814
000090 4f d5 e5 be d7 f9 c2 3e 9b 31 b0 3e da 45 aa 3e
       -0.44889304 0.38081238 0.34412846 0.33256418
0000a0 62 e8 6f 3e 3f 00 e7 3d ee 4e ea bd 69 5a 03 3e
       0.23428491 0.11279344 -0.11440836 0.12827457
0000b0 e6 21 72 bd 9e bd bb bd 5a 70 59 bc f9 62 8b 3e
       -0.05911436 -0.09167026 -0.013271416 0.27223948
0000c0 44 8f 5d 3e f7 a6 f5 bd 2f 03 25 3e 9c be a1 bd
       0.21636683 -0.11994737 0.16114496 -0.07897684
0000d0 30 29 6d be 74 c2 ce be 9b 93 91 be 19 b9 fa 3d
       -0.23160243 -0.4038273 -0.28432927 0.12242336
0000e0 f1 52 82 be c4 3f b5 bd 07 b6 85 3e 36 7a 2b 3d
       -0.25453904 -0.08850053 0.26115438 0.041864596
0000f0 0a 26 80 3e 86 a7 87 3e 21 38 f4 bc cd 4e 98 3e
       0.25029022 0.26494998 -0.02981192 0.2974762
000100 cd 56 25 3d f1 41 02 be 72 5f 05 be f8 b0 c6 be
       0.040365983 -0.12720467 -0.13024691 -0.3880689
000110 e9 d2 bf bd df 56 18 bc 65 77 d1 3e 27 5e 3d bd
       -0.093664 -0.009298055 0.40911403 -0.04623237
000120 ac dd 53 be d3 ef fb bc c5 72 06 bf c3 29 8f 3e
       -0.2069003 -0.030754006 -0.52518874 0.2796155
000130 d5 ee ce be 3c 5a e5 bd 8d 8e 7b 3d 2e f9 75 bd
       -0.4041659 -0.111988515 0.061415244 -0.06005209
000140 35 dd 2c be 1b 35 26 bf 64 0e fb 3d a7 31 3b be
       -0.16881259 -0.6492478 0.12258604 -0.1828066
000150 97 c5 b7 bd 15 5a b6 bb de 45 71 3d d9 ef 5d 3e
       -0.08973234 -0.005564938 0.05890452 0.21673526
000160 9c da df be fc cd 31 3e 06 24 72 3d a6 cd 26 3e
       -0.43721473 0.17363733 0.059116386 0.16289386
000170 02 45 9b bd ba db 61 3d f3 69 2a bf 42 81 8b bd
       -0.075815216 0.05514119 -0.66567916 -0.06811763
000180 5e 7e 6a 3f 6c 28 47 3f c1 d9 69 3e 3d 32 11 be
       0.9159907 0.77796054 0.22836973 -0.1417932
000190 7c 5d a1 3e 75 b4 18 3e 27 b5 55 be 3f 58 ce 3e
       0.31516635 0.14912589 -0.20869885 0.403017
0001a0 47 8c 8e be 56 02 1e bf 3f c9 8f 3f 00 a8 85 3e
       -0.27841398 -0.61722314 1.123329 0.26104736
0001b0 ba c9 20 3e 21 21 9b 3e b2 7a 63 3f 70 eb fc bc
       0.15701953 0.30298713 0.88859093 -0.030873984
0001c0 71 16 16 be 28 4d 4f bf 43 6c 71 3e bf 1a 42 3f
       -0.14656998 -0.80977106 0.23576455 0.7582206
0001d0 6e 4c 06 bf 41 ac 4d 3d 12 30 dc be 31 e3 0e bd
       -0.5246037 0.050213102 -0.43005425 -0.034884635
0001e0 69 5e 10 be 04 6a 12 bf e2 b3 12 3f 9c 32 0c 3e
       -0.14098515 -0.57193017 0.5730573 0.13691181
0001f0 ff 32 97 3f 2c 20 9e 3e 1c f7 af be db a4 78 3f
       1.1812438 0.3088392 -0.34368217 0.9712655
000200 de 82 2b 3f 6d 78 48 bf ec b3 76 3e 19 14 70 3f
       0.6699656 -0.78308755 0.24092072 0.93780667
000210 49 1a 26 3f a4 fe 36 be b3 dd 9b bd 2a f2 18 3f
       0.6488386 -0.17870575 -0.07610645 0.59744513
000220 fc c6 3a be 07 0f f2 3c ba 23 1b bf c5 b4 6d 3f
       -0.18239969 0.029548181 -0.6060139 0.9285396
000230 46 9e 8f 3e 87 a4 90 3e ee cf c4 3e 5f 55 07 3f
       0.2805044 0.28250524 0.38439888 0.5286464
000240 5b 29 38 3f 1b df 6f be a9 d6 64 3e 5b 97 7b bd
       0.71938103 -0.23424952 0.22347511 -0.06142364
000250 c6 f3 b5 3e 53 0a 84 3e 30 f9 f6 3e 6d 2c b8 3d
       0.35537547 0.25789127 0.4823699 0.089928485
000260 0f e5 3f 3e d1 9d 08 bf ca b9 7b 3f 70 7b 34 be
       0.18739723 -0.5336581 0.98330367 -0.17625213
000270 6c d0 fc be ee 2d 60 be f5 0c ce 3d b9 a7 8b bd
       -0.49377763 -0.21892521 0.10061065 -0.068191
000280 4b cd 0c 3e ca 79 ca be d1 ab 34 bc f8 87 cb 3e
       0.13750188 -0.39546043 -0.011027292 0.39752173
000290 39 60 7d 3e 0e 58 39 3e 88 ab 44 bf 8c 26 fc 3d
       0.24743737 0.18099996 -0.76824236 0.1231204
0002a0 8e 57 14 be 9a a5 5d 3e 9a 88 2c be e3 46 0f 3f
       -0.14486524 0.21645203 -0.16848984 0.5596754
0002b0 f2 06 df 3e 1e 8c 14 be 5e f6 0c 3e 5a 6b a6 3f
       0.43559986 -0.14506575 0.13765857 1.3001511
0002c0 b7 ef ee bd e0 62 b8 bf 77 66 9a bd 43 aa 9b be
       -0.11666816 -1.4405174 -0.07539075 -0.30403337
0002d0 72 45 f2 be 8d b2 9c 3f 1a 92 53 3d fb 9d 75 bd
       -0.47318608 1.2241989 0.051653005 -0.059965115
0002e0 55 36 74 bf a7 f5 8e 3d 67 a8 39 bf 73 23 39 3f
       -0.95395404 0.06980448 -0.72522587 0.72319716
0002f0 55 23 13 3f c1 f4 43 be ab a0 a7 bf b6 b2 6e 3e
       0.5747579 -0.19136335 -1.3095907 0.2331036
000300 21 ea b9 be 1a 75 08 be ba eb 80 3e a8 cc dd 3d
       -0.3631144 -0.1332592 0.25179845 0.10830051
000310 3f cc ac bc cb c9 4d be 25 67 27 bf 70 d8 ec 3e
       -0.021093486 -0.20096509 -0.6539176 0.4625888
000320 ee 24 59 be 2a 58 9d bc 59 aa 0d bf fa 71 97 3d
       -0.21205494 -0.019207079 -0.55338055 0.07394786
000330 33 af 0b 3f b0 47 32 3f f9 dd 7f 3e c0 1a 06 bf
       0.5456421 0.69640636 0.2498702 -0.5238457
000340 06 f7 6c be 46 6d 89 3e 06 5e 3d 3e e4 28 2f 3d
       -0.23141107 0.26841182 0.18492898 0.042763606
000350 51 76 70 bf 49 7c b6 be 5a 81 e9 be 33 7c 07 be
       -0.93930537 -0.35641697 -0.456065 -0.13230972
000360 64 92 df 3c 26 17 d6 3c 66 0c ef 3e 9d 6c d1 bd
       0.027291484 0.026134085 0.46689147 -0.102257945
000370 80 9e 27 bf 1a 14 0c be ba a2 47 be fd b3 ba be
       -0.65476227 -0.13679543 -0.19495669 -0.36465445
000380 ae 4e ce 3d 03 45 e0 3c 52 a3 bf bd bb a7 09 bf
       0.10073601 0.027376657 -0.09357323 -0.5377156
000390 98 41 f2 3e 4b 4b d1 3c f0 07 26 3e 40 32 a8 3d
       0.4731567 0.025548598 0.16213965 0.082127094
0003a0 e2 da a2 3e 66 33 f4 be e0 30 0d 3e a6 53 56 3d
       0.3180762 -0.47695464 0.13788176 0.052325867
0003b0 12 38 bb be 5c d3 b1 3d 1a 40 ec 3e 5d f4 e5 bc
       -0.36566216 0.08682892 0.46142656 -0.028070623
0003c0 c1 0b ab 3e 64 e2 9a be 6e 08 e8 bd e3 d1 a2 3a
       0.33407405 -0.30250847 -0.11329733 0.001242217
0003d0 d3 0a a9 bd 76 6b 3d be bb 39 29 be b4 55 2b bf
       -0.08254018 -0.18498024 -0.16525929 -0.6692765
0003e0 94 7b 13 3d 73 0f 07 3f a5 eb 12 3e c5 2e 19 bd
       0.036006525 0.5275795 0.14347704 -0.03739812
0003f0 9b d9 21 3e 91 09 9c 3e bd 55 8e bd a5 a6 18 be
       0.15805666 0.3047605 -0.06949947 -0.1490732
