captcha_baseline_model.pth (torch, 194914 bytes, 18 tensors)

cnn.0.weight f4 [12, 1, 3, 3]
0	0xbf2804a8	-0.65632105
1	0x3dec4667	0.11536866
2	0x3f1bf2f2	0.6091758
3	0x3e500940	0.20316029
4	0xbe1f61f9	-0.15564717
5	0xbf5d8532	-0.86531365
6	0xbdf9c732	-0.121961966
7	0xbeb157f0	-0.34637403
8	0xbd306026	-0.043060444
9	0x3ec3bbcc	0.38229215
10	0xbe57ab26	-0.21061382
11	0x3ec86219	0.39137343
12	0x3e94e90c	0.2908405
13	0x3e78b8cd	0.24289246
14	0x3f3d5e41	0.73971945
15	0x3e9b684d	0.30353013
16	0xbeff41ab	-0.49854788
17	0xbe99d2dd	-0.30043688
18	0xbebc9fb0	-0.36840582
19	0x3d3f8b6c	0.046763822
20	0x3e264f3b	0.16241162
21	0xbe4d21f4	-0.20032483
22	0x3f6149f8	0.8800349
23	0x3bc8a9c1	0.006123752
24	0x3e0a8387	0.13526736
25	0x3ed1cc28	0.4097607
26	0xbf15d0cc	-0.58521724
27	0x3ea72f37	0.3265321
28	0x3f304599	0.688562
29	0x3f0f7b49	0.56047493
30	0xbecd261a	-0.40068132
31	0xbf31b6ef	-0.6941976
32	0xbe308ba6	-0.17240772
33	0xbe8be7fc	-0.27325428
34	0xbcc0f925	-0.023556301
35	0x3c2fff1c	0.010741975
36	0x3e6aed93	0.2294219
37	0x3eafc90b	0.3433307
38	0xbee38985	-0.44440857
39	0xbd5ed60f	-0.05440336
40	0x3f34d08d	0.70630723
41	0xbebbb117	-0.36658546
42	0xbf0741be	-0.5283469
43	0x3f202a0f	0.62564176
44	0xbc535999	-0.01289978
45	0x3db36074	0.08758631
46	0xbdd2f34f	-0.10300314
47	0xbe22a835	-0.15884478
48	0xbf5e2ee5	-0.86790305
49	0xbed32246	-0.41237086
50	0x3e0cf6f7	0.13766085
51	0x3efb272e	0.4905333
52	0x3f04dd78	0.51900434
53	0x3e52142d	0.20515509
54	0xbe49aa24	-0.1969381
55	0xbdb89e0b	-0.09014519
56	0x3eecd558	0.46256518
57	0xbf106bc9	-0.5641447
58	0x3d5435d2	0.05180914
59	0x3f0cc9ca	0.54995406
60	0xbf156524	-0.58357453
61	0x3e363cf1	0.17796685
62	0x3ecfb34f	0.4056649
63	0xbd45a393	-0.0482517
64	0xbf36d958	-0.7142539
65	0x3da3f2ac	0.0800527
66	0x3c26394b	0.010145496
67	0xbf3f1329	-0.7463861
68	0x3e33607b	0.17517273
69	0xbc46693b	-0.01211005
70	0xbf26e552	-0.65193665
71	0xbd35c86f	-0.0443806
72	0x3df100f1	0.11767758
73	0xbf2fcc6d	-0.68671304
74	0x3f671640	0.90268326
75	0xbf04aa10	-0.51821995
76	0xbd3852b4	-0.045000747
77	0x3e3dd8c6	0.18539724
78	0x3f2a8319	0.6660629
79	0xbe3d84c9	-0.18507685
80	0xbe16e030	-0.14733958
81	0x3e094b80	0.13407707
82	0x3e1827b8	0.14858902
83	0xbebd3d5c	-0.36960876
84	0xbdb3b0aa	-0.0877393
85	0x3f58f651	0.8475085
86	0x3f0fa0ad	0.56104547
87	0xbeea542c	-0.45767343
88	0xbeee5cfa	-0.4655531
89	0x3e655780	0.2239666
90	0x3eee44eb	0.46536955
91	0x3c436496	0.011925837
92	0xbf0f2ac3	-0.55924624
93	0x3edc80d5	0.4306704
94	0xbed64d87	-0.41856024
95	0x3eae09e1	0.33991912
96	0xbf0816b1	-0.53159624
97	0x3e7196d9	0.235927
98	0x3e4398e0	0.19101286
99	0x3e4c1bc1	0.19932462
100	0xbf163861	-0.5867978
101	0x3e24409e	0.16040275
102	0x3f63ea41	0.8902932
103	0xbefa1dca	-0.48850852
104	0xbe88b426	-0.26699942
105	0x3eba445e	0.36380285
106	0x3d8fcfde	0.070220694
107	0xbedc719a	-0.4305542

cnn.0.bias f4 [12]
0	0xbebddcc2	-0.37082487
1	0x3f82b28f	1.0210742
2	0xbec6f4c8	-0.38858628
3	0xbf59fdbb	-0.85152787
4	0x3e5b2a64	0.2140289
5	0x3f0f87bf	0.5606651
6	0xbf70d85c	-0.9408014
7	0xbfaa179d	-1.3288456
8	0x3e93667e	0.28789133
9	0xbd579666	-0.052633666
10	0x3eb7b04d	0.35876694
11	0xbef8ecc2	-0.48618132

cnn.1.weight f4 [12]
0	0x3e2e1708	0.17000973
1	0x3e62f5e9	0.2216412
2	0x3ea8caaa	0.3296712
3	0x3ec190ab	0.37805685
4	0x3ec3f190	0.38270235
5	0x3ea44bea	0.32089168
6	0x3ebea3dc	0.3723439
7	0x3e40ac46	0.18815717
8	0x3e6f1ad5	0.2335008
9	0x3e90db73	0.28292426
10	0x3df88b03	0.121358894
11	0x3ea9952f	0.3312163

cnn.1.bias f4 [12]
0	0xbda9b2f6	-0.08286087
1	0xbdc02887	-0.0938273
2	0xbe400004	-0.18750006
3	0xbe5f870a	-0.21828857
4	0xbe56d8b8	-0.20981109
5	0xbe7d1109	-0.2471353
6	0xbe4e37e2	-0.20138505
7	0xbdc85b34	-0.097830206
8	0xbe50060a	-0.20314804
9	0xbe0c2247	-0.13684951
10	0xbd8ea663	-0.069653295
11	0xbe5ac7fb	-0.21365349

cnn.1.running_mean f4 [12]
0	0xbfaa6bd0	-1.3314152
1	0x4004e5b5	2.0765202
2	0xbc80a4f2	-0.015703652
3	0xbf5a0f2a	-0.8517939
4	0x3f0fb283	0.5613176
5	0x3ef9e731	0.48809198
6	0xbf5167a7	-0.81798786
7	0xc0331971	-2.7984278
8	0x3ef0719b	0.46961674
9	0x3ece3590	0.4027524
10	0x3eff41d7	0.4985492
11	0xbf0cd5ac	-0.5501354

cnn.1.running_var f4 [12]
0	0x3e3c0723	0.18362097
1	0x3e7e2718	0.248196
2	0x3dece4c7	0.11567073
3	0x3e87769e	0.26457685
4	0x3de1ec3e	0.11031388
5	0x3e3b638e	0.18299696
6	0x3e772552	0.2413533
7	0x3ec31d0b	0.38108096
8	0x3dbe2e2c	0.0928615
9	0x3e2738a5	0.16330202
10	0x3d69433b	0.05694888
11	0x3e2c574b	0.16830175

reshape.weight f4 [48, 144]
0	0xbbf0080e	-0.007325179
1	0xbd9399e6	-0.07207088
2	0x3c5b186e	0.013372524
3	0x3c25ece7	0.010127283
4	0x3ecd7ed0	0.40135813
5	0x3eb18bad	0.34676877
6	0x3eaaf24a	0.33387977
7	0x3e24fe3b	0.16112606
8	0x3ea22fa1	0.31676963
9	0x3dbeb32d	0.09311519
10	0x3c1adccc	0.009452056
11	0x3e5e7468	0.21724093
12	0x3cffe155	0.031235376
13	0xbcd55346	-0.026040684
14	0xbe2817c8	-0.16415322
15	0xbec8c468	-0.39212346
16	0xbe42e362	-0.19032052
17	0xbe8111a8	-0.25208783
18	0x3d937f60	0.07202029
19	0x3da6e215	0.081485905
20	0x3e0b55b7	0.13606916
21	0x3e94154f	0.28922507
22	0x3e0917f6	0.13388047
23	0x3dc9a699	0.09846229
24	0xbe6e645c	-0.23280472
25	0xbe4defdd	-0.20111032
26	0xbe131292	-0.14362553
27	0xbd848550	-0.0647074
28	0x3bf0110b	0.0073262504
29	0x3df51734	0.11967316
30	0x3e83e456	0.25760144
31	0x3e5d4090	0.2160666
32	0x3d4ce214	0.050020292
33	0xbcf1e57d	-0.029528374
34	0xbe43df01	-0.19128038
35	0xbdcd2b06	-0.10017972
36	0xbe1a6425	-0.15077265
37	0x3bfb0177	0.0076600867
38	0xbe60302b	-0.21893375
39	0xbec81a6b	-0.39082655
40	0xbe8fef50	-0.28112268
41	0x3cbeb087	0.023277534
42	0xbc8c83e2	-0.01715273
43	0x3e001edd	0.12511773
44	0x3e6a3f7f	0.22875784
45	0x3e8f1b13	0.27950343
46	0x3eabfdfc	0.33592212
47	0x3d23342a	0.03984467
48	0x3eeb3a98	0.4594314
49	0x3e4d14d9	0.20027484
50	0x3df64ccf	0.12026369
51	0x3d1d34fd	0.03838061
52	0xbd39f411	-0.045398775
53	0xbe669d2b	-0.22520892
54	0xbe97fce0	-0.29685116
55	0xbe6e0cf2	-0.23247126
56	0xbe87428c	-0.2641796
57	0xbea293be	-0.31753343
58	0xbd933fa9	-0.071898766
59	0x3e35d6dd	0.17757745
60	0xbe65a5fc	-0.224266
61	0xbeb8cae3	-0.3609229
62	0xbe9f4df3	-0.31114158
63	0xbe3309a7	-0.17484151
64	0x3d8257b7	0.063643865
65	0x3e4110c4	0.18854052
66	0x3ea1c92b	0.3159879
67	0x3ed4d1e8	0.41566396
68	0x3ec2c067	0.38037416
69	0x3e82ce02	0.25547796
70	0x3e4d2ee0	0.20037413
71	0xbe144f96	-0.14483485
72	0x3dcc23f7	0.09967797
73	0x3cd736cd	0.026271248
74	0x3e18b69f	0.14913414
75	0x3e625c4f	0.22105525
76	0xbdf0796a	-0.11741908
77	0xbe121291	-0.14264895
78	0xbeb77325	-0.35830036
79	0xbd9af3fb	-0.07566067
80	0xbead52ae	-0.33852142
81	0xbeb18fc8	-0.3468001
82	0xbeac9fc3	-0.3371564
83	0xbed80928	-0.42194486
84	0x3da43b54	0.080191284
85	0xbca10991	-0.019657882
86	0x3d1ded5a	0.038556434
87	0x3e03c00c	0.12866229
88	0x3cd8c204	0.026459701
89	0xbd32fbfa	-0.043697335
90	0xbdc51704	-0.096235305
91	0xbe35a40f	-0.17738365
92	0x3d66b466	0.056324385
93	0xbdf32f0d	-0.118742086
94	0xbc1d83c1	-0.009613932
95	0x3defd184	0.11709884
96	0x3e71ea29	0.23624481
97	0x3ed06f56	0.40709943
98	0x3eb7b191	0.3587766
99	0x3ef313b1	0.4747596
100	0x3edc2b08	0.4300158
101	0x3e9a191b	0.3009728
102	0x3deb2d18	0.1148321
103	0x3db08b74	0.086203486
104	0x3e8ed0f5	0.27893797
105	0x3d81d78e	0.06339942
106	0xbef15c04	-0.47140515
107	0xbebb8bd8	-0.3663013
108	0x3ecf7a60	0.40523052
109	0x3ebf2d2d	0.37339154
110	0x3d92721d	0.07150672
111	0xbe8e1e81	-0.27757648
112	0xbe39682a	-0.18106142
113	0xbde91617	-0.113811664
114	0x3e3e21e7	0.1856762
115	0xbdbc61f4	-0.091983706
116	0xbdba6362	-0.09100987
117	0xbd6c141f	-0.057636376
118	0xbe7f9c1a	-0.24961892
119	0xbef9ccf7	-0.48789188
120	0xbc2d3283	-0.010571125
121	0xbdd98062	-0.1062019
122	0x3e88587f	0.26630017
123	0x3e51bbbc	0.20481771
124	0x3e97c62e	0.29643387
125	0x3e6e11b9	0.23248948
126	0x3e05faf0	0.13084006
127	0x3dd5a089	0.1043101
128	0x3e20baf6	0.1569632
129	0x3dc7cd27	0.097559266
130	0xbea73dd3	-0.32664356
131	0xbe77bebe	-0.24193856
132	0x3d76cfbf	0.060256716
133	0x3ead9ae6	0.3390724
134	0x3e548980	0.20755577
135	0x3e23ab60	0.15983343
136	0x3e651f20	0.22375154
137	0xbe6ba7f0	-0.23013282
138	0xbdcdeca0	-0.10054898
139	0x3d5266fb	0.05136774
140	0x3e366597	0.17812191
141	0xbb08d3b1	-0.002087813
142	0x3e88e0fd	0.26734152
143	0x3f5e5aee	0.868575
144	0x3e05a4c2	0.13051131
145	0x3d3ca388	0.046054393
146	0x3e039c1e	0.12852523
147	0x3e24c871	0.16092087
148	0x3dcca594	0.09992519
149	0x3d67a855	0.05655702
150	0x3c870bff	0.016485212
151	0x3a29e63f	0.0006481148
152	0xbe9412c5	-0.2892057
153	0xbe20a5dd	-0.15688272
154	0xbe379071	-0.17926194
155	0xbdc04a97	-0.09389227
156	0xbe8e292f	-0.27765796
157	0xbd68ae73	-0.056806993
158	0x3e2ae463	0.16688685
159	0x3e66bc05	0.22532661
160	0x3e622e93	0.22088079
161	0x3d143d55	0.036191303
162	0xbd2cf05d	-0.042221416
163	0xbcc185c5	-0.023623357
164	0xbe8cc076	-0.27490586
165	0xbde440b3	-0.11145153
166	0x3e110790	0.14163041
167	0xbe493b7b	-0.19651596
168	0xbe916e19	-0.2840431
169	0xbe3a486d	-0.1819169
170	0xbe1870ca	-0.14886776
171	0xbec66b37	-0.38753673
172	0x3cf46c28	0.02983673
173	0xbeb95820	-0.36200047
174	0xbea3e553	-0.32010898
175	0xbe2c08fb	-0.16800301
176	0xbcdfa28e	-0.027299192
177	0xbe7b5718	-0.24544942
178	0x3e2c507f	0.16827582
179	0x3e74d383	0.2390881
180	0x3e92b1c7	0.28651258
181	0x3eb62160	0.35572338
182	0x3ec6ce86	0.3882944
183	0x3ec56e33	0.38560638
184	0x3ed578e6	0.416938
185	0x3de6a658	0.11262196
186	0x3da3c0b2	0.07995738
187	0xbd9196dc	-0.07108852
188	0xbe0b6852	-0.13614014
189	0xbeae74cd	-0.34073487
190	0xbe762e30	-0.24041057
191	0xbe9643fd	-0.29348746
192	0xbd0dd714	-0.034628943
193	0xbe8f9773	-0.28045234
194	0x3dc2cad7	0.09511345
195	0xbdd2740b	-0.1027604
196	0xbb138600	-0.002251029
197	0x3d7ec790	0.062202036
198	0x3e724216	0.23658022
199	0xbce8f230	-0.028435796
200	0x3d86f175	0.06589023
201	0xbe2d558d	-0.16927166
202	0xbe15683b	-0.14590542
203	0x3e45e3ae	0.19325134
204	0x3ed51c3a	0.41623098
205	0x3ee35645	0.44401756
206	0x3e7e316c	0.2482354
207	0x3e6f255c	0.23354095
208	0x3d97a9ec	0.07405457
209	0xbe623b16	-0.22092852
210	0xbdc85a5e	-0.09782861
211	0xbe5ec854	-0.21756107
212	0xbe55de3f	-0.20885561
213	0xbeaae8af	-0.33380648
214	0xbe8f39d9	-0.27973822
215	0xbe65d728	-0.22445357
216	0xbe310740	-0.17287922
217	0xbea11625	-0.31462207
218	0xbe883c8d	-0.26608697
219	0x3d2b1c5c	0.041775092
220	0x3dc8446c	0.097786754
221	0x3e7e8e22	0.24858907
222	0x3ea59dd7	0.32346985
223	0x3dc9c52b	0.0985206
224	0x3e846c5d	0.25863925
225	0x3dcf0c0b	0.10109719
226	0x3e23ee6e	0.16008922
227	0x3f970281	1.1797639
228	0x3ca6496f	0.020298688
229	0x3d53d369	0.05171529
230	0xbd35d10a	-0.04438881
231	0x3e682b5c	0.2267279
232	0x3eab5c99	0.33469084
233	0x3e8a868d	0.2705578
234	0x3e8d68c9	0.27619007
235	0x3e45b75e	0.1930823
236	0x3d2ced9c	0.04221879
237	0xbe6cb3a7	-0.23115407
238	0xbdfb37b6	-0.122664854
239	0xbd7adbfe	-0.061244957
240	0xbd5b65f9	-0.053564046
241	0xb9781c3f	-0.00023661646
242	0xbdebd02b	-0.11514314
243	0xbe615a14	-0.22007018
244	0xbea78391	-0.32717565
245	0xbe8552b0	-0.26039648
246	0xbda0c886	-0.07850747
247	0x3dcb9820	0.09941125
248	0x3d87d8e0	0.066331625
249	0x3f182dbe	0.594448
250	0x3f12cf77	0.57347816
251	0x3f26d2ae	0.6516522
252	0x3de8f73f	0.113752834
253	0x3e9d8e3a	0.30772573
254	0x3e8f12b6	0.27943963
255	0x3eb9f5f7	0.3632047

reshape.bias f4 [48]
0	0xbe148c15	-0.14506562
1	0xbe28207a	-0.16418639
2	0xbd03a6e6	-0.03214159
3	0x3e4d3606	0.2004014
4	0x3e527e45	0.2055598
5	0xbcd658ee	-0.026165452
6	0xbd136a0f	-0.035989817
7	0xbe2c9486	-0.16853532
8	0x3ed0fe82	0.40819174
9	0x3e1c2d93	0.1525176
10	0xbe20e933	-0.15713958
11	0x3bbdf999	0.0057975766
12	0x3dd14c6b	0.10219654
13	0x3e044532	0.12917021
14	0xbcd30f2d	-0.025764072
15	0xbd4c548a	-0.04988531
16	0xbc1be89a	-0.009515906
17	0xbe320f19	-0.17388572
18	0x3e980054	0.2968775
19	0x3dcb3e61	0.09924007
20	0xbe8243f4	-0.2544247
21	0xbd179ab4	-0.03701277
22	0xbe74ea09	-0.23917402
23	0x3df19a83	0.11797049
24	0x3c6bb71b	0.014386917
25	0x3e8ba1f1	0.2727199
26	0xbe7655c3	-0.24056153
27	0x3e1aaa5d	0.15104051
28	0x3d8463a4	0.064643174
29	0x3cf95674	0.030436732
30	0x3e989be8	0.29806447
31	0x3e60d799	0.21957244
32	0x3d268ad0	0.040659726
33	0x3e0f8c19	0.14018287
34	0xbee6d2a2	-0.45082575
35	0xbe8deb90	-0.27718782
36	0xbe50d17b	-0.2039241
37	0x3dc038ac	0.09385809
38	0xbe2fed04	-0.17180258
39	0xbefb0cf8	-0.49033332
40	0x3bfa52f7	0.0076392847
41	0xbea9f3d1	-0.3319383
42	0xbe881318	-0.26577067
43	0xbaa9ebd6	-0.0012963961
44	0xbdb8c74c	-0.09022388
45	0x3e26163d	0.1621942
46	0xbdc37047	-0.095428996
47	0x3eb8a9d2	0.36067063

lstm.weight_ih_l0 f4 [192, 48]
0	0xbe777e02	-0.24169162
1	0x3e21da8e	0.15806028
2	0x3d58ff88	0.05297807
3	0x3cf47ec2	0.0298456
4	0x3e1b600d	0.15173359
5	0x3d2ac87f	0.041695114
6	0xbe592242	-0.21204475
7	0xbe75436a	-0.23951498
8	0x3e51f8b9	0.20505036
9	0x3e7a5000	0.2444458
10	0xbd0a8e3f	-0.033827063
11	0x3cbe667c	0.023242228
12	0x3e7f6c63	0.2494369
13	0xbd984d9d	-0.074366786
14	0xbd7a2812	-0.06107337
15	0xbe28b388	-0.16474736
16	0x3cd4168d	0.02588966
17	0xbe304427	-0.17213498
18	0xbe184c06	-0.1487275
19	0xbd84b72c	-0.0648025
20	0xbe19aeae	-0.15008041
21	0xbe2cfb9d	-0.16892858
22	0xbe32b6b0	-0.17452502
23	0x3d483a6b	0.048883837
24	0x3e33df06	0.17565545
25	0xbd11e595	-0.035619337
26	0x3b8ec894	0.004357407
27	0x3ea7790b	0.32709536
28	0x3e5492e8	0.20759165
29	0xbf31c7cf	-0.6944551
30	0xbe316831	-0.17324902
31	0x3dede49a	0.11615868
32	0xbd351aa4	-0.04421486
33	0x3e13d252	0.144357
34	0x3d833085	0.06405739
35	0x3d4a4089	0.04937795
36	0xbe1a9c22	-0.15098622
37	0x3da1df9b	0.079039775
38	0xbd69304b	-0.05693082
39	0x3dfd2c3f	0.12361955
40	0x3d6b26a8	0.057409912
41	0xbed0e0a5	-0.4079639
42	0x3d7fcaa8	0.062449127
43	0xbd87faa5	-0.066396035
44	0xbd9de00a	-0.07708748
45	0x3d6fbb6e	0.058528356
46	0xbd30c6c0	-0.043158293
47	0x3e3b685b	0.18301527
48	0x3e5645df	0.20925091
49	0x3e91280f	0.28350875
50	0xbe96dc66	-0.29465026
51	0x3f1d4e53	0.6144764
52	0x3cef533c	0.029214494
53	0x3d8f6689	0.07001979
54	0x3d945308	0.072423995
55	0xbed7d3c4	-0.42153752
56	0x3eef515b	0.46741757
57	0xbe25b28b	-0.1618139
58	0xbdfb7724	-0.12278584
59	0xbd935d35	-0.07195512
60	0xbef34d9a	-0.47520143
61	0x3c8aa604	0.016924866
62	0x3e446519	0.1917919
63	0xbf0575dc	-0.52132964
64	0x3e0a7ea8	0.13524878
65	0x3ea637ee	0.32464546
66	0xbe7ca895	-0.24673684
67	0xbb4c5865	-0.0031180617
68	0xbecfeb84	-0.40609372
69	0x3e9db8c4	0.30805027
70	0xbd1baadf	-0.038004752
71	0xbcaa41ab	-0.020783266
72	0x3db15efc	0.08660695
73	0xbebd8b27	-0.37020227
74	0xbed4072e	-0.41411728
75	0x3e2450c2	0.16046432
76	0xbe5ebb1b	-0.21751063
77	0xbfbd5093	-1.4790214
78	0xbe893d83	-0.26804742
79	0x3e14a3de	0.14515635
80	0x3e64341c	0.22285503
81	0xbf2c19ef	-0.6722707
82	0x3f228f5d	0.63500005
83	0x3d6ac758	0.057319015
84	0xbeea4c12	-0.45761162
85	0xbe09d4d4	-0.13460094
86	0x3eb914de	0.36148733
87	0x3e43ce35	0.1912163
88	0x3da0eaf1	0.078573115
89	0x3e935324	0.2877437
90	0x3deefa83	0.11668875
91	0x3ea61f72	0.32445866
92	0xbd422eff	-0.0474081
93	0xbea2de54	-0.31810248
94	0xbfaa7e12	-1.3319724
95	0x3f28b042	0.6589395
96	0x3d90f8e7	0.07078724
97	0x3e03ff0e	0.12890264
98	0x3d7ea42f	0.062168296
99	0xbe50b056	-0.20379767
100	0x3d7ee451	0.06222946
101	0x3df810cb	0.12112578
102	0xbe8c522e	-0.27406448
103	0x3caf32e6	0.021386575
104	0xbdf74c35	-0.12075082
105	0x3ea11c0a	0.31466705
106	0x3da62701	0.08112908
107	0x3dc3ce35	0.09560815
108	0xbaada3a6	-0.0013247624
109	0xbe4dac6b	-0.20085303
110	0xbe9421b8	-0.28931975
111	0xbde29f73	-0.11065569
112	0xbd14fa92	-0.036371775
113	0xbd882a8c	-0.0664874
114	0x3e3fe911	0.18741252
115	0x3df0ead9	0.11763544
116	0xbea1334a	-0.31484443
117	0xbdd02c74	-0.10164729
118	0xbddc9be7	-0.107719235
119	0xbd497d7d	-0.04919194
120	0xbd823b7f	-0.06359004
121	0x3e3ecb44	0.18632227
122	0x3e1b2de5	0.15154226
123	0x3d60500c	0.05476384
124	0x3dfc8c79	0.123314805
125	0xbe05303a	-0.13006678
126	0xbe44835f	-0.19190739
127	0x3e3363da	0.17518559
128	0xbee69a10	-0.45039415
129	0x3e2d46bc	0.16921514
130	0xbdc49735	-0.09599153
131	0xbe48394b	-0.19553106
132	0x3ddd2304	0.10797694
133	0xbc95f32d	-0.018304432
134	0xbded3804	-0.1158295
135	0xbdc26b85	-0.09493164
136	0x3ccf5c22	0.025312487
137	0xbef944d7	-0.48685333
138	0x3d9b0203	0.07568743
139	0xbda425df	-0.08015036
140	0xbea96d58	-0.33091235
141	0x3e36a4d5	0.17836316
142	0x3daa0c81	0.08303166
143	0x3b4b774e	0.0031046453
144	0x3db33d54	0.08751932
145	0x3e501a67	0.20322572
146	0x3eaeea43	0.34163103
147	0xbdec2d5c	-0.11532089
148	0x3d94d743	0.072676204
149	0x3d96a4e0	0.07355666
150	0x3da86621	0.082226045
151	0x3df83254	0.12118974
152	0xbdc6cdbe	-0.09707211
153	0x3e1bb667	0.152063
154	0x3dcf18c6	0.10112147
155	0xbf24cc84	-0.64374566
156	0xbf847d40	-1.0350723
157	0x3d072c47	0.03300121
158	0x3ddec419	0.108772464
159	0xbeb3acf1	-0.3509288
160	0x3ea13669	0.31486824
161	0xbeb0e457	-0.3454921
162	0xbda57365	-0.080786504
163	0x3e74a46d	0.23890848
164	0x3db60c55	0.08889071
165	0xbe2e274b	-0.17007177
166	0xbcbf7e43	-0.023375636
167	0x3e32990e	0.17441198
168	0x3d5953dd	0.053058494
169	0x3e2d1f3d	0.16906448
170	0xbddf64c9	-0.10907895
171	0x3e844031	0.25830224
172	0x3e754381	0.23951532
173	0x3da079c4	0.07835725
174	0xbe01a1e5	-0.12659414
175	0xbe2bc261	-0.16773368
176	0x3d270a1e	0.040781133
177	0x3dff0904	0.124528915
178	0xbec514bd	-0.38492385
179	0x3d54e0cc	0.051972196
180	0xbd00f049	-0.031479154
181	0xbe203fd4	-0.15649348
182	0xbe8b1e82	-0.27171713
183	0x3db5e323	0.088812135
184	0xbed82e63	-0.4222289
185	0xbe93070c	-0.28716314
186	0xbe19d225	-0.1502157
187	0xbeb1c211	-0.34718373
188	0xbdcbad4a	-0.09945162
189	0x3f06a9f3	0.5260307
190	0xbbc9e933	-0.0061618327
191	0xbdbc25f9	-0.0918693
192	0x3d72ee21	0.05930913
193	0x3e539465	0.20662077
194	0xbde1229a	-0.10992928
195	0xbc893962	-0.016750995
196	0x3ce4b382	0.027917627
197	0x3e30dcf6	0.1727179
198	0xbda319d6	-0.07963912
199	0x3d18d142	0.03730894
200	0x3dc899e8	0.0979498
201	0x3d4a6545	0.049412984
202	0x3d849dfc	0.06475446
203	0x3d99514d	0.0748621
204	0x3e1f4a94	0.15555793
205	0xbe4ede28	-0.20201933
206	0xbdebaafe	-0.115072235
207	0xbdbb5f54	-0.09149042
208	0xbbd11d30	-0.0063816532
209	0xbda5978d	-0.08085547
210	0xbcaecb79	-0.021337258
211	0x3e08a858	0.13345468
212	0xbe26e316	-0.16297564
213	0xbdf0fed1	-0.11767352
214	0x3cedf393	0.02904681
215	0x3e0f3712	0.13985851
216	0xbd368404	-0.044559494
217	0xbd7aa53c	-0.061192736
218	0xbdbaa726	-0.09113912
219	0x3dd2918e	0.102816686
220	0x3e2e58bd	0.17026038
221	0xbe628312	-0.22120312
222	0xbdbeb979	-0.0931272
223	0x3e02d0fc	0.12775034
224	0xbd6b7567	-0.05748501
225	0x3cdf3c35	0.027250389
226	0x3d7bf0ab	0.061508816
227	0x3d138a4f	0.036020573
228	0xbb82161d	-0.0039699213
229	0x3de1829c	0.1101124
230	0xbe1a69e1	-0.15079452
231	0xbe52b220	-0.20575762
232	0xbdf56666	-0.119824216
233	0xbe201bce	-0.15635607
234	0xbe24b9a4	-0.16086441
235	0xbb84dae9	-0.0040544164
236	0xbe6e6347	-0.23280059
237	0x3dac18c5	0.08403162
238	0x3e5dafc6	0.21649083
239	0x3e0e3d63	0.13890605
240	0xbf6aad37	-0.91670555
241	0xbe82373e	-0.2543277
242	0xbe68f7d9	-0.22750796
243	0xbcf278d3	-0.02959863
244	0xbf38a399	-0.7212463
245	0xbf270fcf	-0.65258497
246	0xbeed6247	-0.46364042
247	0x3ed76af8	0.42073798
248	0x3e7ccf4c	0.24688452
249	0xbe857ac0	-0.26070213
250	0xbeea2dc0	-0.4573803
251	0x3d84f89f	0.06492733
252	0x3ec74091	0.38916448
253	0xbf049a21	-0.5179768
254	0xbe8ccb75	-0.27498975
255	0x3ea6447b	0.3247412

lstm.weight_hh_l0 f4 [192, 48]
0	0xbe3c3118	-0.18378103
1	0x3c466f28	0.012111463
2	0xbe58e530	-0.21181178
3	0x3dcd900d	0.10037241
4	0xbe193192	-0.14960316
5	0x3ea0c374	0.3139912
6	0x3e91bd96	0.28464955
7	0xbe8808df	-0.26569268
8	0x3e143373	0.14472751
9	0x3df7f198	0.12106627
10	0x3de447f9	0.1114654
11	0x3e3eb44c	0.18623465
12	0xbe7f8ab2	-0.24955252
13	0xbe1b5871	-0.15170456
14	0xbebbff76	-0.3671834
15	0x3c7f06fa	0.015565628
16	0xbea67594	-0.3251158
17	0xbd9bead9	-0.07613153
18	0xbe0de220	-0.13855791
19	0xbcadc6ef	-0.021213023
20	0xb9dfa335	-0.00042655473
21	0xbde62861	-0.112381704
22	0x3daa2495	0.08307759
23	0xbe87f609	-0.26554897
24	0xbd284d30	-0.041089237
25	0xbc927a48	-0.017880574
26	0xbc93533c	-0.017984025
27	0x3d82e9a4	0.0639222
28	0x3d37f0fc	0.044907555
29	0x3d545f05	0.05184843
30	0xbecb01b4	-0.39649737
31	0xbe807d00	-0.25095367
32	0xbdf26203	-0.118351005
33	0x3d1abda8	0.037778527
34	0xbeab3367	-0.33437654
35	0xbc79646f	-0.015221699
36	0xbd70c889	-0.058784995
37	0xbcca86fd	-0.02472257
38	0x3d32898b	0.043588202
39	0xbd0d292c	-0.034463093
40	0xbd8e9a52	-0.06963028
41	0xbe392d3c	-0.18083662
42	0x3e07d7ce	0.13265917
43	0xbd07f745	-0.0331948
44	0x3dca8468	0.09888536
45	0x3deba24d	0.11505566
46	0xbde4b855	-0.11167971
47	0x3da25610	0.07926571
48	0xbf109cde	-0.5648936
49	0xbf6778fe	-0.90418994
50	0x3df161a9	0.11786205
51	0x3eae4eba	0.3404444
52	0xbe81f737	-0.25383922
53	0x3f7edb73	0.995536
54	0x3e081675	0.13289817
55	0xbe1f4061	-0.15551902
56	0xbd66e93a	-0.056374766
57	0xbfb138b4	-1.384543
58	0x3ee26b8a	0.4422267
59	0x3ecbe079	0.39819697
60	0xbe875736	-0.26433724
61	0xbd563f4f	-0.05230647
62	0xbe8ccb9e	-0.27499098
63	0x3e4c4979	0.19949903
64	0x3f13de61	0.577612
65	0xbe2aa503	-0.1666451
66	0x3d769b33	0.060206603
67	0xbea6726e	-0.32509178
68	0xbdcb2e77	-0.09920972
69	0xbe3632fb	-0.17792885
70	0x3dc35692	0.09537996
71	0xbdb23ccb	-0.087030016
72	0x3cc2dc1f	0.023786603
73	0x3d2ffc65	0.04296531
74	0xbf1e9c17	-0.61956924
75	0xbee9c50e	-0.45658153
76	0xbd313ee7	-0.04327288
77	0x3e4e929b	0.20173113
78	0xbdf4b8f3	-0.11949339
79	0xbecb6ffc	-0.39733875
80	0xbf9dd506	-1.2330635
81	0xbdb4b8c6	-0.08824305
82	0x3e3d40cf	0.18481754
83	0xbf19bc5e	-0.6005305
84	0x3ca03cfe	0.019560333
85	0x3e365c8d	0.17808743
86	0xbe8cf8b1	-0.27533486
87	0x3ed17bde	0.40914816
88	0xbecd8e43	-0.401476
89	0xbeb2da1f	-0.34932038
90	0x3d7462a4	0.059664384
91	0xbf0ab46f	-0.5418157
92	0x3e613aa5	0.21995027
93	0xbe864ad8	-0.26228976
94	0x3da65c99	0.0812313
95	0xbe22ac09	-0.15885939
96	0xbe991497	-0.2989852
97	0x3e315edd	0.17321344
98	0xbe5e4b03	-0.21708302
99	0xbde62e6c	-0.11239323
100	0xbe33b142	-0.17548087
101	0x3f0ace34	0.5422089
102	0xbe27aeec	-0.16375321
103	0xbe9682e9	-0.29396752
104	0x3e0256a8	0.12728369
105	0x3f54ddf0	0.8315115
106	0x3df75bf1	0.12078083
107	0x3f001d49	0.50044686
108	0xbe907fe2	-0.28222567
109	0x3dc5c021	0.09655786
110	0xbf043eb7	-0.51658195
111	0x3ea06daf	0.31333682
112	0xbedba065	-0.4289581
113	0xbe434900	-0.19070816
114	0xbe7160ac	-0.23572034
115	0x3eab8dd6	0.3350665
116	0x3e2aa05f	0.16662739
117	0xbdf78253	-0.12085404
118	0x3ea1f56f	0.31632563
119	0xbe145a57	-0.14487587
120	0xbe29cd1f	-0.16582154
121	0x3ddb505e	0.10708688
122	0xbec0e292	-0.3767286
123	0x3dee79c1	0.116443165
124	0x3deeeec9	0.116666384
125	0x3da2f07a	0.079560235
126	0xbeebe34e	-0.46071857
127	0xbe516ba6	-0.20451221
128	0xbeaa8896	-0.33307332
129	0x3da37f7d	0.07983301
130	0xbee79b4f	-0.4523568
131	0xbea2426b	-0.31691298
132	0xbefbfa4d	-0.49214402
133	0xbe9f836f	-0.31154963
134	0x3e65697e	0.22403523
135	0x3e95e7ae	0.2927832
136	0xbdc1d536	-0.09464495
137	0xbe102679	-0.14077176
138	0x3dc2cc9a	0.09511681
139	0xbe2157f8	-0.15756214
140	0x3e0c0178	0.13672435
141	0x3de8b3bd	0.11362407
142	0xbd0d6b34	-0.034526065
143	0xbbd38ddf	-0.0064561213
144	0xbef4295f	-0.47687814
145	0x3e8689b8	0.26276946
146	0xbf0c35be	-0.54769504
147	0x3ed6394a	0.41840583
148	0xbf161c9a	-0.5863739
149	0x3e7cbc19	0.24681129
150	0xbee12b4a	-0.4397834
151	0xbee64da2	-0.44981104
152	0x3f3d748a	0.7400595
153	0x3eae0288	0.33986306
154	0x3ed0c5a2	0.40775782
155	0xbe3ec88f	-0.18631195
156	0xbeed9f2c	-0.464105
157	0xbf9d4c47	-1.2288903
158	0xbf1f52db	-0.622358
159	0x3f17a05e	0.59229076
160	0xbecf475a	-0.40484124
161	0xbf190ca8	-0.59784937
162	0x3f478703	0.77940387
163	0x3f54be88	0.8310323
164	0xbde8009f	-0.113282435
165	0xbe84cdd5	-0.25938287
166	0x3e750e34	0.239312
167	0xbfa791c6	-1.3091362
168	0x3f078af5	0.52946407
169	0x3ea54d27	0.32285425
170	0x3f004452	0.5010425
171	0x3f440cd3	0.7658207
172	0xbef87dce	-0.4853348
173	0x3ecb85e0	0.39750576
174	0xbf695d98	-0.9115844
175	0xbec2bb78	-0.38033652
176	0xbf8e6650	-1.1124973
177	0x3f4bd25f	0.79617876
178	0x3ddb90ec	0.10721001
179	0xbe7f4fa4	-0.24932724
180	0xbc70843a	-0.014679963
181	0xbf46702c	-0.7751491
182	0x3e04fc0a	0.1298677
183	0x3ed7c0a3	0.42139158
184	0x3d17e271	0.037081186
185	0xbead8960	-0.3389387
186	0x3e88b9d9	0.2670429
187	0x3c9fb030	0.019493192
188	0x3c73f253	0.014889318
189	0xbf6b569e	-0.9192904
190	0xbf041267	-0.5159058
191	0x3ed0fbc1	0.40817073
192	0xbe4d71f3	-0.20063
193	0xbd41d3de	-0.047321193
194	0xbd2bd844	-0.041954294
195	0xbda1a5ea	-0.07892974
196	0x3c44ec92	0.012019293
197	0x3eb00bfc	0.34384143
198	0x3e4006a4	0.18752533
199	0xbddb366f	-0.10703742
200	0x3e1b09ac	0.15140408
201	0x3e6e6603	0.23281102
202	0x3d9dee0b	0.07711419
203	0x3e2a8951	0.16653945
204	0xbe10626a	-0.14100042
205	0xbe173045	-0.14764507
206	0x3cdf3ba7	0.027250124
207	0x3e088a54	0.13334018
208	0xbe30b105	-0.17255028
209	0xbe323ad2	-0.1740525
210	0xbe48a001	-0.19592287
211	0x3e4433d5	0.19160397
212	0xbdbf35dd	-0.093364455
213	0xbda19716	-0.078901455
214	0x3dd1224d	0.102116205
215	0xbf230234	-0.63675237
216	0xbe857c6c	-0.2607149
217	0x3e496000	0.19665527
218	0xbe38c5c5	-0.18044193
219	0xb9fc2f60	-0.00048100483
220	0x3c328558	0.010896049
221	0x3d02d951	0.03194553
222	0xbe6802d8	-0.22657335
223	0xbe1ba0fc	-0.1519813
224	0x3d12f0ce	0.03587418
225	0x3e18f458	0.1493696
226	0xbc32ad57	-0.010905585
227	0xbe1ef073	-0.15521412
228	0xbd595548	-0.053059846
229	0xbc49d8ea	-0.012319783
230	0x3d9c5b8b	0.07634648
231	0x3da86f05	0.082243
232	0xbe218049	-0.15771593
233	0xbdcd772f	-0.10032498
234	0x3e790797	0.24319302
235	0xbd7c83b7	-0.06164905
236	0x3e284e37	0.16436087
237	0xbd827cae	-0.06371437
238	0x3bb2ef79	0.0054606763
239	0x3e1968a0	0.14981318
240	0x3eb5310c	0.35388982
241	0xbdc86506	-0.09784894
242	0x3fb130bf	1.3843001
243	0x3eef2964	0.46711266
244	0x3ddd9b10	0.108205914
245	0xbe29f0b1	-0.16595723
246	0xc0153c11	-2.3317912
247	0xbfe77a44	-1.8084188
248	0xbffc3f93	-1.9706901
249	0x3f9753f1	1.1822492
250	0xbef5f9ff	-0.48042294
251	0x403e3385	2.9718945
252	0x3e76008f	0.2402365
253	0xbc43691c	-0.0119269155
254	0x3e91c163	0.28467855
255	0x3f979e59	1.1845199

lstm.bias_ih_l0 f4 [192]
0	0x3d38232c	0.044955418
1	0x3e5152a9	0.20441689
2	0x3e1ce265	0.15320738
3	0x3da2f89c	0.07957575
4	0x3e006d46	0.12541685
5	0x3e1283a6	0.14308032
6	0xbea444de	-0.32083791
7	0x3ecea27a	0.40358335
8	0xbe3dee01	-0.18547823
9	0x3e66366e	0.22481701
10	0x3e212fec	0.15740937
11	0x3ee8b70e	0.4545216
12	0x3a9fd8c1	0.0012195335
13	0x3d74f87e	0.059807293
14	0x3e4b157f	0.19832419
15	0x3e37e026	0.179566
16	0x3e76a3c3	0.24085908
17	0x3d8bf1af	0.06833207
18	0x3e20ce8e	0.15703794
19	0x3e6d8a92	0.23197392
20	0xbeed0964	-0.46296227
21	0x3ea077a0	0.31341267
22	0x3e5b1caa	0.21397653
23	0x3e745843	0.23861794
24	0x3d8ddb84	0.06926635
25	0x3d83e4d9	0.064401336
26	0x3e91164a	0.28337318
27	0xbc60cb0c	-0.013720285
28	0xbda20a56	-0.07912128
29	0x3db4fc65	0.08837203
30	0x3bd50d8a	0.006501858
31	0x3e865438	0.2623613
32	0x3e142a4f	0.14469264
33	0x3e5b8a5e	0.21439502
34	0x3f0f77fb	0.5604245
35	0x3d6c43e2	0.057681926
36	0x3e381516	0.17976794
37	0xbd1b93a6	-0.037982605
38	0x3cb8aa96	0.02254228
39	0x3e4fb5c1	0.20284177
40	0xbdb83d2f	-0.08996045
41	0x3e8a3fd8	0.27001834
42	0x3df49745	0.11942915
43	0xbd425a65	-0.04744949
44	0x3c4832f8	0.012219183
45	0x3d3f8bb3	0.046764087
46	0x3e112829	0.14175476
47	0xbd417bb1	-0.047237102
48	0x3e8e5cd4	0.27805197
49	0x3eda6ac9	0.42659596
50	0x3e8f5848	0.2799704
51	0x3e54c1bd	0.2077703
52	0x3cedaaf2	0.029012177
53	0xbe0128da	-0.1261324
54	0xbe54bbee	-0.20774814
55	0xbd230013	-0.039794993
56	0x3cc5bd81	0.024138214
57	0x3d16aa85	0.036783714
58	0x3d3a1734	0.045432284
59	0x3d578512	0.05261714
60	0x3e03225a	0.12806073
61	0x3d83fb24	0.06444386
62	0x3e8b5bb3	0.27218398
63	0x3df20643	0.118176006
64	0x3e9be9a5	0.30451694
65	0x3e725556	0.23665366
66	0x3d483782	0.04888106
67	0x3e78e3dc	0.24305671
68	0xbd0eec80	-0.034893513
69	0xbcc477d4	-0.02398292
70	0x3e748b17	0.23881184
71	0xbf228b6b	-0.63493985
72	0x3e5259cb	0.20542066
73	0xbdb9551a	-0.09049435
74	0x3e8d6f2b	0.27623877
75	0xbd76f986	-0.060296558
76	0xbe35622f	-0.17713235
77	0x3e83a693	0.25713024
78	0xbe7932bd	-0.24335761
79	0x3d38cc79	0.045116875
80	0x3d3d5f7e	0.046233647
81	0x3de426b3	0.11140194
82	0x3e8cea53	0.27522525
83	0xbddcbddf	-0.107784025
84	0x3e5ef881	0.21774484
85	0x3e0c4ec9	0.13701929
86	0x3e917f07	0.28417227
87	0x3c596825	0.013269459
88	0x3e36189e	0.17782828
89	0x3e8083b9	0.25100496
90	0x3d0301f2	0.031984277
91	0x3bea2a2d	0.007146141
92	0x3e010e70	0.12603164
93	0xbe97b546	-0.29630488
94	0x3e3dbcb6	0.18529019
95	0x3e5176fb	0.20455544
96	0xbe990944	-0.29889882
97	0x3f054ef9	0.5207363
98	0xbe239ae4	-0.15977055
99	0xbc2749d8	-0.010210477
100	0xbe8432a4	-0.25819886
101	0x3e3134b2	0.17305258
102	0x3e13967f	0.14412878
103	0xbe8e3fc3	-0.2778302
104	0x3e8a2c75	0.26987043
105	0x3e8fb432	0.28067166
106	0x3e73ccb7	0.23808561
107	0x3de3f416	0.1113054
108	0xbd808746	-0.06275801
109	0xbe08d188	-0.1336118
110	0xbd07f820	-0.033195615
111	0x3d96bb87	0.07359987
112	0xbe6bcbb1	-0.23026921
113	0xbeb8e9e9	-0.3611596
114	0xbe673a95	-0.22580941
115	0x3e066124	0.13122994
116	0xbe255827	-0.16146909
117	0x3df4e76d	0.119582035
118	0x3e18c145	0.14917476
119	0x3d870460	0.06592631
120	0xbd9a224d	-0.075260736
121	0x3e2c7138	0.16840065
122	0xbe9570b9	-0.29187563
123	0xbe79d026	-0.24395809
124	0xbe623503	-0.22090535
125	0x3e75ee0c	0.24016589
126	0xbd1994c5	-0.037495393
127	0xbe25cd28	-0.16191542
128	0xbe5e81fe	-0.21729276
129	0x3e3101a4	0.17285782
130	0xbe962689	-0.29326275
131	0xbde1b595	-0.11020962
132	0x3c267cbf	0.010161578
133	0xbea62aac	-0.3245443
134	0x3db5f987	0.08885484
135	0x3e50c15e	0.20386264
136	0xbdb47f0e	-0.08813296
137	0xbdfc6fad	-0.12325988
138	0x3d708138	0.058716983
139	0xbcd57d2f	-0.026060669
140	0x3e1af7f1	0.15133645
141	0x3d902d54	0.07039896
142	0xbe7becf9	-0.24602117
143	0x3e9cff13	0.30663356
144	0x3e801fa8	0.25024152
145	0xbb51f091	-0.0032034258
146	0xbccf2417	-0.025285764
147	0x3e54901a	0.20758095
148	0x3eafebff	0.34359738
149	0x3de3a075	0.11114589
150	0xbe56936d	-0.20954676
151	0x3e6e077f	0.23245047
152	0x3ddc4957	0.10756176
153	0x3f2d827d	0.67777234
154	0x3e011ce3	0.12608676
155	0x3ea45ad3	0.32100543
156	0x3e9b4153	0.30323276
157	0xbe4fe601	-0.20302583
158	0x3dd00dfa	0.10158916
159	0xbe2aad4e	-0.16667673
160	0x3e90a4c8	0.28250718
161	0x3d76d6e2	0.060263522
162	0x3df1c441	0.118050106
163	0x3a8c256b	0.0010692304
164	0x3e19a401	0.15003969
165	0xbe4276bc	-0.18990606
166	0x3e605967	0.21909104
167	0x3ecc2cca	0.3987792
168	0x3d5fcd98	0.05463943
169	0xbdf1adad	-0.11800704
170	0x3d579e1a	0.05264101
171	0x3d2884ea	0.04114238
172	0x3e4f7985	0.202612
173	0x3e84620f	0.25856063
174	0xbce65750	-0.028117806
175	0x3dfccfbb	0.12344309
176	0xbefa88eb	-0.48932585
177	0xbeefd652	-0.468432
178	0x3ef857fc	0.48504627
179	0x3e21aa67	0.1578766
180	0x3e845d52	0.25852448
181	0x3ea6b93f	0.32563207
182	0x3eb129de	0.34602255
183	0x3e89df20	0.26928043
184	0x3e84443a	0.25833303
185	0x3ecec51d	0.4038476
186	0x3e9e23bd	0.3088664
187	0x3bd0f535	0.006376887
188	0x3e5d604b	0.21618764
189	0xbec76475	-0.3894383
190	0x3dc04671	0.09388436
191	0x3ca7f60b	0.020503065

lstm.bias_hh_l0 f4 [192]
0	0x3e6d7069	0.23187412
1	0x3e66e758	0.22549188
2	0x3dd4630e	0.10370456
3	0x3e0a2475	0.1349047
4	0x3d339517	0.043843355
5	0x3cab0985	0.020878563
6	0xbe8af76f	-0.27141902
7	0x3ec0a29a	0.37624055
8	0xbe0dd613	-0.13851194
9	0x3e9cf7c4	0.3065778
10	0x3d3e2947	0.046426084
11	0x3ec877f9	0.39154032
12	0x3abed3d7	0.0014558983
13	0x3dee3daf	0.11632859
14	0x3dfb3ab3	0.12267055
15	0xbcb3f216	-0.021966022
16	0x3e184771	0.14871003
17	0x3d6d5690	0.05794388
18	0x3e2ce478	0.16884029
19	0x3e20f7c6	0.15719518
20	0xbe8b1198	-0.2716186
21	0x3e66c06e	0.22534344
22	0x3ba4ea89	0.0050328416
23	0x3eda5ccd	0.42648926
24	0x3e13f012	0.14447048
25	0xbe345072	-0.17608812
26	0x3e5579ab	0.20847194
27	0x3dd7e3aa	0.1054147
28	0x3dba32b3	0.09091701
29	0x3d969aac	0.0735372
30	0x3d7ba4fe	0.061436646
31	0x3e179a4c	0.14804953
32	0x3e401918	0.18759573
33	0x3e971749	0.29509953
34	0x3ee6b176	0.45057267
35	0x3d472b9f	0.048625585
36	0x3b8f429f	0.0043719555
37	0xbd964449	-0.07337243
38	0x3e1697b2	0.14706305
39	0x3ddee957	0.1088435
40	0xbdbcc7bc	-0.09217784
41	0x3d3288b8	0.043587416
42	0x3d13102d	0.0359041
43	0x3e462405	0.19349678
44	0x3e5b9666	0.21444091
45	0x3be03c4b	0.006843125
46	0x3dcf9ce2	0.10137345
47	0xbcace7ae	-0.021106567
48	0x3e7857dd	0.24252267
49	0x3e3b206a	0.18274084
50	0x3e3498c4	0.176364
51	0x3e855720	0.26043034
52	0x3e6ec5c5	0.2331763
53	0xbdea0b53	-0.11427941
54	0xbca66f1d	-0.020316655
55	0xbdc7bff9	-0.09753413
56	0x3cf52ddb	0.029929092
57	0xbcd37cba	-0.02581631
58	0x3dd57d77	0.10424321
59	0xbd890eee	-0.06692301
60	0x3dfe61d1	0.12421001
61	0x3e3eda3e	0.1863794
62	0x3df81771	0.12113846
63	0x3e631bb4	0.22178537
64	0x3e320531	0.17384793
65	0x3e1f0457	0.15529
66	0x3da9376b	0.08262523
67	0x3c2335e4	0.009961579
68	0xbe008934	-0.12552339
69	0x3d1f1936	0.038842402
70	0x3e348d65	0.17632063
71	0xbf1581d1	-0.5840121
72	0x3ea3fe33	0.32029876
73	0xbba96a47	-0.00517014
74	0x3e18b511	0.14912821
75	0x3d058675	0.03259893
76	0xbe3fa2a6	-0.18714389
77	0x3e17fcd0	0.14842534
78	0xbe7ef127	-0.2489668
79	0x3e6c367d	0.2306766
80	0x3c716677	0.014733902
81	0x3e03eba2	0.12882856
82	0x3eae07ff	0.33990476
83	0xbe0a307e	-0.13495061
84	0x3e518d0b	0.2046396
85	0x3e86ae95	0.2630507
86	0x3e8b479a	0.27203065
87	0x3de98b76	0.11403553
88	0xbbb5b2e6	-0.005545008
89	0x3ddf25b5	0.10895864
90	0xb9ba85ac	-0.00035576278
91	0xbc8d7fe7	-0.017272903
92	0x3db3c2e3	0.08777406
93	0xbee96a56	-0.4558894
94	0x3d82c74b	0.06385668
95	0xbbec41d2	-0.007209995
96	0xbe94608a	-0.28979903
97	0x3e899bad	0.26876584
98	0xbe6d716c	-0.23187798
99	0xbd78c768	-0.060737044
100	0xbe3c2c0b	-0.18376176
101	0x3d8ecae5	0.06972293
102	0x3d80ff61	0.0629871
103	0xbef0d68c	-0.47038686
104	0x3e252f97	0.16131435
105	0x3e6b3bc7	0.22972022
106	0x3b62ef5a	0.0034627528
107	0x3ebee96d	0.37287465
108	0xbdc32c37	-0.09529918
109	0xbda13fc6	-0.07873492
110	0xbc1e103f	-0.009647428
111	0x3e8bcd17	0.2730491
112	0x3a9eb03d	0.0012106966
113	0xbe6ce70c	-0.23135012
114	0xbe6a7582	-0.22896388
115	0x3e395f8d	0.18102856
116	0xbe490a42	-0.1963282
117	0x3e682ba7	0.22672902
118	0x3e81a13f	0.25318334
119	0xbe1e7e05	-0.1547776
120	0xbe7a5488	-0.24446309
121	0x3e29b7fe	0.16574094
122	0xbe5325bc	-0.20619863
123	0xbd996c55	-0.07491366
124	0xbebab44c	-0.3646568
125	0x3e25f5cd	0.16207047
126	0xbe58262c	-0.21108311
127	0xbd7755b4	-0.060384467
128	0xbe12bd8d	-0.1433012
129	0x3e3d949d	0.18513723
130	0xbe8128d4	-0.25226462
131	0xbd15f149	-0.03660706
132	0xbe3084d9	-0.17238177
133	0xbe1ad6e2	-0.15121034
134	0x3c4f72a0	0.012661606
135	0xbcb0cf2d	-0.021583164
136	0xbd338f7d	-0.043838013
137	0xbdc00f5d	-0.0937793
138	0x3e851eae	0.2599997
139	0xbe119f37	-0.14220892
140	0x3df975e4	0.12180689
141	0xbd7affcd	-0.061279107
142	0xbda95b64	-0.082693845
143	0x3dcdd71b	0.10050794
144	0x3e43af5f	0.19109868
145	0x3dd53ff5	0.104125895
146	0x3dc16cdc	0.094445914
147	0x3c80e68f	0.015734939
148	0x3dd8044d	0.10547695
149	0x3e0b4ae0	0.13602781
150	0xbe5bebb4	-0.21476632
151	0x3ed57b68	0.41695714
152	0xbca56651	-0.02019039
153	0x3f2332a7	0.63749164
154	0x3e1f7583	0.15572171
155	0x3ef2157c	0.47282016
156	0x3e790da9	0.24321617
157	0xbe7d1e0c	-0.24718493
158	0x3e2b9d9a	0.16759339
159	0xbbf33d2a	-0.007423063
160	0x3e1347e9	0.143829
161	0x3da8733e	0.08225106
162	0xbd0d290f	-0.034462985
163	0x3db764d5	0.08954779
164	0x3e4007a9	0.18752922
165	0xbcaf9955	-0.02143542
166	0x3e834682	0.2563973
167	0x3ece60e5	0.403083
168	0x3e405f5b	0.18786375
169	0xbcc26a67	-0.023732377
170	0x3e1c4ab6	0.15262875
171	0x3d836b86	0.06416993
172	0x3ea21a86	0.3166086
173	0x3e7ed223	0.24884848
174	0x3d46ee1f	0.048566934
175	0x3d041641	0.032247785
176	0xbf01fce1	-0.5077649
177	0xbf149bcc	-0.5805023
178	0x3ef0a156	0.4699809
179	0xbd765e0e	-0.06014829
180	0x3eec5b0c	0.46163213
181	0x3e390673	0.18068866
182	0x3eb53cb6	0.3539788
183	0x3d7f8e9a	0.062391855
184	0x3e359310	0.17731881
185	0x3ec094df	0.3761358
186	0x3e875a30	0.26435995
187	0x3df39002	0.11892702
188	0x3dc75c3a	0.09734388
189	0xbf0c3ddf	-0.5478191
190	0xbdff9114	-0.12478843
191	0xbd11d870	-0.0356068

lstm.weight_ih_l0_reverse f4 [192, 48]
0	0x3e707403	0.23481755
1	0x3ea15217	0.31507942
2	0x3ec5437f	0.38528058
3	0x3e002fab	0.12518184
4	0x3d45bb27	0.048274186
5	0x3ec39530	0.3819976
6	0xbe81425a	-0.25245935
7	0xbeac7090	-0.33679628
8	0x3e9437ac	0.28948724
9	0xbe2771ae	-0.16351959
10	0xbdd25f8b	-0.102721296
11	0xbe3e5b82	-0.18589595
12	0x3e83bab3	0.25728378
13	0xbf29844f	-0.6621751
14	0x3e1c6324	0.15272194
15	0xbe864f7f	-0.26232526
16	0xbe8c50df	-0.2740545
17	0xbe59a9e4	-0.21256214
18	0x3ef983d0	0.48733377
19	0xbe01bf40	-0.12670612
20	0xbeb3006f	-0.34961268
21	0xbe916e8d	-0.28404656
22	0xbcd9324d	-0.026513243
23	0x3e18ba21	0.14914753
24	0x3f01b581	0.5066758
25	0xbec621a2	-0.38697535
26	0x3d993617	0.0748102
27	0x3e9b1606	0.3029024
28	0x3e84cb63	0.25936422
29	0xbe1b9172	-0.15192202
30	0xbe674244	-0.22583872
31	0x3ea2b346	0.317774
32	0xbe68c818	-0.2273258
33	0x3e5c5c96	0.21519694
34	0x3f1187c9	0.56847817
35	0x3e1b0f30	0.15142512
36	0xbe2ac3fa	-0.16676322
37	0x3e9ba8d5	0.30402246
38	0x3d6246e1	0.055243377
39	0x3e40d757	0.18832146
40	0x3cb6f94f	0.022335676
41	0x3e5fff6c	0.2187478
42	0x3d562a2b	0.05228631
43	0x3e47a27c	0.19495577
44	0xbdb7b6e9	-0.08970434
45	0xbde70260	-0.1127975
46	0xbe85cc67	-0.2613251
47	0x3e84b9a4	0.25922883
48	0x3d0a0195	0.033692915
49	0xbea13caf	-0.3149161
50	0xbedeca14	-0.43513548
51	0x3d76a00b	0.060211223
52	0xbd231203	-0.0398121
53	0x3ddaba51	0.10680068
54	0xbe543a61	-0.20725395
55	0xbe48e45b	-0.1961836
56	0xbd090774	-0.033454373
57	0x3ce115d0	0.027476221
58	0xbe72ae38	-0.23699272
59	0xbe3aa3fe	-0.1822662
60	0x3eca412a	0.3950284
61	0x3cc622bd	0.024186486
62	0xbed3929e	-0.41322798
63	0xbe71cfcd	-0.23614426
64	0x3e376919	0.17911185
65	0xbdb5f3f0	-0.08884418
66	0xbd943286	-0.07236199
67	0xbc34878b	-0.011018644
68	0xbe7c6e2e	-0.24651405
69	0x3d9980b5	0.07495252
70	0xbd9c197c	-0.07622048
71	0x3e52ddd9	0.2059244
72	0x3d55a3e9	0.05215827
73	0xbdd05948	-0.10173279
74	0x3df017c2	0.117232814
75	0xbd54052c	-0.051762745
76	0x3c3141fd	0.0108189555
77	0xbeaade9e	-0.33372968
78	0xbd9e6d75	-0.07735721
79	0x3d1cc6e4	0.038275614
80	0xbca8221c	-0.020524077
81	0xbcfe3efa	-0.031035889
82	0x3e26b7ee	0.16281101
83	0x3cca11ae	0.024666633
84	0xbe4fd35f	-0.20295475
85	0x3cf89aee	0.030347314
86	0xbea11b90	-0.3146634
87	0x3e07f744	0.13277918
88	0xbd4e48d1	-0.050362412
89	0xbe05785d	-0.13034196
90	0xbd42a4c2	-0.047520407
91	0x3dae6e44	0.08517125
92	0xbe5e6c23	-0.21720938
93	0x3dbd7b4a	0.09252031
94	0x3e94fcb5	0.2909905
95	0x3e72da3e	0.23716065
96	0xbef793b1	-0.48354867
97	0x3df9f8fd	0.12205694
98	0x3ef231a5	0.473035
99	0xbe9a0581	-0.30082324
100	0x3de75da3	0.11297157
101	0x3d0f6f7e	0.035018437
102	0xbf4f5ec3	-0.8100397
103	0x3f801da1	1.0009042
104	0xbf268231	-0.65042406
105	0x3d80ed42	0.06295253
106	0x3e858056	0.26074475
107	0x3e696dca	0.22795787
108	0x3e53294b	0.20621221
109	0x3e8483b9	0.25881746
110	0xbf5134a6	-0.8172096
111	0x3ec72d48	0.38901734
112	0xbc18c8e8	-0.0093252435
113	0x3da43968	0.08018762
114	0xbf933948	-1.1501856
115	0x3d949017	0.072540455
116	0x3e81e46b	0.25369582
117	0x3f41af12	0.7565776
118	0xbeae9921	-0.34101203
119	0x3d6fc25d	0.05853497
120	0xbf08734f	-0.53300947
121	0xbec2d2dc	-0.38051498
122	0x3eacdba1	0.33761314
123	0xbccb5e51	-0.024825247
124	0x3ca8488f	0.020542411
125	0x3dad63e1	0.08466316
126	0xbe5f9ade	-0.21836421
127	0xbf0bd04d	-0.54614717
128	0xbe82e5d5	-0.25565973
129	0xbeca07d5	-0.394591
130	0x3de8dd21	0.11370302
131	0x3f4b4f75	0.79418117
132	0x3ecf6606	0.40507525
133	0x3d108534	0.035283282
134	0xbd237afa	-0.0399122
135	0x3f4a4817	0.7901625
136	0x3e96b62d	0.29435864
137	0xbe4aeba5	-0.19816454
138	0x3e6a8e8f	0.22905944
139	0xbd0d73e0	-0.034534335
140	0x3ea23f06	0.31688708
141	0x3d07a1a7	0.033113148
142	0x3e93fba8	0.28902936
143	0xbe7f5e30	-0.24938273
144	0x3efa6bd9	0.48910406
145	0xbc8cdaf4	-0.017194249
146	0x3d02363e	0.03179001
147	0xbf155e17	-0.58346695
148	0xbd878fff	-0.06619262
149	0xbe40aab3	-0.18815117
150	0xbf11fbe7	-0.57025
151	0x3d4a2ae9	0.04935733
152	0x3e443686	0.19161424
153	0xbf661164	-0.89870286
154	0xbef429b5	-0.4768807
155	0x3e88e6bb	0.26738533
156	0x3f83f1e3	1.0308193
157	0xbdd7502b	-0.10513338
158	0x3e1d8067	0.15381013
159	0x3e8a493f	0.27009007
160	0xbe3c6f50	-0.18401837
161	0xbe51b649	-0.20479693
162	0xbe4a832e	-0.19776604
163	0x3e3b75ed	0.18306704
164	0xbcc5b062	-0.024131957
165	0x3dd54127	0.104128174
166	0x394595b4	0.00018843153
167	0xbf0ec360	-0.5576687
168	0x3dd8603e	0.10565232
169	0x3c167353	0.009182769
170	0xbe6398a0	-0.2222619
171	0x3d7aa16e	0.061189108
172	0x3e22a256	0.15882239
173	0x3ed70ee8	0.4200356
174	0xbe1bb0f4	-0.15204221
175	0xbe53d139	-0.20685281
176	0xbea37637	-0.31926128
177	0x3eaadf0b	0.33373293
178	0xbbfb31f5	-0.0076658675
179	0x3eb6ea1c	0.35725486
180	0x3e9fea5f	0.31233498
181	0xbdaf9b5b	-0.085745536
182	0x3dd31ffc	0.10308835
183	0x3e89e324	0.26931107
184	0x3ed04a88	0.40681863
185	0xbe8604b5	-0.26175466
186	0xbe0c728b	-0.1371557
187	0x3e36d2e2	0.17853883
188	0x3f03ea3d	0.51529294
189	0x3e2edb71	0.17075898
190	0xbe79bcc2	-0.24388412
191	0xbef6ac24	-0.48178208
192	0x3e73d997	0.23813473
193	0xbedece11	-0.4351659
194	0xbe189126	-0.1489912
195	0xbe22a2c3	-0.15882401
196	0x3dba7ab2	0.091054335
197	0xbc669742	-0.014074149
198	0xbfd347ae	-1.650625
199	0xbe222b58	-0.15836847
200	0x3e07c40c	0.1325838
201	0xbd4ffeae	-0.05077999
202	0x3ef4f2a8	0.47841382
203	0xbd9176e9	-0.071027584
204	0x3f0f71f6	0.56033266
205	0xbf1839df	-0.59463304
206	0xbf394654	-0.7237294
207	0x3f17da04	0.5931704
208	0x3bc21023	0.005922334
209	0x3eb959a2	0.36201197
210	0x3c8bb0af	0.017052023
211	0x3e3f6ac1	0.18693067
212	0x3ce15c9f	0.027509985
213	0x3e07e7f9	0.13272084
214	0xba38e9a9	-0.0007053861
215	0x3f2c5fce	0.67333686
216	0xbe83f188	-0.2577021
217	0x3e410d94	0.18852836
218	0x3dcc8718	0.099867046
219	0xbea0b563	-0.31388387
220	0xbd98cac1	-0.07460547
221	0xbd5998f4	-0.053124383
222	0xbe832732	-0.2561584
223	0x3e418b5c	0.18900818
224	0xbf93dcba	-1.1551735
225	0x3e393101	0.180851
226	0x3ec85f97	0.3913543
227	0x3da3d1c1	0.07998992
228	0xbf03e4ab	-0.51520795
229	0x3f5de465	0.8667663
230	0xbeaab734	-0.33342898
231	0xbea604ba	-0.3242548
232	0xbead8146	-0.3388769
233	0xbf58c73e	-0.8467902
234	0xbdf4b5bd	-0.11948726
235	0x3ef32ca3	0.47494993
236	0xbeb45fd4	-0.3522936
237	0xbe7bb8a1	-0.24582149
238	0x3f1a93e1	0.60381895
239	0x3dbb4f48	0.09145981
240	0x3c9bd07b	0.01902031
241	0x3ed91dae	0.42405456
242	0x3ed882e9	0.42287377
243	0xbe43bef6	-0.19115815
244	0xbe12ebd1	-0.1434777
245	0xbce5e7e0	-0.028064668
246	0xbe682b66	-0.22672805
247	0x3f3b25ca	0.73104537
248	0xbe5e7522	-0.2172437
249	0x3d809faa	0.062804535
250	0xbe842fc1	-0.25817683
251	0x3e9527e7	0.29132006
252	0xbeb29516	-0.3487937
253	0x3d7d5f83	0.061858665
254	0x3da31318	0.07962626
255	0x3ecbe09f	0.3981981

lstm.weight_hh_l0_reverse f4 [192, 48]
0	0xbe7bcfb2	-0.24590948
1	0x3de5f4a8	0.11228305
2	0x3d3972d0	0.04527551
3	0xbe19a4ef	-0.15004323
4	0xbf0b3f4b	-0.5439345
5	0x3dcd1fdd	0.10015843
6	0xbf54a4cf	-0.8306398
7	0x3ec93a95	0.39302507
8	0xbee929b6	-0.45539635
9	0x3ed9a8ce	0.425116
10	0xbdd005c8	-0.10157353
11	0x3e4397b9	0.19100846
12	0x3b3b26fc	0.0028557172
13	0xbe02958c	-0.1275236
14	0x3d1e1b38	0.038600177
15	0x3eb75bc7	0.35812208
16	0x3ef1f6ac	0.47258508
17	0xbe028699	-0.12746657
18	0x3e732c4b	0.23747365
19	0xbf2138a4	-0.6297705
20	0xbd2c1d86	-0.042020343
21	0x3dc73eda	0.09728785
22	0xba2d75e4	-0.00066169933
23	0xbe9206b0	-0.28520727
24	0xbcc7213b	-0.024307838
25	0xbef904f1	-0.48636582
26	0x3e144248	0.1447841
27	0xbe70c46f	-0.23512433
28	0x3ea52ca2	0.32260615
29	0x3ed25445	0.41079918
30	0xbe592168	-0.2120415
31	0x3bbf555d	0.0058390335
32	0x3fc5cc6e	1.5453012
33	0x3e95ddd7	0.29270813
34	0xbc7411ea	-0.014896849
35	0xbef6928a	-0.48158675
36	0x3da0ea51	0.07857192
37	0xbe5535d3	-0.20821314
38	0x3e839438	0.2569902
39	0xbf865ed2	-1.0497687
40	0x3daa2923	0.083086275
41	0xbe9d85cf	-0.3076615
42	0x3e55065a	0.20803204
43	0x3f4c82b3	0.7988693
44	0x3e75a43f	0.23988436
45	0x3d60aa52	0.05484993
46	0xbe189683	-0.14901166
47	0xbe8944e6	-0.26810378
48	0x3ecedc0f	0.40402266
49	0xbd8013a0	-0.06253743
50	0xbe8619f5	-0.2619168
51	0x3e8cba78	0.27486014
52	0xbebd7511	-0.37003377
53	0xbe922be9	-0.28549126
54	0xbef41ff7	-0.47680637
55	0xbf08719a	-0.5329834
56	0x3df2a8f0	0.118486285
57	0x3db9344e	0.090431795
58	0x3de23f95	0.110472836
59	0xbeb43190	-0.35194063
60	0xbd7bc2fc	-0.06146525
61	0x3e387fde	0.18017527
62	0xbebf7a82	-0.37398154
63	0x3e6e1b49	0.23252596
64	0x3dc03655	0.09385363
65	0xbe2396ac	-0.15975446
66	0xbebd3f0d	-0.36962166
67	0xbf2f767e	-0.6854018
68	0xbf445963	-0.76698893
69	0xbea25e7c	-0.3171271
70	0x3e6d7cbc	0.23192114
71	0xbef59764	-0.47967064
72	0xbeb99444	-0.3624593
73	0xbf720f49	-0.94554573
74	0xbe818bac	-0.25301874
75	0x3e19f09c	0.15033191
76	0xbe1f4852	-0.15554932
77	0x3d0c4c8c	0.03425269
78	0xbcf44136	-0.029816251
79	0x3e553d16	0.20824084
80	0x3ec55765	0.3854324
81	0xbc9352f2	-0.017983887
82	0xbea01deb	-0.31272826
83	0xbd98dbca	-0.074637964
84	0x3eef1193	0.46693096
85	0x3ec39096	0.38196248
86	0x3e2d0195	0.16895135
87	0x3f6eb4d1	0.93244654
88	0xbee39de7	-0.44456407
89	0xbc54e238	-0.012993388
90	0xbec4708e	-0.38367122
91	0xbe4be0f5	-0.19910033
92	0xbdd0cd26	-0.10195379
93	0xbfc004bc	-1.5001445
94	0xbee14bcd	-0.44003144
95	0xbe608d72	-0.21928957
96	0xbeb8d666	-0.36101073
97	0x3e4c9336	0.19978032
98	0x3e1e53a7	0.15461598
99	0x3facb8fe	1.3493955
100	0x3f8e73ac	1.112905
101	0xbebf5113	-0.37366542
102	0x3d8c4600	0.06849289
103	0x3f2dba81	0.6786271
104	0xbfc8859b	-1.5665773
105	0x3d9488be	0.07252644
106	0xbe90728d	-0.28212395
107	0x3e619d02	0.2203255
108	0xbe67be2b	-0.22631137
109	0x3eb65b6a	0.35616618
110	0x3e4d2d8e	0.20036909
111	0xbf98fa34	-1.1951356
112	0xbf3a5cbb	-0.72797745
113	0xbf173c18	-0.5907607
114	0xbf6174c6	-0.8806881
115	0xbe0807f3	-0.13284282
116	0x3fd36b96	1.6517208
117	0xbea0d816	-0.3141486
118	0xbf8beda7	-1.0931901
119	0x3f0978a1	0.5369969
120	0x3fb06d66	1.3783386
121	0x3e0ebe94	0.13939887
122	0x3de36752	0.11103691
123	0xbf41cb2d	-0.75700647
124	0x3ddc0a0e	0.10744105
125	0x3f433fbb	0.7626912
126	0xbeadfbec	-0.33981264
127	0xbf58030b	-0.84379643
128	0xbf0aa1fb	-0.5415341
129	0xbfb4f04b	-1.4135832
130	0x3e0865ee	0.13320133
131	0x3f75ee53	0.9606678
132	0xbf7a6dc5	-0.97823745
133	0xbf1f1a00	-0.6214905
134	0x3e3d463e	0.18483827
135	0x3e0aac3e	0.13542268
136	0x3e99ed0c	0.30063665
137	0xbe57f1e6	-0.2108837
138	0xbd4814b0	-0.048847854
139	0xbd0f3aa3	-0.03496803
140	0x3e3cd3c3	0.18440156
141	0x3e0154ef	0.12630056
142	0x3eb25aa4	0.34834778
143	0xbdbabae1	-0.091176756
144	0xbdaecccd	-0.085351564
145	0xbf577b05	-0.8417209
146	0xbe26a5b5	-0.1627415
147	0xbec65642	-0.38737684
148	0xbe453d2f	-0.19261621
149	0x3c96ab6d	0.018392289
150	0xbf0702ff	-0.52738947
151	0xbefd2129	-0.49439362
152	0x3e98e667	0.29863283
153	0x3e639932	0.22226408
154	0x3f22416c	0.63381076
155	0xbea8dd49	-0.32981327
156	0xbd7689df	-0.060190078
157	0x3ebe875b	0.37212643
158	0xbf4b7221	-0.7947102
159	0xbf564c76	-0.8371042
160	0xbe963ade	-0.29341787
161	0x3eb8f70f	0.3612599
162	0xbf087f1c	-0.53318954
163	0xbf20fbdb	-0.628843
164	0xbf02a1c6	-0.51028097
165	0xbf8f16d1	-1.1178838
166	0x3db95397	0.090491466
167	0x3df297a8	0.118453324
168	0xbeb929ff	-0.36164853
169	0xbefe469a	-0.4966324
170	0x3e22a46a	0.15883031
171	0x3f0e052a	0.5547663
172	0xbf5c9259	-0.8616081
173	0x3c84ef08	0.01622726
174	0x3dfb75eb	0.122783504
175	0x3f1dca5d	0.61636907
176	0x3e96176e	0.2931475
177	0xbd8594e8	-0.06522542
178	0x3d67dc5e	0.056606643
179	0x3f62202c	0.8833034
180	0xbd876bc0	-0.066123486
181	0x3f085c16	0.5326551
182	0x3fd1d931	1.6394407
183	0x3f99726f	1.1988047
184	0xbea5af7d	-0.3236045
185	0xbe1fcc9c	-0.15605396
186	0xbf099bde	-0.5375346
187	0xbec74493	-0.38919505
188	0x3e80a2fd	0.2512435
189	0xbed9ecb4	-0.42563403
190	0xbef7ccb4	-0.48398364
191	0xbe86eff3	-0.26354942
192	0x3e2e2371	0.17005707
193	0xbe948666	-0.29008788
194	0x3e40f7fb	0.18844597
195	0x3d4fa97d	0.050698746
196	0xbea60a9d	-0.32429972
197	0xbcdde20e	-0.02708533
198	0x3e250b93	0.16117696
199	0x3f1833ca	0.59454024
200	0xbe9a8645	-0.30180565
201	0x3dc8c842	0.09803821
202	0xbdfb1f2a	-0.122618034
203	0x3e5d999a	0.21640626
204	0x3eb46051	0.35229734
205	0x3e00efca	0.12591472
206	0xbec5e603	-0.38652048
207	0xbe4c5da3	-0.19957595
208	0xbe21608b	-0.15759484
209	0x3e9f4547	0.31107542
210	0xbee536fc	-0.44768512
211	0xbed7b6fd	-0.42131796
212	0xbea8dcea	-0.32981044
213	0x3d559da8	0.052152306
214	0x3f110c23	0.56659144
215	0x3dde23a9	0.108466454
216	0x3cd105ff	0.025515554
217	0xbe7dfe4f	-0.24804042
218	0xbe8989be	-0.268629
219	0x3f12ebd2	0.57391083
220	0xbdb0a892	-0.08625902
221	0x3eef919f	0.46790788
222	0x3dd6c81c	0.104873866
223	0x3d3afbe1	0.045650367
224	0x3f667199	0.90017086
225	0xbe1cf2e1	-0.15327026
226	0x3ea0e5e5	0.31425396
227	0x3ecc95eb	0.39958128
228	0x3d34b6bf	0.044119593
229	0xbcf6500c	-0.030067466
230	0xbb61ba4b	-0.0034443315
231	0xbdbd5b6a	-0.092459515
232	0xbea6caa0	-0.32576466
233	0xbea82394	-0.32839644
234	0xbf03cf19	-0.5148788
235	0xbd9b3953	-0.07579293
236	0x3d9c7ae3	0.07640626
237	0xbf5096bc	-0.8148
238	0xbec50596	-0.38480824
239	0x3e702ece	0.23455355
240	0xbf16ec85	-0.5895465
241	0x3e7d4b92	0.24735859
242	0x3ee8bb81	0.45455554
243	0x40187107	2.3818986
244	0x3f452080	0.77002716
245	0x3f1ef008	0.6208501
246	0xbf8866ec	-1.0656409
247	0x3f039dda	0.5141274
248	0xbf4df8d2	-0.80457795
249	0xbefdc1b3	-0.49561843
250	0x3e403cb5	0.18773158
251	0x3f0f50ea	0.5598284
252	0xbfa03d31	-1.2518674
253	0x3ea60ee5	0.3243324
254	0x3d7de24a	0.061983384
255	0xbf376645	-0.71640426
