captcha_model.pth (torch, 194706 bytes, 18 tensors)

cnn.0.weight f4 [12, 1, 3, 3]
00000000: 9f13 7b3e 0465 cd3c d57e a2be fcef 96bb
00000010: 9939 843f a16a 83be f7b5 3abf 743f 9f3e
00000020: 1595 9a3d 2203 b2be 5fec 9bbe 9946 9c3d
00000030: eac1 f93e 480c 233f 39fc fe3e 9f9d 1c3e
00000040: 9819 d1be 06c9 a8be 989c f93e d0f7 ecbe
00000050: 2f4f f1bc 11a7 5dbe 8066 6abe 99cf 483f
00000060: dd5a a4be 644f 003f 3a10 d3bd 73f2 71be
00000070: 7f2c 1d3f 6ed3 1ebd 03a2 e7be 7e4d f53e
00000080: 104f 83be a635 d9bd 40e1 463f fa36 f4be
00000090: e860 b83d a2f8 babe 6e55 733d 835f 4ebf
000000a0: eea3 2abe 9e45 6fbd 7105 113f 6887 243f
000000b0: ed6a f83d f53b ea3e c54e e0be 567d 803d
000000c0: 9aff 283f 7a91 bbbe afd2 99be ef81 0f3f
000000d0: affc cf3d 2480 f4be 2399 bfbe 915f 9fbe
000000e0: 1392 b33e 7587 8fbe eb00 7a3e 45d4 ea3e
000000f0: df5b 443f 924d 5a3c a31e 9b3e 0d3d 043f
00000100: 0abb bfbe d920 adbe a377 0d3f e8e1 96bf
00000110: 9047 113f f2fb 33be fb40 dabe 550a 0a3f
00000120: d316 02bf 40c9 74bd 97aa e23e 5ce4 cb3d
00000130: 7b96 11bf 4ddf ea3e 4808 133f 2e56 11be
00000140: bdf0 16bf 7fc0 f6be 9cbc 1dbe 0797 0e3f
00000150: 7400 24bf 2460 853d d530 ce3e fbfb c1be
00000160: e616 a53d 2b8d e13e 4c48 45bd 84dc adbd
00000170: 5fd6 1d3f 7f2d 4d3d 4dc7 60bf aed6 bf3e
00000180: bc21 043f 4b76 dbbe c26e c13e 88e6 303e
00000190: 501d 2a3f 4284 353f 819f 5ebe 14d2 27bf
000001a0: 9d47 68be 263f 433d 8149 35be 0e95 07be
0.24519204 0.025072582 -0.3173739 -0.004606245 1.0330077 -0.2566729 -0.72933906 0.31103098
0.075479664 -0.34768015 -0.30453774 0.07630653 0.48780757 0.63690615 0.49801806 0.15294503
-0.4083984 -0.3296587 0.48752284 -0.46282816 -0.029456703 -0.21645762 -0.22890663 0.7844177
-0.32100573 0.5012114 -0.10305829 -0.23627643 0.6139602 -0.038775854 -0.45240793 0.47910684
-0.25646257 -0.10605936 0.77687454 -0.47698194 0.090028584 -0.36517817 0.059407644 -0.8061449
-0.16664097 -0.058416 0.5664893 0.64269114 0.121297695 0.4574887 -0.43810096 0.06273906
0.6601502 -0.36634427 -0.3004355 0.5605764 0.101556174 -0.47754014 -0.37421522 -0.311276
0.35072383 -0.28033033 0.24414413 0.45865074 0.76702684 0.013324158 0.3029681 0.51655656
-0.37447387 -0.33814123 0.55260676 -1.1787691 0.5674982 -0.17576578 -0.426277 0.53922015
-0.50816077 -0.05976224 0.44270775 0.099556655 -0.5687024 0.4587349 0.5743451 -0.14193031
-0.5896109 -0.48193738 -0.1540398 0.556992 -0.6406319 0.06512478 0.4027163 -0.37887558
0.08061008 0.44053015 -0.04816465 -0.08489326 0.6165523 0.050092217 -0.8780411 0.37468475
0.51613975 -0.42863688 0.37779814 0.1727544 0.6645098 0.70904934 -0.21740533 -0.6555493
-0.22683568 0.047667645 -0.17703821 -0.13240454

cnn.0.bias f4 [12]
00000000: 4632 283f 7961 22bf 466a 043d 0a0d 9abf
00000010: 179d 09bf 0817 5dbf 3ef0 533f 6442 86bc
00000020: da35 553e 0c82 943f 22e8 443f 3271 18be
0.6570171 -0.6342998 0.032327913 -1.2035229 -0.53755325 -0.8636327 0.82788455 -0.01638908
0.20821324 1.1602187 0.76916707 -0.1488693

cnn.1.weight f4 [12]
00000000: e245 bf3e b187 973e 413e 673e d412 953e
00000010: a79b e83e d429 c53e e5ae 3a3e b5f2 583e
00000020: 5f1d 613e a46e b83e 8f38 c03e d20f dd3e
0.37358004 0.29595712 0.22582342 0.29115927 0.45431253 0.38508475 0.1823078 0.21186335
0.2198386 0.36021912 0.3754315 0.43176132

cnn.1.bias f4 [12]
00000000: a325 23be 8a2d c4bd f571 05be a3c7 09be
00000010: a1bb 89be a6f5 39be 3d18 ccbd d0ad 0dbe
00000020: 93c3 f4bd 399a 31be 670f 83be ebc7 75be
-0.15932326 -0.095789984 -0.13031752 -0.13455062 -0.26900962 -0.18160114 -0.099655606 -0.13835835
-0.11951365 -0.17343988 -0.2559769 -0.24002044

cnn.1.running_mean f4 [12]
00000000: 817f 793f 2ee5 89be 7da7 983e 2168 78bf
00000010: 7948 01bf 3e68 28bf 6e10 d83f 2696 96be
00000020: 56da babc 800d 883f 947d 8d3f a74c 8abd
0.9746018 -0.26932663 0.29815283 -0.9703389 -0.5050121 -0.6578406 1.6880014 -0.2941143
-0.022809189 1.062912 1.1053948 -0.067529015

cnn.1.running_var f4 [12]
00000000: 20a3 753d e934 973d f129 0b3d ddeb 7e3d
00000010: ead8 ef3d 7508 0b3e 517f 263e ffaf b53d
00000020: 3df7 193d 5f2b 393e 1aba 963d 459b 163e
0.05997002 0.07383139 0.033975545 0.062236656 0.11711295 0.13577445 0.16259505 0.08871459
0.0375893 0.18082951 0.07359715 0.14707668

reshape.weight f4 [48, 144]
00000000: d84a 4fbe d737 64be d3f0 6ebe 73c5 b3be
00000010: e0e0 00be 6001 3abd 3acb a4bc ecc4 c7bd
00000020: defe bebd d4d7 bdba 322c 18be 9ed6 afbe
00000030: b730 6dbd e541 0c3f 2d04 e73e 7a28 0b3f
00000040: f438 c23e a7c1 863e 287a bf3e bd38 ad3e
00000050: eb4a 0b3f 3100 f63e f1a5 1f3f 040b e83e
00000060: c09b 08be c4cb 0dbd a1b0 293e 2876 97bc
00000070: 9893 aa3b e91f 323e 6e02 333d 6441 9d3e
00000080: 296e 98bd dd1a e0bd 0cbc 84bd 4f31 aabe
00000090: 372f 8cbd 4514 253b e43b 9ebe b7c8 003e
000000a0: 6620 393e f157 363e a74b 8f3e 8030 d53d
000000b0: 60fe d6bd 4879 e9bd c6a2 f7be d147 56bf
000000c0: 9d40 a13e 24ae e93e 8d3c 9e3e 5e7b 8d3e
000000d0: b66c 353e edba 133e 5a7b f73d d663 1c3e
000000e0: bbac 813e d643 a13e 218f 083f ad66 5a3f
000000f0: 5f44 67bd 2e2d 64be 8d7c 4bbd 6e41 bfbc
00000100: d0a5 5bbe 7c01 d3be 1fc2 32be 3088 a8be
00000110: 50db b33d 92f0 9ebe fdd9 45be 265e 1cbf
00000120: 7238 0cbe fafb 973e eba5 403e e4fc 523e
00000130: 5ab4 d03d 2ed2 fdbc 91e7 59bd dff6 d4bd
00000140: dfeb 45be 4e73 b7bc 2477 c0bd 0752 b0bd
00000150: c35c 9cbd 6fa2 3abc 93b2 523e c6e1 da3d
00000160: cb2a e33c c8d3 a03a 28a0 9abd fba0 dfbd
00000170: 81c5 7b3c d4e2 af3a c894 d9bd aad3 63bd
00000180: d389 0ebd 2105 573d 199f df3d 3fe1 b13b
00000190: 37ba 0dbc 6004 603d c3f2 f7bd 8a65 81bd
000001a0: b520 97bc 7285 5bba 8706 8d3c 525d 2c3e
000001b0: 5210 87be a770 8e3c 15ef 21be 3967 0abe
000001c0: 3265 fd3d cf6f a13d 94c0 8cbc 89ed c4bc
000001d0: f443 3fbe 317e 74be 7668 32bf c698 1fbf
000001e0: a5d4 bdbd 1a03 45be ab20 87be 9e1f 27be
000001f0: e2ff 56bc d568 a83d 2a9e 14be f5c8 57be
00000200: f505 91be 15b8 c1bd 9581 41be 4e47 0fbf
00000210: acaf 473e 6e54 5a3e 7f36 353e 0d66 153e
00000220: 8f5c 483e 76eb 893d a0f8 b0bc 03cf 843e
00000230: 6fa2 113f 349f ba3e 8f8e 303f 27b2 3b3f
00000240: 6e7c b6bd 2e6c d8be 3fd1 cdbe e77b 70be
00000250: f7a0 19be 3edd 09be 820e 41be 5190 6abe
00000260: 5730 2fbe 00c7 64bd da02 a3bd 9277 4d3e
00000270: 28de 183e 11b7 483f 6d1e 7d3f 5299 8f3e
00000280: fd13 3a3e d183 32be 4fb9 6cbe 5266 9abe
00000290: 5088 8dbe e9b1 c6bd 9e53 653e e584 af3e
000002a0: b3ca 053e 37e1 eb3e 14bf d23e d993 d73d
000002b0: 82ea 023e 4717 163e 15f4 f63a 49f9 5d3e
000002c0: d035 1d3e 5729 843d 17b1 363d a233 6e3e
000002d0: 8bcd d53d a925 a13e 9651 23be aa1d 5bbe
000002e0: d379 5b3e 73e9 84bd b9e7 80bb 697a 0ebb
000002f0: 7d78 073d f1ec b8bd 482f 0dbe 9a8f afbd
00000300: 54a0 333e 57b9 b23e 100e 053f 212d 5c3e
00000310: 8d54 36bd ef47 9b3c cb7e 12be 01ee d2bd
00000320: f1dc abbd bdd3 b1bc d862 803d 8932 073e
00000330: ded4 e23b 71b0 48bd db8c 88be 7a0e eabe
00000340: 7fcc eabe 5380 16bd bafc 613d bd02 cb3c
00000350: fd5b 9e3e 80e0 ad3e 512d 8b3e 2e3e 973e
00000360: 2bb0 093e c450 cd3e 0b04 f33e f1bb 253e
00000370: 9ee1 7a3e 8336 b83d a93d 833e 92e3 c2be
00000380: 50f4 fe3c b9b5 73bd 058b 39bd 8b9e 12bd
00000390: fd50 9d3d d879 8c3e f574 593e 0c04 e83d
000003a0: 38dc a83c 1679 01be 2550 4fbc 784b 303d
000003b0: a536 c23c 2b1a 9fbd 304a 053d c35e 0b3e
000003c0: 0dd9 2c3c a7a6 c1be 3e7b bebe b44c acbd
000003d0: 0acf 98bb 7fac bfbd 742f 10be 1a04 8fbc
000003e0: fe82 c3bc 4edd c5bd 55b8 e43d 0d23 253e
000003f0: 4921 2b3e c68c 52bd 69b2 7bbd c660 1dbe
-0.20243394 -0.22286926 -0.23334055 -0.3511158 -0.12585783 -0.045411468 -0.020116437 -0.09754357
-0.09325956 -0.0014483877 -0.14860609 -0.34343427 -0.057907786 0.5478805 0.45120373 0.5435864
0.37934077 0.2631962 0.37397885 0.3383235 0.5441119 0.4804702 0.6236258 0.45320904
-0.13340664 -0.034618154 0.16571285 -0.018488958 0.005205583 0.17394985 0.04370349 0.30713952
-0.074428864 -0.10942624 -0.064811796 -0.33240744 -0.06844943 0.0025189084 -0.30905068 0.12576567
0.18078765 0.17806984 0.27987406 0.10409641 -0.10497737 -0.11400086 -0.48366374 -0.83703333
0.3149461 0.4564067 0.30905572 0.27633184 0.17717251 0.14426775 0.12084074 0.1527246
0.25327095 0.31497067 0.533434 0.8531292 -0.056461688 -0.2228286 -0.049679328 -0.023346629
-0.21449971 -0.4121207 -0.17456864 -0.32916403 0.08782065 -0.31042916 -0.19321437 -0.6108116
-0.13693407 0.2968443 0.18813293 0.20604283 0.10190649 -0.03098401 -0.053199355 -0.103986494
-0.19328259 -0.022393849 -0.09397724 -0.086093955 -0.076348804 -0.011391266 0.20575933 0.10687594
0.027730366 0.0012270147 -0.07550079 -0.109193765 0.015366913 0.001341904 -0.10624081 -0.05562178
-0.03479941 0.052495126 0.10919017 0.0054284628 -0.008650354 0.054691672 -0.1210685 -0.06318195
-0.018448213 -0.0008374072 0.017215027 0.16832474 -0.2637964 0.017387701 -0.15813859 -0.13515939
0.12372817 0.07882654 -0.017181672 -0.024039047 -0.18678266 -0.23876263 -0.69690645 -0.6234249
-0.09269074 -0.19239464 -0.2639211 -0.16320655 -0.013122531 0.0822312 -0.1451346 -0.21072753
-0.28324857 -0.09458939 -0.18897088 -0.5596818 0.19500607 0.2132127 0.1769657 0.1458971
0.19566558 0.06734364 -0.021602929 0.25939187 0.5688848 0.36449587 0.6896753 0.73318714
-0.08910452 -0.42270035 -0.40198705 -0.23484765 -0.1500281 -0.13463303 -0.1885319 -0.22906615
-0.17108284 -0.055853844 -0.07959528 0.20065144 0.14928496 0.7840434 0.9887455 0.28046662
0.18171687 -0.17433096 -0.23117565 -0.3015619 -0.2764306 -0.097019024 0.22395179 0.34281078
0.13065605 0.46070263 0.41161406 0.105262466 0.1278477 0.14657317 0.0018841053 0.21677126
0.15352559 0.064531974 0.04460248 0.23261884 0.10439595 0.31474045 -0.15949091 -0.21398035
0.21433191 -0.064898394 -0.0039338735 -0.0021740443 0.03307389 -0.09029568 -0.13787568 -0.08572312
0.17541629 0.34907028 0.5197458 0.2150159 -0.044514228 0.018955199 -0.1430618 -0.10299302
-0.083917506 -0.02170741 0.06268853 0.13202871 0.0069223484 -0.048996393 -0.26669964 -0.4571417
-0.45859143 -0.036743473 0.05517266 0.02478158 0.30929556 0.33960342 0.2718301 0.29539627
0.13446109 0.40100682 0.47464022 0.16184975 0.24500129 0.08994772 0.2563298 -0.38064247
0.031122357 -0.059499476 -0.045298595 -0.03579573 0.07681463 0.2743671 0.21236022 0.11328897
0.020612821 -0.12643847 -0.012653385 0.043040723 0.023707697 -0.07768663 0.032541454 0.13610367
0.010549796 -0.37822458 -0.372034 -0.084130675 -0.004663353 -0.09359073 -0.14080602 -0.01745801
-0.023866173 -0.09661351 0.11167971 0.16126652 0.16711916 -0.051403783 -0.061449442 -0.15368947

reshape.bias f4 [48]
00000000: a72a 483d 5e4c a53d 8c26 82be 771a b13e
00000010: d6d5 06be c626 af3e 8889 8dbd 6a0b 2b3e
00000020: 633c 0ebd d848 c43d 7fab 803e 59d4 4bbe
00000030: 82b5 e23e 9022 b1bc 18a8 b8bd b01d 813e
00000040: 6c7e 113e 7e4e 56be cba2 11be 1ebd f03e
00000050: 4876 833d 1ec6 df3d bc79 0e3e dc38 c9bd
00000060: 6a9e a33e 01f0 8f3d 6d30 863e e27e bfbe
00000070: 5b97 9ebe 173b ff3e 8e68 563e 1106 7b3e
00000080: dd00 3a3e 67bf 583d e6a8 e63c 5694 013e
00000090: 1334 afbd 4ada 97be d83b 40be d09f 0c39
000000a0: f5aa 023e 545a 5cbe 044c 3f3d 59bd 2bbe
000000b0: 1d8b 36be a2b9 3dbe 4ca6 da3d 2743 6b3d
0.0488688 0.080712065 -0.25420034 0.34590504 -0.1316751 0.3420927 -0.06910998 0.16703573
-0.034725558 0.09584206 0.2513084 -0.19905223 0.44279104 -0.021622926 -0.09016436 0.25217962
0.14208382 -0.2092838 -0.14222257 0.47019285 0.06419045 0.1092646 0.13913625 -0.09825298
0.31956798 0.07028199 0.2620882 -0.3740149 -0.3097485 0.4984977 0.20938322 0.24514033
0.18164392 0.05291691 0.028156709 0.12654242 -0.08554854 -0.2965873 -0.18772829 0.00013410975
0.12760527 -0.21518832 0.046703354 -0.16771449 -0.17826505 -0.18527845 0.1067625 0.05743709

lstm.weight_ih_l0 f4 [192, 48]
00000000: de40 083f 73f0 3bbe 52e3 22bf 98ba 04bf
00000010: b9bd eb3d 1ff9 793d b8b3 013f 91dd 9f3e
00000020: b4a7 133f b6d7 09bf 2712 173f 37e1 013e
00000030: 24de 63be 444c abbd 5b22 8c3e 18f6 b73d
00000040: f2c1 6dbe c3db 503d 36ef ffbd a540 95be
00000050: 3044 70bc eada fbbe 49f2 c4bd 494e a9bc
00000060: 1043 29be e5c8 ae3e fe77 3d3e 1574 723e
00000070: 0303 b5bd 9a6b a1bc 567f 3fbd ebad e7bd
00000080: ea26 263e 227f e2be a81c 7f3e 0f71 0c3e
00000090: 0a45 2e3e 1dfe 07bf 3b41 5fbe a20d 093f
000000a0: 2295 1cbe 0bb8 a23e e0fa 043e 8a32 97be
000000b0: 7a9e e4be 4455 5bbf 1542 a73e 1fe8 283c
000000c0: f1c2 c1be 445e 46be 8632 653e da90 b13e
000000d0: 831c a3bd bc8f e6bd d9c8 1b3f 1887 d23e
000000e0: 8a51 e5bd 2abb 6cbf 1e5f bfbe 6699 d73e
000000f0: b3d5 253e 9beb 4b3e 333f 36bd bf72 2c3e
00000100: 38c4 133f cdb0 59be 2bc9 953e 6e6d 24bf
00000110: 7aad ab3e b17a 97be 94c1 a1be fcc8 0f3c
00000120: 723c e1bd 347b f73e 1d38 edbe 2aa1 4dbe
00000130: cccc 8fbe b99f 9ebe 7edf 3b3e 97ed ad3e
00000140: 9a7c 553e fef6 12bf b6e9 f43e 11c2 cd3e
00000150: 620c 8f3e 089b c63e 2f60 17bf 7408 183f
00000160: d7f6 6e3c 50c4 273e f379 b1be c190 323e
00000170: f692 dfbd f0d7 d33e a9df a3bc 2745 fabd
00000180: 473c dabd 376c 3bbe 0594 e1bd 22d6 253e
00000190: bd24 d33c 82e5 b6be 01d4 78be f010 dabe
000001a0: eb77 8b3d 9154 8d3d 3354 82bf 9b9d 40be
000001b0: 1c3a ee3e 9daa 41bd d8ff a83e 7392 83bd
000001c0: d85e 4d3e afcc 843e ecfe 7a3d 14ff eebe
000001d0: ba2d 7bbe ef59 753e 33f4 313d 7a23 debe
000001e0: cd2a 8dbe 585e 59bf 85fb a23d 3399 063f
000001f0: ea77 34be 1090 c73e f3be b93c 3323 1d3d
00000200: 0cc8 093e e86d d4bb e443 86be e38f bdbe
00000210: 95ab 233d 0221 46bd 209d 333d 1d82 28be
00000220: 2757 06be d20c 28bd ec9d bbbd 53dd c53d
00000230: 380a 783e 98fd 463e 1560 833c 58fc 1d3e
00000240: a063 3b3d cb6d 983d 372f efbc 4d0e 2e3e
00000250: b605 81bd b552 413c 54cd 7fbc 767a 913e
00000260: 88b4 50be edd6 913d 24c6 bcbc f580 6d3d
00000270: ab34 e93d d984 32be 2c48 68bd 5d9f 95bd
00000280: 13d2 133e 02dc bc3c 1489 043e 767b 013e
00000290: 5490 0c3e 0f2c 413e e679 18bd cadf adbc
000002a0: 6876 91bd 2327 273e 57c1 2dbb 527f 86be
000002b0: 3823 6a3e e748 0e3c 8b06 6f3d c348 773e
000002c0: 447f b23d 6b9f 8ebd c72a 943d fb4d 1b3e
000002d0: 9f6e 99bc ee82 403e 7e2e 8d3c 070b c13e
000002e0: eeb0 89bc 2322 cf3d cf05 023e 8320 203e
000002f0: b1ef 44be f565 3bbe 58f0 3bbe 28ab 33bc
00000300: 8748 01bc f729 e43d c918 6dbd 9c44 773c
00000310: 03d3 3bbe 0fe7 bd3d 0725 0fbe a596 c63b
00000320: f40e c13d 8e8c 7f3c 707f 5a3e 7846 023e
00000330: 2001 293e 8ed5 04be dd59 6cbd 7a7b f6bd
00000340: 1669 393e 6a85 0c3e 8193 2abd ce65 813d
00000350: 86a5 1fbd affb 9d3d cd39 063d 4941 27be
00000360: acad f83b c259 713c 8d84 093e 759b e6bc
00000370: cd68 823d f364 223e 6c55 c2bc 2d56 263e
00000380: a278 f23b 2b69 2fbe 4b1a 65bd fef6 e0bd
00000390: 65ba 283d 595d 1b3e acdc a7bd 793f f4bc
000003a0: 353e d93d 8380 d53d e205 1c3d 368a 9e3c
000003b0: 02f4 e93b d7ad 43be 657c 03be 85f1 0ebe
000003c0: 930d acbc 599a da3d b605 8a3d 76f3 3cbe
000003d0: 26b7 5bbe feb5 78bc d4cd 0dbe bcab ad3d
000003e0: 7870 2f3e f297 26bd 285c 943c 6317 e43d
000003f0: ea4a 653e 2db2 16be 9765 febb a689 8cbe
0.5322398 -0.18353443 -0.63628113 -0.5184722 0.11510796 0.061028596 0.50664854 0.3122373
0.5767777 -0.53844774 0.59012073 0.12683569 -0.22252709 -0.08364156 0.2736996 0.089824855
-0.23218516 0.05099083 -0.12496798 -0.29150882 -0.014664695 -0.49190456 -0.09616525 -0.020667212
-0.16529489 0.34137645 0.18502805 0.23677094 -0.08838465 -0.019704629 -0.046752296 -0.11312469
0.16225782 -0.4423762 0.24913275 0.13715003 0.17018524 -0.5312212 -0.21802227 0.5353643
-0.15291265 0.3178104 0.12986326 -0.29530746 -0.44652158 -0.8567698 0.32667604 0.010309248
-0.3784404 -0.19371897 0.22382554 0.34680825 -0.079644226 -0.11257884 0.60853344 0.41118693
-0.11197193 -0.9247309 -0.37377256 0.4210922 0.16194801 0.19914095 -0.044493865 0.16840647
0.5772128 -0.2125885 0.2925504 -0.64229476 0.3353079 -0.29585794 -0.31593 0.008775946
-0.10997857 0.48336184 -0.46331874 -0.2008101 -0.28085935 -0.30981234 0.18346974 0.3397033
0.20848313 -0.5740813 0.47834557 0.40187123 0.27939135 0.38790154 -0.5913114 0.593879
0.014585218 0.16383481 -0.34663352 0.17438032 -0.109167024 0.41375685 -0.02000411 -0.12220221
-0.10656028 -0.18303 -0.110145606 0.16194966 0.025774354 -0.35721976 -0.24299623 -0.42591047
0.06809982 0.069008954 -1.0181946 -0.18810122 0.4652871 -0.04728185 0.33007693 -0.06424417
0.20055711 0.2593741 0.06127827 -0.46678984 -0.24529162 0.23960088 0.043445777 -0.4338644
-0.27571717 -0.8490958 0.0795813 0.52577513 -0.17623869 0.38977098 0.02267406 0.038363647
0.13455218 -0.0064828284 -0.2622367 -0.3702384 0.039958555 -0.048371322 0.043851018 -0.16455884
-0.13119183 -0.04102785 -0.091609806 0.09661355 0.24222648 0.19432676 0.016037026 0.15428293
0.045749307 0.07442816 -0.029197318 0.16997643 -0.062999174 0.011799504 -0.015612919 0.28413743
-0.20381367 0.07121072 -0.0230437 0.05798431 0.11386999 -0.1743349 -0.056709453 -0.07305787
0.14435606 0.023054127 0.12942916 0.12644753 0.13726932 0.18864463 -0.037225626 -0.021224875
-0.07102662 0.16323523 -0.0026512945 -0.26269013 0.22864997 0.008684373 0.05835585 0.2414885
0.0871568 -0.06964 0.07234722 0.15166466 -0.018729506 0.18799946 0.017234083 0.37703726
-0.016808 0.10113933 0.12697528 0.15637402 -0.1923206 -0.18300612 -0.18353403 -0.0109661
-0.007890827 0.11140817 -0.057884965 0.015092041 -0.18342213 0.092725866 -0.13978969 0.0060604387
0.0942668 0.015597476 0.21337676 0.12722194 0.16504335 -0.1297209 -0.057702888 -0.1203527
0.18106493 0.13722768 -0.041644577 0.06318246 -0.038976215 0.077140205 0.032769967 -0.16333498
0.0075890627 0.014730873 0.1342947 -0.0281503 0.063676454 0.15858822 -0.023722373 0.16243811
0.0073996345 -0.17129962 -0.055933278 -0.1098461 0.041193385 0.15172328 -0.08196387 -0.029815422
0.10607568 0.10424902 0.038091548 0.019353013 0.0071396837 -0.19109283 -0.12840421 -0.1395932
-0.021002566 0.10673971 0.067393705 -0.18452248 -0.21456584 -0.015180109 -0.13848048 0.08480021
0.17132747 -0.04067225 0.01811035 0.11137273 0.22391859 -0.14716406 -0.0077635753 -0.27448767

lstm.weight_hh_l0 f4 [192, 48]
00000000: d930 043e d4c5 6cbf a1ab a23f d256 56be
00000010: b127 20bf 6372 4dbe a57e 43bf 6e98 16bf
00000020: ef6b 4d3f 6069 b5be aa17 78be 1c5f 4f3f
00000030: 9281 9b3f 6c3a 143f 215d bdbe e610 333f
00000040: aaa2 cdbe fe01 f03d da29 913e 8b29 3abf
00000050: 83e9 b6be d0af 7dbf 90f6 903d b5cd 5f3d
00000060: 776e 23bd 5958 2d3e e047 303f 7180 aabe
00000070: 6ad5 14be 8729 85bf ce33 d8be cdcc 5dbe
00000080: 952b 6fbf 9b4c 97bd 2e0c 29c0 d66e 883f
00000090: d06d 1f3e 160d 2abf f4e7 a9bf a350 ff3e
000000a0: 2056 6e3f 0ef8 68bf 0ec5 fbbe 39bf c93f
000000b0: 1867 86be 0c34 763c c723 d3be c9d1 70bf
000000c0: 8371 a63f e802 2dbe c27c a83f 85f5 0dbf
000000d0: da9f 17bd 741e 0ebf 457f cc3f 3729 f93e
000000e0: 647a a33f 6ae7 7ebf 2d0c 103e a51e 9f3e
000000f0: a8c8 83be ea61 1a3b 42dd ecbb d801 c3be
00000100: 257c d43f e66e 74bf 8c5a 003e d58f 91be
00000110: 6453 29bd 5b09 1a3f a0f0 38bf b2e3 c53f
00000120: e63b 723d e279 a33d c8f1 ea3d ab5f 183d
00000130: dc17 31be bb6d b9bf 4674 4ebe 4cf9 1c3e
00000140: 3921 b23e df24 5dbc 0d6d 813f ba99 b6bf
00000150: 45d5 0e40 ffed d73e 3546 d13e d672 dabe
00000160: 76a7 db3f b03e a23d 5364 f1bf 0dad 6bbe
00000170: 7e46 5cbf a18d 04bf 7918 b83e 663e eebe
00000180: 1342 813f 28a8 0abe 6a1d fc3e a1d7 67bd
00000190: bad2 a03d 887c 4fbb 655b 2bbf 52a4 2dbf
000001a0: 4b64 9bbf b9ee 343f f0ff fe3e 28f1 19be
000001b0: 3ae3 5b3e 9ffd ba3e b6d7 1dbf af33 0240
000001c0: 97ae 263f 5c8d 0ebd ae6f 863e fb69 c43e
000001d0: 4aa6 8f3e a5c4 8a3e f2b1 433f 4db8 13bf
000001e0: 4344 7a3e facb f2bd 88c1 97be 591d 9b3e
000001f0: 3c97 b33e 51b8 153f eae0 76bd 0f37 2fbf
00000200: deed 243f 48cd f43d 3d00 9bbe 7076 8abd
00000210: cf7f 8bbe f996 673f 4d35 ce3e 4d58 be3e
00000220: 344f 483d 5468 ef3f 4ac4 313d 4249 1e3d
00000230: 3a10 da3d 7c8a cdbe 8898 98bf 75a5 e7bf
00000240: 0ee6 bbbe 7a6f 9cbe 6501 973e 071f 1dbe
00000250: f284 dfbd 1e14 24be 0b8e e3bd fbaa a03d
00000260: 4916 e6bd 7500 b3be deb6 01be c822 323e
00000270: 0d81 403e b2c3 1a3d 82a9 9e3c 53ce 8f3d
00000280: b02a ed3d 034d edbe 855c d43e 75c0 eb3d
00000290: 91a0 9abe 632d 9dbc 686c 95bb e41f 153d
000002a0: 3fa9 36be 8205 90bc 15bf 333e cdbb 793e
000002b0: d035 d4bd 76b1 393d 42fe 05bd 1a39 163e
000002c0: 5536 533e 51e6 f3ba cf1e 05be af06 9cbc
000002d0: c10e 873e 66a6 29bd a5e1 85bd 5262 56be
000002e0: 5c6e e83d a34e 86bd 3db5 2d3c dbf0 513d
000002f0: c3c2 16be e714 ecbd de00 ce3e 9de8 43bd
00000300: 2c50 d3bd f016 17be a667 9c3e 8f97 05be
00000310: a41a 82be 937d 2ebe 3cdb 8ebe d3b9 63be
00000320: 3081 52be 754d 40be 3586 0bbe 52bf 283d
00000330: ded7 733e 870c 07be 21b9 363c 0bd9 fc3d
00000340: c515 213e 16bf a73c 864d b33d 32b5 2a3e
00000350: 5abd 47be b1e7 a83d f35c 4a3e 3571 90be
00000360: c8bb 6cbe c94e 14be 2ef8 533e 97c5 abbb
00000370: ef3c f9ba 5f27 0d3e 9f3a cc3e 1327 b1be
00000380: 19c1 74bc 524b 823d 1c5e 27be c70b 993e
00000390: 271e 513d 699c b8bd 0830 753e 1028 91bd
000003a0: 90d2 d0bd af27 c9bd a3c4 fc3c 336e 8c3e
000003b0: fcf0 2ebd e017 893e 6bd7 d23d 5e51 003e
000003c0: bc0e 2fbe 8995 cf3c 982a ef3e 5135 c9bd
000003d0: 3af0 80bd 84fb 8cbe 2e9a 66bc e3db ddbd
000003e0: 7726 71be 5217 f0bd 6019 12be 8c73 e93d
000003f0: 05e1 4b3d b467 29be a094 873e 25cb 51be
0.12909259 -0.9248936 1.2708627 -0.20931557 -0.62560564 -0.20063166 -0.7636512 -0.5882634
0.8024282 -0.35431957 -0.24227777 0.810045 1.2148917 0.57901645 -0.36985114 0.6994766
-0.40163165 0.1171913 0.28352243 -0.7271964 -0.3572503 -0.99096394 0.07078278 0.054639537
-0.03990027 0.16928233 0.6885967 -0.33301118 -0.14534536 -1.0403298 -0.42227024 -0.21660157
-0.93425876 -0.07387658 -2.6413684 1.0658824 0.15569234 -0.6642622 -1.3273911 0.49866208
0.93100166 -0.910035 -0.49173778 1.5761482 -0.2625053 0.015027057 -0.41238233 -0.94070107
1.3003391 -0.1689564 1.3163073 -0.5545276 -0.03701768 -0.5551522 1.597634 0.48664257
1.2771726 -0.9957186 0.14067145 0.31078067 -0.25739026 0.0023556896 -0.0072285244 -0.38087344
1.6600386 -0.9548172 0.12534541 -0.28430048 -0.041339293 0.60170525 -0.72242165 1.5460112
0.059139155 0.07982232 0.11471897 0.03720061 -0.17294258 -1.4486612 -0.20161542 0.15329474
0.34790972 -0.01349756 1.0111405 -1.4265664 2.231767 0.42173764 0.40873876 -0.42665738
1.716048 0.07922113 -1.8858742 -0.23015232 -0.8604506 -0.5177861 0.3595617 -0.4653198
1.0098289 -0.13540709 0.4924119 -0.056602124 0.07852693 -0.003165992 -0.6693633 -0.6782886
-1.2139982 0.7067676 0.4980464 -0.150334 0.21473399 0.36521623 -0.61657274 2.0344045
0.6511015 -0.03480278 0.2625708 0.38362107 0.28056556 0.27103153 0.764434 -0.57703096
0.24440102 -0.11855312 -0.2963984 0.30295828 0.3507632 0.5848437 -0.06027309 -0.6844339
0.64425457 0.11953217 -0.3027362 -0.067608714 -0.27245948 0.9046474 0.4027504 0.37176743
0.04890366 1.8703713 0.043400086 0.038644083 0.10647626 -0.40144718 -1.1921549 -1.8097368
-0.36698955 -0.305538 0.2949325 -0.15343867 -0.10914029 -0.16023299 -0.11111077 0.07845112
-0.11234719 -0.34961286 -0.12667415 0.1739608 0.18799229 0.037784286 0.019367937 0.07021775
0.115804076 -0.46347818 0.41476837 0.11511318 -0.30200627 -0.019186681 -0.004560042 0.036407366
-0.17838 -0.017580751 0.17553361 0.24388047 -0.103618264 0.045335256 -0.032713182 0.1467022
0.20626195 -0.0018608068 -0.13000034 -0.019046156 0.26378444 -0.041418456 -0.06537179 -0.20935944
0.113491744 -0.065579675 0.010602293 0.05125509 -0.14722733 -0.11527424 0.40235037 -0.04782926
-0.10318026 -0.14754844 0.30547827 -0.13046096 -0.2541095 -0.1704009 -0.27901638 -0.22238855
-0.20557094 -0.18779548 -0.13625415 0.041198082 0.23812816 -0.13188373 0.011152537 0.12346085
0.1573096 0.020476859 0.08755021 0.16670683 -0.19505826 0.08247317 0.1976202 -0.2821137
-0.23118508 -0.14483179 0.20700142 -0.0052420604 -0.0019015352 0.1378455 0.39888474 -0.34600124
-0.014938616 0.063620225 -0.16344494 0.29891798 0.051054146 -0.09014208 0.23944104 -0.070877194
-0.101964116 -0.09822022 0.030855482 0.27427825 -0.04271029 0.26776028 0.10294994 0.12531039
-0.17095464 0.025339859 0.46712184 -0.098246224 -0.062958196 -0.2753564 -0.014074845 -0.10832956
-0.2354983 -0.11723198 -0.14267492 0.11398992 0.049775142 -0.16543466 0.2648058 -0.2048765

lstm.bias_ih_l0 f4 [192]
00000000: e9cc 11be 671f 80be 2529 f23d 80ed 1c3e
00000010: f417 ec3d 5722 5b3d 252c 15bd 4898 633e
00000020: 0356 8f3d 94a4 d9bd f820 223e 59e1 293e
00000030: 4510 b03d da3d 253e 9257 1b3e 37d7 afbe
00000040: 44eb d6be c73e ab3e 0a1e a13d 0d98 483e
00000050: dfb1 193e 08b8 ae3c 9a27 f6be ad91 633e
00000060: 73f4 b23d af28 773d 4cd0 a03d afac a53d
00000070: 3044 6f3d 8021 d03e faa6 9c3d f2c2 923d
00000080: bceb 32bf 1245 3b3e 06b1 bf3d a2f4 4c3c
00000090: faa5 8bbe 0315 13bf e115 353e 9c48 853e
000000a0: 905f 40be b4fc 38be abb2 1b3e 63f4 423d
000000b0: e07b 513f 7347 b1be be30 11ba dbc8 15be
000000c0: d816 febe bb3d 68be 203e af3e c1ae 5e3e
000000d0: 52f0 193e b6e0 343e 7d86 d7bd b18c 4b3e
000000e0: 977c e03d 241e 623c 7973 a23d 1fac 483e
000000f0: 88c2 f03d f412 5d3e 3d19 343e 5ae5 2dbe
00000100: 317a 603e 4e3f 7b3e 88b2 2c3e cd2a db3d
00000110: 3150 e53d 243c 8b3d c68e 12be 14c7 003e
00000120: a875 703e 1aab 713e 366f 823c 5003 873e
00000130: 45f4 c13d cc64 013e c54b 35bc 26c1 623e
00000140: 0be4 5ebe e146 2e3e 4de6 933e ed9b 173e
00000150: 4c5e f73d b77e dcbe a201 473e 40e9 013c
00000160: 3f74 09be 4bfb 0a3e 7aee 953e 8221 1b3e
00000170: f9b4 8f3e 4b72 1d3d 5523 643e e312 093d
00000180: 7aab 0bbf 8096 f4bd 546b 793e fd86 a4bd
00000190: 8caf 70bc 478d 82bd 8307 33bb 349b e2bb
000001a0: dd63 43be 3aad 39be edbb 72be 63db 833c
000001b0: 68e3 493e e79b 13be d8cb 6f3e 1028 013d
000001c0: 1e24 b03e ccb9 47be 497b 6e3e 50be 443e
000001d0: 3d89 6bbd 1745 093e 9af4 c5bd 8da4 94bc
000001e0: 2284 fbbd f2dd 19bd b427 b43d 55f1 693e
000001f0: 8a18 b83c ac71 ab3d 8252 983d c47e dfbb
00000200: 6270 003f 6a61 663e 25e2 ec3c 0069 143e
00000210: 6543 013e 1437 6cbe eb58 623d ae32 71be
00000220: b0f9 303e 01dc bf3e 982e e7bd 941f 3d3e
00000230: a86f 1dbe 36ed 553e 4a6f 8a3e 9138 443e
00000240: 7f56 083e 1184 7f3e d500 053f 0580 4a3e
00000250: e6ce 733d e3dd b13e b6da 463d 7330 be3e
00000260: b1f6 b03d da9b 15be 661b 813e 518d f83e
00000270: c1f6 ac3e c367 9b3e b839 303e 812a 88bc
00000280: 6242 fdbe b1e1 023e eb34 c23e 00c3 943e
00000290: 89c4 e93d b36b d3be 97e8 19be d54d 513e
000002a0: e6fd 853d baa0 063e 0134 d53c 7dbd 943e
000002b0: ffc1 753e eddb d23e 02f9 003f 44fa 393f
000002c0: 4e9b afbd 3f17 aa3e 86ba 9c3e 6b30 1f3f
000002d0: cc8c e13c b192 63bb 2e41 e33e edb0 3c3e
000002e0: 9976 6dbe cd51 a3be e2d2 3a3e a00c d53d
000002f0: c77e 183f f200 073d 8a4f d03c 3b4a 6fbe
-0.14238323 -0.25023958 0.11824254 0.15324974 0.11528006 0.053499546 -0.036419053 0.2222606
0.06998827 -0.10627094 0.15832889 0.1658987 0.08596853 0.16136876 0.15170124 -0.34343883
-0.41976368 0.33446333 0.078670576 0.19589253 0.15009259 0.021327987 -0.4807709 0.2222354
0.08738031 0.060341533 0.078522295 0.080895774 0.058414638 0.40650558 0.07649036 0.07166089
-0.6989095 0.18288067 0.093599364 0.012509497 -0.27275068 -0.57453936 0.17684127 0.2603196
-0.18786454 -0.18065149 0.15204875 0.047596347 0.81829643 -0.34624824 -0.0005538574 -0.14627402
-0.49626803 -0.22679798 0.34227085 0.21746351 0.15033081 0.17663845 -0.105236985 0.19877888
0.109612636 0.013801131 0.07932181 0.19596909 0.11755854 0.21589261 0.17587753 -0.16982022
0.21921612 0.24535868 0.1686498 0.10701523 0.11196936 0.0679858 -0.14312276 0.12575942
0.23482382 0.23600426 0.01592217 0.26369715 0.09470419 0.12636107 -0.011065428 0.22143993
-0.21766679 0.17019226 0.28886643 0.14805575 0.120785326 -0.43065426 0.19434217 0.007929146
-0.1342325 0.13572423 0.29283506 0.15149501 0.2806776 0.038439076 0.22279103 0.033465277
-0.5455853 -0.11942768 0.24357349 -0.080335595 -0.014690291 -0.06374603 -0.002731771 -0.0069154743
-0.19081064 -0.18132487 -0.237045 0.016095823 0.19715655 -0.14414941 0.23417604 0.031532347
0.34402555 -0.1950447 0.23289217 0.19213223 -0.057503927 0.13405262 -0.09665795 -0.01814487
-0.12281062 -0.03756518 0.08796635 0.22845967 0.022472639 0.083712906 0.07437612 -0.0068205316
0.5017148 0.22498098 0.028916428 0.1449318 0.12623365 -0.23067886 0.05526058 -0.23554489
0.17282748 0.37472537 -0.11288184 0.18469077 -0.15374625 0.2089127 0.27038032 0.19162203
0.13314246 0.24952723 0.51954395 0.19775398 0.059523486 0.347396 0.048548423 0.3714634
0.08640803 -0.14610234 0.25216216 0.48545316 0.33782008 0.303526 0.17209518 -0.01662183
-0.4946471 0.12781407 0.37930998 0.29055023 0.11414439 -0.41293105 -0.15030132 0.20439847
0.06542568 0.1314725 0.026025774 0.29050818 0.23999785 0.41183415 0.50379956 0.726475
-0.08574544 0.3322086 0.30611056 0.62183255 0.027532957 -0.0034724886 0.44385666 0.18426867
-0.23189773 -0.31898347 0.18244508 0.10402799 0.59568447 0.032959886 0.025428552 -0.2336816

lstm.bias_hh_l0 f4 [192]
00000000: ef30 a1bd 65c1 8cbe e21f 4b3d 3acc 243e
00000010: d49a 003e a5fb a2bb 8add e2bd 5755 e73d
00000020: 4f63 3e3e a160 04be 0c25 563e eb3c 963e
00000030: e4fb 943d a68e 893e 1358 203e 0a99 45be
00000040: b55d ebbe 3c4f 9b3e fddf d83d abe1 103e
00000050: 7efe 43bc bc5a 213e f2e3 19bf 7674 133d
00000060: 1047 2e3e c4b2 ea3d b357 0d3d 7ff0 4c3e
00000070: b3a6 673e 1553 533e 7bbb 04bd af72 e9bc
00000080: 7a11 3bbf d7d3 823e 50de f73d d889 493e
00000090: 1799 a3bd 9f93 1cbf e1ad 833e ea61 843e
000000a0: b7af d1bd e069 5cbe 3091 5d3e e3d1 58bd
000000b0: 9ea4 1e3f 43f7 e9be f43a 013d fd17 7abc
000000c0: 3f0d 32bf 483d 6dbd f690 c43e 62cf 003e
000000d0: 59de 10bd 8a00 9a3d 7d50 dabd 2cec 813e
000000e0: 7d2d 853b 16ef bfbd e14f 103e ccf5 833e
000000f0: c132 423e c887 1e3d 9263 5d3e ea04 20bd
00000100: 0a34 5c3e 3a72 f03e 4850 a73c 89be 753e
00000110: 7ac0 f13d 7623 a33d ee6f 55be 754a 573d
00000120: 4969 233e 7cd7 833e 70cd 003e bb70 823e
00000130: 25b2 0dbc 44c5 c83d 8e55 313d bbeb 403e
00000140: 6cf9 2dbe 7767 293e b97b 3f3e 20b5 863e
00000150: e2df 053e 2516 a2be 57d7 1d3e 51cc 863e
00000160: a866 33be 6f67 a7bd 9be2 8e3e d298 223e
00000170: a104 6b3e 90bc ed3c 0205 bc3d c395 523d
00000180: 6333 d6be 17bd d73d 69ee 0a3e 874a 00bd
00000190: 7b2b 56bd 70c2 c7bc 99e7 38bd e039 59be
000001a0: 74c9 e6bd 4c24 49bd f4a4 aebe 314e 293e
000001b0: e2a0 a7bc 4139 50be 394c 5b3e 8da8 eb3d
000001c0: f5da b83e 8d1b 3fbe cc8a 753e 006e 363e
000001d0: dd85 c8bd d3ce 573e 1722 eebd d7e8 58be
000001e0: 3211 a13c 4b55 80be a3b5 f83d 5985 f73c
000001f0: 6526 3cbe 23d4 053e 8bac 7e3d fde3 74be
00000200: ab40 f93e 63e5 a93d 06dc cbbc 5058 b93d
00000210: 9752 743e 43f2 72be b57e 913c b5a5 50be
00000220: 5476 323e 9b69 b63e 2953 35be fb7f 54bd
00000230: 940d 5bbe bdbd e03d 9b8a 8e3e 480b 09b9
00000240: 003d 1ebc f65e 3f3e 7c68 063f 598c 103e
00000250: fd9d 813e 937c 433e bd10 193d a3ee f23e
00000260: 4cbc 66bc e637 1fbe 7b77 ce3e 92aa ec3e
00000270: f57e d43d 1625 8c3e 0f49 1c3e 0c7c e23d
00000280: 3de0 0dbf d2c9 bc3d 0ee5 583e c43e 3e3e
00000290: 5282 d23d 36c6 8cbe 263b 5ebe 8739 863e
000002a0: e3d7 9b3e 6df0 323e a2db 403e 7a0e 4d3e
000002b0: ff0d a03d 937f af3e e814 163f b174 383f
000002c0: 7b4f 03be 8e89 ac3e 72cd b63e 939f 2a3f
000002d0: 0852 2dbd 06f6 29be 23c1 d73e 5c6f 443e
000002e0: ad3a 55be 7d9c 2ebe 408b 4c3e fb9f 753e
000002f0: 639d 073f f57c 263e 703f b9bc 6e13 ecbe
-0.078706615 -0.27491298 0.049590953 0.16093531 0.12559062 -0.004973846 -0.110774115 0.11295574
0.1859257 -0.12927486 0.2091257 0.29343352 0.07274607 0.26866645 0.15658598 -0.19296661
-0.4596993 0.3033389 0.105895974 0.14148585 -0.011962531 0.15757269 -0.6011344 0.035999738
0.17019296 0.11459878 0.034507465 0.20013617 0.22622184 0.20637162 -0.032405358 -0.028497068
-0.7307354 0.25552246 0.121029496 0.1968149 -0.07988184 -0.6116275 0.25718597 0.25855953
-0.10238593 -0.21524763 0.21637416 -0.05293454 0.61969936 -0.45696458 0.031550363 -0.015264508
-0.6955146 -0.05791977 0.38391846 0.1257911 -0.035368297 0.07519634 -0.10659883 0.25375497
0.0040642605 -0.09371774 0.14092971 0.25773466 0.18964674 0.03870371 0.21620014 -0.039067186
0.21504226 0.46962148 0.020424023 0.23998465 0.1180429 0.07965748 -0.20843479 0.052561242
0.15958132 0.2575034 0.12578368 0.25476632 -0.00864843 0.098032504 0.043294482 0.18839924
-0.16989678 0.16543375 0.1869954 0.26310062 0.13073686 -0.3165752 0.15414177 0.26327756
-0.17519629 -0.08174025 0.2790726 0.15878609 0.22950985 0.029020578 0.09180643 0.051412355
-0.4183608 0.10534113 0.13567509 -0.031321075 -0.05228756 -0.024384707 -0.045142744 -0.21213484
-0.11268893 -0.04910688 -0.34110224 0.16533734 -0.020462457 -0.2033434 0.21415795 0.11506758
0.3610455 -0.18662854 0.23978728 0.17815399 -0.097911574 0.21074991 -0.11627596 -0.21182571
0.01966152 -0.25065073 0.121440195 0.030214952 -0.18374021 0.13069205 0.06217627 -0.23915096
0.4868215 0.08295705 -0.024885189 0.090500474 0.2385963 -0.23725228 0.017760614 -0.20375712
0.17427951 0.35627446 -0.17707504 -0.051879864 -0.21391898 0.1097369 0.27840123 -0.00013069541
-0.009658098 0.18688568 0.5250318 0.14116038 0.25315848 0.1909049 0.03736948 0.4744769
-0.014082979 -0.15548667 0.4032553 0.46223885 0.10375778 0.27372044 0.15262245 0.11058816
-0.55420285 0.09218182 0.21181127 0.1857863 0.10278763 -0.27494973 -0.21702251 0.26215765
0.30438146 0.17474528 0.18833783 0.20025054 0.078151695 0.3427702 0.5862565 0.72053057
-0.12823288 0.33698696 0.35703617 0.6664974 -0.04231456 -0.16597757 0.4213954 0.19183105
-0.20823164 -0.17051883 0.19974995 0.23986809 0.5297453 0.16258605 -0.022613257 -0.46108574

lstm.weight_ih_l0_reverse f4 [192, 48]
00000000: 5ca2 59bd 07b5 8f3d 4013 c43e 6ea9 0dbe
00000010: d541 ffbe 0417 ce3e b0d3 093f a4a1 acbe
00000020: 7ae8 0c3e 1485 523e 72bb 64bd a797 c5bc
00000030: 0878 943e d317 ee3e 64b1 843e 1390 43be
00000040: 9a09 1dbe 9cd7 573f 4f53 7a3e 0982 2cbf
00000050: b991 d9be 1326 03be 4b7f 36be de60 50bf
00000060: 5462 fa3d de00 6cbe 03c1 4dbd a207 5bbe
00000070: 009d 13be 7ea7 99be dd23 c33e 19cf e13e
00000080: 1c65 0d3d 231a 25ba d0cb c03c 9322 e93d
00000090: fb95 6f3f d609 80be d08e e1be 5e80 2fbe
000000a0: 8ff5 82bf dc83 713e b6ba 3f3f 4a78 a93e
000000b0: c845 b8be 1a25 3bbf 41f9 123e dd39 2d3f
000000c0: 5a74 153e a24e 063f 497a 2db9 b523 68be
000000d0: 722a 1cbf 38ee 283f 98de 5a3f 2202 29bd
000000e0: 48fa 9fbd b39c 42bf c599 513f 62a9 8a3d
000000f0: 07d3 c7be 7c62 a03d a0de b7bd b97d 9f3d
00000100: d995 ecbc fc8f b63e 027c 8bbe 4963 833e
00000110: d011 903d ec6a 60be a50b 66bf 4963 ab3d
00000120: 9a3f 153f 15cb 2dbe 5d33 12bf 5522 ccbe
00000130: ce05 693f 8500 d8be b83d 323f 67d5 913e
00000140: ca80 873e 3ac2 013e 90e6 053f 6418 723d
00000150: f6a4 c93e 3c33 cab9 7437 6cbe acf8 463c
00000160: 3d46 d43c 7273 afbe 0156 183f 842f 09be
00000170: 7464 30bf 0ae3 e8bf 8900 69bc 66cf e23c
00000180: 3d6d 833e 0b79 eebe 0691 073e bd4f d83e
00000190: 61a9 603f 1e31 dfbd 223f a83e bdf7 1c3e
000001a0: f42b 23bd 2468 86be 2cc8 a8be 6dc1 41bc
000001b0: c638 173e e4a3 25bd 8ab6 713e 7d50 f53d
000001c0: 0e5f a83e d1e6 2fbf a24f 5e3e b097 79be
000001d0: f297 943e 6e79 703e b9db 81be c5f7 293e
000001e0: b33c 9d3d a09c 3b3d 50ff 39be 0eef a83d
000001f0: 6ad4 cbbe 4d3a 8bbe 98c6 d33e 72ac 0abe
00000200: 9eda ac3c 037a b73c 03b0 6fbd 635e a33e
00000210: f445 03bf cb0c 8ebd 968d e53d 5048 a43e
00000220: 744f 0bbf 9610 6f3e f30a 7fbc aeb3 663e
00000230: 1d0d 71be 87fe a93e 2aa4 6f3d 5c9b d03c
00000240: 722e 60bf 8c9c 1cbf 377b 5f3e b40d f7be
00000250: 8b2b 08bf eb4c 9dbe a853 f53d 435c 15bf
00000260: cac6 ad3c be94 383e bf49 a4be 9875 373e
00000270: f44d 6fbd 6e69 aa3e 52e1 fe3d 6ed1 55be
00000280: ee43 77be 4d8a edbd 43b8 353d 519f 7fbe
00000290: 6389 9bbe 61d7 6f3e 8d85 abbb 0d0b 02bf
000002a0: f8af 6abe 1b81 b3be 6d91 0f3d f135 0d3f
000002b0: 6ba7 3c3e 27d4 ac3e 04af 4ebe c6ef 9b3e
000002c0: b658 40be bc24 03be ab49 b8be 0786 8bbf
000002d0: d6c5 86be 3ca7 64be 9057 c3be b220 04be
000002e0: 922e 6bbe 7aa5 853e e294 c2bd 8eb3 28bf
000002f0: 519d 6f3e 71fb 653e a0d4 9fbd 3eff e13e
00000300: 7355 8ebe 94f8 e53e 0741 313f 67a8 dcbd
00000310: 4382 89bf 0057 4abf cba1 4c3f 77f0 1c3f
00000320: 21b6 913e 8003 34bf 3f19 423f a258 3abf
00000330: daa6 153f 9d41 84be 18b7 3d3e 519b 493f
00000340: 2618 c4be a502 0bbe 8196 dabe 3d5e 8f3e
00000350: 9b84 8c3e cf48 01bf 6731 0fbf 4382 33bd
00000360: da9e 9ebe e35f 683f d001 133d a4c9 643e
00000370: 4eac 97be 231c 953e a2d2 793e ad81 c73e
00000380: c546 863f 111d 093e b057 363f de14 e3be
00000390: ab22 c4bd 204e 95be d1dd 96bf 3b62 2b3f
000003a0: cf1e ba3c 620a 8cbe bd35 273e 98ee 72bf
000003b0: f1a1 14bc 480b 44bf 22d2 ae3e 7619 57bf
000003c0: 34b8 fb3d 6f8d 303e 8a5b 243d c227 1bbe
000003d0: 5ca5 bd3d 5147 11bd 8fe4 b7bb 0ec9 babb
000003e0: 8149 273e 9e9a b6bc 7c85 99bd eee0 293e
000003f0: 5a31 0c3e e324 e1bd 8e13 8cbc debe 29bf
-0.053133354 0.0701695 0.38295937 -0.13834164 -0.49854913 0.40251935 0.53838634 -0.33717072
0.13760558 0.20558578 -0.055842824 -0.024120165 0.28997827 0.4650255 0.25916588 -0.19097929
-0.15335694 0.8431337 0.24445842 -0.6738592 -0.4249399 -0.12807493 -0.17821996 -0.8139781
0.12225786 -0.23047206 -0.0502329 -0.2138963 -0.1441536 -0.300106 0.381133 0.44103315
0.034520254 -0.0006298145 0.023534685 0.11383548 0.9358823 -0.25007504 -0.4405427 -0.17138812
-1.0231189 0.23585457 0.74894273 0.33099586 -0.3599074 -0.7310349 0.14352895 0.6766642
0.14595166 0.52463734 -0.0001654412 -0.22669871 -0.61002266 0.6598849 0.854959 -0.0412618
-0.07811409 -0.76020354 0.8187526 0.067705885 -0.3902819 0.078312844 -0.08978009 0.077876516
-0.028880047 0.35656726 -0.27243048 0.25661686 0.070346475 -0.21915787 -0.8986152 0.083685465
0.58300173 -0.16972001 -0.57109624 -0.39869943 0.9102448 -0.42187896 0.69625425 0.28483126
0.26465446 0.12671748 0.52304935 0.059105292 0.39383668 -0.00038566615 -0.23068029 0.012144249
0.025912398 -0.34267765 0.5950623 -0.13397032 -0.6890328 -1.8194287 -0.014221319 0.027686786
0.2566928 -0.46576723 0.13238916 0.42248335 0.8775845 -0.1089804 0.32860667 0.1532888
-0.03983684 -0.26251328 -0.3296522 -0.011825901 0.14767751 -0.0404395 0.2360479 0.119782425
0.3288502 -0.6871157 0.21710065 -0.2437427 0.29022175 0.23483822 -0.25362948 0.16598423
0.07677593 0.045803666 -0.181638 0.08248721 -0.39810497 -0.27192917 0.41362453 -0.13542345
0.021100339 0.022397047 -0.058517467 0.3190795 -0.51278615 -0.06936034 0.11208646 0.3208642
-0.5441811 0.23346171 -0.015566575 0.2252948 -0.23540159 0.33202 0.05850617 0.025464706
-0.8757087 -0.6117637 0.21824346 -0.48252642 -0.5319144 -0.30722746 0.11978847 -0.58343905
0.021212954 0.1802549 -0.32087514 0.17915952 -0.05842395 0.3328356 0.1244532 -0.20880672
-0.24147007 -0.115986444 0.04436518 -0.24963118 -0.30378255 0.23422004 -0.0052344264 -0.5079811
-0.22918689 -0.35059437 0.0350508 0.55160433 0.1842324 0.3375561 -0.2018395 0.3045637
-0.1878384 -0.12806982 -0.35993704 -1.0900277 -0.26322812 -0.2232942 -0.38152742 -0.12903097
-0.22966984 0.2610281 -0.095010534 -0.6589898 0.23399855 0.22459199 -0.07804227 0.44140047
-0.27799568 0.44916213 0.6923985 -0.10774308 -1.0742878 -0.79039 0.79934376 0.6130442
0.28459266 -0.7031784 0.7581977 -0.7279149 0.5845772 -0.2583131 0.18526876 0.7875262
-0.38299674 -0.13575228 -0.4269295 0.28001586 0.2744492 -0.5050172 -0.55934757 -0.0438254
-0.3098057 0.9077131 0.0358904 0.22342545 -0.29623646 0.2912303 0.24396756 0.38966122
1.0490347 0.13389994 0.7122755 -0.44351858 -0.09576925 -0.29161167 -1.1786443 0.6694676
0.022719769 -0.2735167 0.16329093 -0.94895315 -0.009071813 -0.76579714 0.34144694 -0.84023225
0.12290993 0.17241453 0.04012636 -0.15151885 0.092600554 -0.035468403 -0.005611963 -0.005700237
0.16336633 -0.022290524 -0.07496163 0.1658971 0.13690701 -0.10993364 -0.017099168 -0.66306865

lstm.weight_hh_l0_reverse f4 [192, 48]
00000000: e767 59bc c67b c5bd 409a 36bf 53cf 253f
00000010: 9cf9 01be 7f48 a93e a2c8 053f 6ffc 5cbf
00000020: 2b41 b2bd 7ce4 18be 4a57 68bf 14bf a03d
00000030: c30a 013f 99d1 81bf febe 3c3e 0b5d 32bf
00000040: 75df 0b3f 5661 4ebe 5aff 823e ff8f b73e
00000050: 370a 84be 1f04 ddbe 90b7 853f ea4f 43bf
00000060: fbb1 8f3f c999 c0be f334 b5be d0e5 8d3f
00000070: aa79 e8be 35a2 c1be 8393 bb3e f5cd f5be
00000080: 06c6 753e e08d 2dbe 1033 3ebd b67a 26be
00000090: 2f53 d3be c5d7 a1be b21e 1b3f 99ec 8d3e
000000a0: 3f4e 143e 0c01 103f 6c73 aa3e 9e11 4f3e
000000b0: 2394 2dbf ed8e fc3c dd16 8a3e 03a0 223f
000000c0: e2ed 893f e87f 253f c200 10bf 482f 91bd
000000d0: 9217 66bf 7bad 8b3e 730c d6bd 3a6a 7fbf
000000e0: 9e58 d23e b0ef b63f 882b a03e 9df8 3d3d
000000f0: ca89 8dbe 350a 8bbe f384 973e b1ee 893f
00000100: 8068 ca3d e00d 34bf d2b6 733f 3f65 4c3f
00000110: 1dfb 3a3e 6ba8 99bf b10e edbd 14f9 6abf
00000120: db1e 90bf f4c7 863e 4859 b9bf 9f70 e83f
00000130: 90a7 1c3e f746 3abd 43c0 b43e a816 fe3e
00000140: 7eb7 cabf dc33 cdbf 6040 a9be e52d a5be
00000150: 1ad4 0dbf de82 8dbf ee6c c6be 040c ba3f
00000160: 9c8b 3a3d a4db 593d c697 65be b354 1dbf
00000170: 2234 803d e1b9 543f e72a 0f3f 7c45 2d3f
00000180: a875 423f e1b4 8abf 492c b43e 2b95 593f
00000190: 6949 333e e257 89be 2a19 91bf 25c6 03be
000001a0: d6d9 833a 461f 893f b7cd 6dbf 2875 bb3f
000001b0: 951f 40bf 088a 43bf d680 013d 744b 9e3e
000001c0: 50ea c73e 4faf 4cbe 03c4 a5bf bc48 97bf
000001d0: 9a25 e73f bb46 a03f e5ab c5be 3335 a6bf
000001e0: 5f96 bbbf dfaf 4fbe 3d06 ef3d 29fe 4abe
000001f0: 8c14 68bd 94ea 173f b79e 32bf fa88 223e
00000200: feeb 623e 8012 163f a160 88be 72dd f7be
00000210: 2d95 913e 61da f73e 4eac b03e 59a5 73bf
00000220: 9aec 8b3f 41d1 8d3e 412d 823f 8f0f 28be
00000230: 4f26 e8bd 11a4 0640 9282 a4bf db9a 5abf
00000240: ed6f 523f 1487 8e3d b598 89be b7cc cc3d
00000250: 3388 843e b19c dd3d a3c9 0d3d ec7c 9d3e
00000260: 66ee 97bc 7e00 ef3d e4f1 12be 0e2b b3be
00000270: 805b 40bf 91c9 fabc 6eec 28be fdb4 15bf
00000280: cb02 b33d 232c 453c d711 c33e 5827 b93f
00000290: c2bf bbbe 1eea 1ebe 3f94 14bd 6dbf a23d
000002a0: 5344 f33e 61fb 51be 9452 1dbe 8d29 103f
000002b0: 28b8 0b3f 02ce a33c 9657 8f3e bee2 6ebe
000002c0: 4ca3 94bf 57ec cc3e 642e 5abe ab42 dcbc
000002d0: 3211 00be 3f62 25bd 9895 99be 6ec7 5a3e
000002e0: 0c21 0abf d80f 27bc 3d31 bcbe 7eaf 933d
000002f0: b9c7 793e 7614 203e bed1 93bf 2fd3 99be
00000300: c371 fb3f d09c 6c3d 8d51 7e3e bf19 28bf
00000310: 0951 023f 3b83 d53b f144 933e 93c0 f23d
00000320: ff9e 14bf d8b3 443f 2ca7 11bf 095c 783e
00000330: dcb7 113f b3c1 223e dc86 b0bd 219d 5bbe
00000340: 367b f3be 0b32 0cbf 48c4 753e 5302 58bf
00000350: 0173 12be 4d4e 673f a438 433f 9852 953f
00000360: 0838 ab3e 2110 4bbf cc35 c83e e1f5 0c3f
00000370: 83e1 3c3f 2ff1 b43e 78e5 683e 26a3 a1be
00000380: 000e aabe 56b2 53bd b2ec 313f cd1a 053f
00000390: 0260 db3d 9600 09c0 4d71 18bf bbc6 81be
000003a0: a032 6ebf dda9 e63d a3b1 3ebe de9b e1bd
000003b0: 7b30 89bf 1ee1 153f 4b50 6abf 77ad 0bbd
000003c0: d2ef 5ebe c152 65be 4cfd 173f 6092 79be
000003d0: 4b53 963e 7901 d7be 1c7b 1dbd 1f25 f33e
000003e0: 0821 df3e 7118 923e 6117 37be 907c 203e
000003f0: dfe2 6e3e b062 ca3d 2f7f 54bf f81a b73e
-0.013269401 -0.096427485 -0.71329117 0.64769477 -0.12692875 0.33063123 0.52259266 -0.86322683
-0.08703836 -0.1493091 -0.9075819 0.07848945 0.50407046 -1.0142089 0.18432233 -0.6967322
0.54637843 -0.20154318 0.25585443 0.35852048 -0.25789043 -0.43167207 1.0446644 -0.76293814
1.122619 -0.3761733 -0.3539196 1.1085758 -0.45405322 -0.37819067 0.3663598 -0.48008695
0.24001321 -0.16948652 -0.046435416 -0.16257748 -0.41274402 -0.31609932 0.6059371 0.27719572
0.14482974 0.562516 0.33291185 0.20221564 -0.67804164 0.030829871 0.26970568 0.6352541
1.0775721 0.64648294 -0.56251156 -0.07089096 -0.89879715 0.27280793 -0.10451593 -0.99771464
0.41083235 1.4291897 0.31283212 0.046379674 -0.27644187 -0.27156225 0.2959362 1.0775968
0.09883213 -0.7033367 0.95200837 0.7984199 0.18259855 -1.2004522 -0.11575068 -0.91786313
-1.1259416 0.26324427 -1.4480371 1.8159369 0.15298295 -0.045477834 0.35302934 0.4962666
-1.5837247 -1.6031451 -0.33056927 -0.32261577 -0.55401766 -1.1055562 -0.38754982 1.4534917
0.045543298 0.05318798 -0.22421178 -0.61457366 0.062599435 0.8309613 0.5592484 0.6768415
0.7596078 -1.083645 0.35190037 0.8499324 0.17508473 -0.26824862 -1.1335804 -0.12868555
0.0010059427 1.0712669 -0.9289202 1.4645128 -0.7504819 -0.76382494 0.03161701 0.3091694
0.39045954 -0.1998875 -1.2950443 -1.1819072 1.805835 1.2521585 -0.38607708 -1.2984985
-1.4655265 -0.20281933 0.11671112 -0.19823517 -0.05666022 0.5934231 -0.6977343 0.15872565
0.22160336 0.5862198 -0.26636222 -0.48411137 0.28434125 0.48408797 0.34506458 -0.95174176
1.093158 0.2769871 1.017006 -0.16412185 -0.11335432 2.1037638 -1.2852347 -0.8539254
0.82202035 0.06959358 -0.2687432 0.09999984 0.25885162 0.10820902 0.034616124 0.3075937
-0.018546294 0.11670016 -0.14350086 -0.34993786 -0.7513962 -0.030613692 -0.16496441 -0.5847929
0.08740767 0.012034449 0.38099548 1.4465132 -0.36669737 -0.15518996 -0.03627419 0.07946668
0.47513065 -0.2050605 -0.15363532 0.563134 0.54577875 0.019995693 0.2799651 -0.23328683
-1.1612334 0.40024063 -0.21306759 -0.026887259 -0.1250656 -0.040376898 -0.29996943 0.21365139
-0.53956676 -0.010196649 -0.36756316 0.07211207 0.24392594 0.15632805 -1.1548383 -0.30043933
1.9644092 0.057766736 0.24835797 -0.65664285 0.509049 0.006515888 0.28763536 0.11853137
-0.5805511 0.7683692 -0.5689571 0.24253859 0.5692117 0.15894203 -0.086194724 -0.21446659
-0.4755494 -0.5476386 0.24000657 -0.84378546 -0.14301683 0.9035385 0.762583 1.1665831
0.33441186 -0.79321486 0.39103544 0.5506268 0.73781604 0.35340258 0.22743785 -0.31569785
-0.33213806 -0.051683746 0.69501793 0.5199402 0.107116714 -2.1406608 -0.59547883 -0.25346932
-0.93046 0.112628676 -0.1862245 -0.110160574 -1.071792 0.58546627 -0.9152877 -0.034100976
-0.21771172 -0.2239485 0.59370875 -0.24372244 0.29360422 -0.4199331 -0.038447484 0.4748926
0.43579888 0.28534272 -0.17880012 0.15672517 0.23328732 0.098821044 -0.83006567 0.35762763

lstm.bias_ih_l0_reverse f4 [192]
00000000: f8cf cfbe 937c a23e 5407 dfbd deda d43e
00000010: bab2 ae3e facd 51bd 4877 26bf 98bf 473e
00000020: fe63 c93e 9f76 153e f3d3 a8bd 76f0 923f
00000030: 5676 3c3d 21d5 c4be ca64 76be a052 973e
00000040: 5eb1 1f3f 38ab 7ebe 2d0f 9bbd c6a3 2d3f
00000050: d665 653e 914c e3bd 30f2 8b3e 0301 6e3f
00000060: 2907 323e 868a 903e 779c 16bc d862 5fbe
00000070: 3ed8 dc3c a886 6b3f 3b91 1a3e 2139 5c3e
00000080: c69f 593f 49e3 653e 67a4 ad3f 1e5e a23d
00000090: bee2 643e b946 4abe 1a76 fd3e e1e3 9c3e
000000a0: 74ab 233e 297b 203d 7610 413e 68ef c03e
000000b0: 8e2b 203f 9f03 a03f 9424 df3d 684b 5f3e
000000c0: 61b7 fcbd 180f cd3d a824 9c3d b2f0 9d3e
000000d0: 2098 e03e 5b4d d23d 47d9 ddbe c95d 583d
000000e0: b616 f63a a29f 2c3e 947e 47be e9f9 8d3e
000000f0: a1ab 9b3d 85b1 363d cdff c83e 31b9 423e
00000100: 1638 3f3e a7ae 63be 5452 a83d fb46 c03e
00000110: b139 7dbe 46d5 a4bc 9bc0 703e caca ae3e
00000120: 1829 c7bc 4620 743e 8582 173c ac84 a13e
00000130: f94a c33b 2560 803e ec56 1d3e 2949 273d
00000140: 7098 303e 4fe2 3e3e 62c4 b3be 137d 3a3d
00000150: e4bc e93b 2ef8 79be 8e6b 843d e7fe 453e
00000160: fb01 ba3d d9b7 7c3e 4d7b 69bd 1ac5 383e
00000170: 1443 f1be 5ab4 d6be 7dc7 553d 2c75 e3be
00000180: 1483 0c3f 1e51 babe 99c8 023f dc18 8dbe
00000190: fdb8 0a3f d4b9 83be e4ef f2bd 0a41 933e
000001a0: 7b7d 993e f255 c53e 2bcf db3d 9207 3b3f
000001b0: 391c f8bc 6b2d 453e e84f d23c 3798 a03e
000001c0: 3858 ad3e dfd3 cfbd a0f5 37bc 1b57 28bf
000001d0: 52f6 b33d a3f5 963d edce 49be ec55 bd3e
000001e0: 4478 eabe 6693 9a3e efcb 1b3f 7be6 253e
000001f0: 3c18 fa3d a7a4 083f 836d adbd 1ac8 973e
00000200: 076c a0be f8f9 b23e 0158 3cbf 5a3d b9be
00000210: bc5d 3d3e 338d 8ebc 9caa b4be bd8f edbd
00000220: 6d80 cabe 894d 7fbe 2607 47be 4552 94be
00000230: bda1 3e3f 77c1 793f 8844 98be 7245 55be
00000240: 466e 483e 0ece 6f3b c92d bcbe 1413 97bd
00000250: e2b7 773e 79c2 3c3e 3fd5 803e e19a 1c3d
00000260: 9605 623e 33d0 d23e dcd3 483e 863c 423e
00000270: 00df 7dbd 93d6 48bd e9f8 353e aa7e 353e
00000280: 4ce2 533e 3eea 103c 328e 73bb 1c22 273f
00000290: 3352 8b3e c666 003d 3291 dd3d de1a b73e
000002a0: fb5a a93e fe74 643e c0b1 d33e 9bdb 743e
000002b0: 4b1c 703e f675 8e3f 03e7 bf3e 8e33 bdbb
000002c0: 9a02 babd 4cdf 6f3e 7e1e 8f3f 226a 743d
000002d0: 1786 883e 33c2 5bbb f1e3 b73e da8d 5a3e
000002e0: a71f 043f 2f74 92bd 3de7 973e dd42 b53e
000002f0: 2d24 aa3f 08fa 783f 37e8 583e 9932 d63e
-0.40588355 0.31735668 -0.108900696 0.41573232 0.34120733 -0.051221825 -0.6502576 0.19506681
0.393341 0.14596032 -0.08243551 1.1479633 0.04601129 -0.38443854 -0.24061885 0.29555225
0.62380016 -0.24870002 -0.07571254 0.67828023 0.22402129 -0.11098588 0.27333212 0.92970294
0.17385544 0.28230685 -0.009192578 -0.2181505 0.026958581 0.92002344 0.15094464 0.21506168
0.8500942 0.22449984 1.3565797 0.07928108 0.2235212 -0.19753541 0.49504167 0.30642608
0.15983373 0.039179955 0.18853936 0.37682652 0.6256646 1.2501105 0.108956486 0.21806109
-0.12339664 0.100126445 0.07624179 0.30847698 0.43866062 0.10268661 -0.43329832 0.052823815
0.0018775079 0.1685777 -0.1948188 0.2772973 0.07601095 0.04460289 0.3925766 0.19015957
0.18673739 -0.22234593 0.08218828 0.37554154 -0.24729039 -0.020121228 0.23510973 0.3413909
-0.024311587 0.23840436 0.009247427 0.31546533 0.005959865 0.25073352 0.1536519 0.040841255
0.1724565 0.18641017 -0.35110766 0.045529436 0.007133113 -0.2441108 0.06465827 0.19335519
0.09082409 0.24679507 -0.057002354 0.18043938 -0.4712149 -0.41934472 0.0521922 -0.44425333
0.5488751 -0.36390013 0.5108734 -0.2755803 0.5418852 -0.25727713 -0.11862162 0.28760558
0.29978547 0.38542134 0.107328735 0.73058426 -0.030286895 0.19255607 0.025672868 0.3136613
0.33856368 -0.10147833 -0.011227995 -0.6575791 0.08787216 0.0737107 -0.19707842 0.36979616
-0.4579488 0.3019058 0.6085805 0.16201203 0.122116536 0.5337624 -0.08468153 0.29644853
-0.31332418 0.34956336 -0.73571783 -0.3617962 0.18492788 -0.017401313 -0.35286415 -0.115996815
-0.39551106 -0.24931921 -0.1943632 -0.28969017 0.74465543 0.9756083 -0.29739785 -0.20827273
0.19573316 0.0036591324 -0.3675368 -0.07376686 0.2419124 0.1843356 0.25162694 0.03823364
0.22072443 0.41174468 0.19612068 0.189684 -0.061980247 -0.04903276 0.17770733 0.177241
0.20691794 0.00884491 -0.0037163612 0.6528642 0.2721115 0.031348012 0.108187094 0.35762686
0.33077225 0.22310254 0.4134655 0.23911898 0.23448293 1.1129749 0.37480935 -0.005773968
-0.090825275 0.23425025 1.118118 0.05967153 0.26664802 -0.00335325 0.35916093 0.21343175
0.516108 -0.071510665 0.29668608 0.35402575 1.329229 0.9725652 0.21182333 0.41835478
