captcha_model.pth (torch, 194706 bytes, 18 tensors)

cnn.0.weight f4 [12, 1, 3, 3]
00000000: b40b db3e 9ef5 813d e2f5 283f c5f1 323f
00000010: c1d4 833e 2afc a63e df30 433e d7df 57bf
00000020: 3faf 75be 8952 00bf 0f0d 253f f2d3 cebe
00000030: a865 093f 914b 8bbe 4c4b 14bf 20f0 4dbe
00000040: 7e52 1cbf 62f2 503f 7d07 843d 8d37 00bf
00000050: aacc 64bf 1097 313e ebec 443f 0cc9 e83e
00000060: 1b52 4f3d 3f86 6d3d 5cc0 ce3e 7e34 403b
00000070: b651 febe 1d2e eb3d 0f9e 883e 1b3f 0bbf
00000080: 3c8d 26bf 28a6 d03e 3c35 883f 2c89 4a3e
00000090: ae21 1d3f 3bed cbbe 09c1 8abe 36d4 ba3e
000000a0: b1c0 71bf a0d3 5e3f 654f 2bbf bf30 163f
000000b0: edba 853d a9d9 15be 49d0 0abf a71b ea3c
000000c0: c6b7 82bf b075 353e d7eb fb3e c91f 2d3d
000000d0: 5db9 7e3f 7878 02be d342 8ebe aa72 813f
000000e0: d2c9 073e c99f 83be 733b 213f ed75 16bf
000000f0: 466b 443f 2813 a13e e70c b2be 4fd8 db3e
00000100: b3f4 0d3f 4474 2bbf 91d7 36bf 97a4 263f
00000110: 106f 1b3f 84da 9dbe 4ad0 05bf 20a9 ac3e
00000120: 5b7d 3dbe 9c55 20bf 93e0 143d 688c 953e
00000130: af42 993f cb5e 033f f532 ab3d 5920 3bbf
00000140: cf33 cfbe 80cd 083f 86a1 27bf 9165 e13d
00000150: 878b 793f 7b61 1bbf 06d2 71be ebf1 233f
00000160: 7cd7 a7bc 411b 12bf 0157 553e fc2a 1a3e
00000170: 519c d8be b7f7 6c3d 9969 9c3f 8191 00bf
00000180: 85a4 51bf 1bea 3f3f d28f 0dbd c4ec a6be
00000190: d768 32bd a1a8 453f 990f 9dbe e55d 16bf
000001a0: b64d 443f d24f 353e 1058 48bf e791 543f
0.42782366 0.06345676 0.6600019 0.6990016 0.25748256 0.3261426 0.19061612 -0.8432593
-0.23992632 -0.5012594 0.6447305 -0.40396076 0.5367074 -0.2720609 -0.57927394 -0.20111132
-0.61063373 0.81619847 0.06446741 -0.50084764 -0.8937479 0.17342782 0.7692401 0.45465887
0.05061541 0.057989355 0.40381134 0.0029328163 -0.49671715 0.11483405 0.2668309 -0.54393166
-0.65059257 0.40751767 1.0641246 0.1977889 0.61379516 -0.3982943 -0.271004 0.3649003
-0.9443465 0.87041664 -0.6691802 0.5866813 0.06529794 -0.14633812 -0.5422407 0.028577639
-1.0212333 0.17720675 0.4920337 0.04226664 0.9950159 -0.12741268 -0.27785358 1.0113118
0.13260582 -0.25707844 0.6298134 -0.5877369 0.76726186 0.31459928 -0.3477547 0.42938468
0.55451506 -0.6697428 -0.7142268 0.65094894 0.6071634 -0.30830777 -0.5227095 0.33722782
-0.1850485 -0.6263063 0.036346983 0.29208684 1.1973475 0.5131652 0.08359329 -0.73096234
-0.40469214 0.5343857 -0.6548084 0.110057004 0.97478527 -0.6069562 -0.23615274 0.6404101
-0.020488493 -0.57072836 0.2083397 0.1505546 -0.4230676 0.057853427 1.2219726 -0.5022202
-0.8189166 0.7496659 -0.034560986 -0.32602513 -0.043557014 0.7721043 -0.30675963 -0.5873702
0.7668108 0.1770623 -0.7825937 0.8303513

cnn.0.bias f4 [12]
00000000: 4f01 953e c48d d13f 5ceb e0be 250a e73e
00000010: 0baf ef3e 7292 c6be c839 d53e 70b2 4abe
00000020: 0633 b33f bba0 303f edcb 5bbf ae3a 1bbf
0.2910256 1.6371388 -0.43929565 0.45124927 0.46813235 -0.38783604 0.41645646 -0.19794631
1.3999946 0.68995255 -0.8585804 -0.60636413

cnn.1.weight f4 [12]
00000000: 6a8a 063e 7671 ba3d e6bc f33d 7b19 f43d
00000010: 8ffe ec3d 0c3e e63d f3d3 323e eb9d 0a3e
00000020: 71f2 f33d 5745 2b3e 944c 423e 1274 2a3e
0.13138738 0.09103672 0.11901264 0.119189225 0.11571991 0.11242303 0.17463665 0.13536803
0.119114764 0.1672567 0.18974525 0.1664584

cnn.1.bias f4 [12]
00000000: ced5 3abd 8d7f 8cbd b64e 6fbd 98f4 8dbd
00000010: 2bf6 afbd dd7c a3bd b062 a8bd 6d53 89bd
00000020: 4e1b 7abd 5819 a0bd a5e4 b0bd ae6f a1bd
-0.045614056 -0.06860266 -0.058424674 -0.06931418 -0.08591875 -0.079828 -0.08221948 -0.06705365
-0.061061196 -0.07817334 -0.086373605 -0.07882629

cnn.1.running_mean f4 [12]
00000000: 70cf a83f 3a95 a63f e586 963b 321a 223f
00000010: 6092 1c3f 7def f7be 4220 aa3f 8d99 503d
00000020: 9f6d d13f fac2 4f3f 8a01 d9be 64ee ccbe
1.3188305 1.301429 0.0045937174 0.6332122 0.6116085 -0.48424903 1.3291094 0.050927687
1.6361579 0.81156886 -0.42383987 -0.40025628

cnn.1.running_var f4 [12]
00000000: 8c72 6b3f 0d75 1d3e f19b 013f 6e51 053f
00000010: ce35 363e f04c 023f b8c9 413f f6bb 953e
00000020: b16e a53e 0c2f 273f 197b cf3e 56e3 2b3f
0.9197166 0.15376683 0.5062857 0.52077377 0.17793962 0.5089865 0.75698423 0.29244965
0.32311013 0.6530616 0.40523604 0.6714376

reshape.weight f4 [48, 144]
00000000: 3444 aa3e ec7b f3be 5721 c4be 580a 45bd
00000010: 6670 4a3d 3a4f f43e 0daa 793e 2c67 af3e
00000020: 4bb1 ef3e 91c2 113e e694 01bf d84c aabe
00000030: 3e70 31be 6c21 0b3e ff9f 65be 3f43 29bc
00000040: 4477 3b3c 34d9 9abd 749b d3bd e062 903e
00000050: 24bb 083e 2cb8 6e3e 0516 ae3c 6421 0fbf
00000060: dbf5 883e cf93 863e b2c3 903d 571e a53e
00000070: 54cc 4abd 5c04 30be 5bae a3bd 9422 59bc
00000080: 5882 fc3c 1734 01be 09f4 02bd bc87 d53d
00000090: 0afc a03e 2d2d 243f 7aa1 4f3f 9a51 a33d
000000a0: 16a9 53bd c8a1 503e 586f a6bd b0f7 d7be
000000b0: e42b 9bbe 0951 c4bd 5af7 813d 3713 b43d
000000c0: 9d67 36be 6735 d5be ddb0 52be 456b 86be
000000d0: a0ee 433e e541 afbd 1cfd b5bd e62a a1bd
000000e0: de6a 1a3b c009 713e 9ffc 6e3e 4a0d d03d
000000f0: c0e8 563e 8ac0 fdbe 6262 dfbe 4a13 74bd
00000100: 879e 663c 79d6 39be 9fbf f8bd 5100 d5bd
00000110: fda3 82be 29da 6fbe 606e 5cbe d695 07bf
00000120: 4e03 9d3d 4802 9fbd 1293 0f3d f1cc a03e
00000130: dc54 683f a538 393f d19c 463f e9d3 653f
00000140: cf1a e13e 448c 1e3e e4c1 61bd a0c2 febe
00000150: 8963 113f dd52 0e3f a712 7e3e dc03 04be
00000160: 66d2 86bd 3ac6 b1be d54a 453d c402 3fbd
00000170: 53f5 fbbc 3f65 7cbc 2535 f73d e96e 4f3f
00000180: d883 b93c f5a8 68be ca36 923e 72cc 3fbd
00000190: 181e 833c d515 913e 7d09 e73e 82aa 7d3e
000001a0: 1caf 443e 096f debd 9897 6abe 0c0a 17bf
000001b0: d676 75be d421 8e3e dfe8 a03e 042e 323e
000001c0: 6f7f 9d3d 6634 753e a11b 033e c09b 673d
000001d0: 6652 003d e4aa 913d 797a 4b3e bb14 d1bd
000001e0: 4083 abbc edd9 0a3f 2f27 02be 9646 15be
000001f0: 6b70 b7be 7d86 87be 422c afbe d221 8abd
00000200: 61ed 75bc a63e 67bc 3a5a d03e 56df cf3e
00000210: 3ab1 b3bd 3180 d03d fea2 0ebe 3a4f 4dbe
00000220: f021 f2be 1ad0 d9bd a147 8bbe 0c3d 8ebe
00000230: f999 bfbe ccbd b5bd ef29 993e 5e4d 433f
00000240: c93b b0be 3143 e2bd da5f f7be d645 5bbf
00000250: 451e 45bf 5738 8cbe 4c87 b0be 0f2a 0cbe
00000260: 8b4e 28bc ca6b b73e 0f66 6d3e 7af5 c03e
00000270: 66a3 853c 35f3 d13d b871 6bbe 9e02 bbbe
00000280: 2ae2 ee3d caa9 c03e b92f f23d 5f9c af3c
00000290: 0d21 c9bd 351a 49be 23a8 cbbe 5b22 f03e
000002a0: 3c4a 03bd 8c91 fc3e a39d 6c3e afe7 be3e
000002b0: bb2f eb3d 8adb a33e 3510 dd3e 8ec3 123f
000002c0: b311 9a3e 6479 943e 2c29 cf3e e27b 5dbe
000002d0: 44ad 57bd ad8e 033f 61bb 283f 1a43 2b3f
000002e0: 237c f23e 0aa4 473e 7447 f43e 5657 223e
000002f0: 4098 653e 4611 263e b6f5 4b3e 8a4e d7bd
00000300: faf2 743d 5ab6 96be baa2 0bbe c879 d7be
00000310: e0c6 89be 177c 85be 4824 ef3d 9574 0fbe
00000320: bc2e a0bd dd15 8cbe 63f3 d7be e3b2 adbb
00000330: c150 a73e e4a3 ecbe 2592 43bf 9959 98be
00000340: 51e0 91be 2244 35bd 08a7 8abe 4fd8 8d3d
00000350: 6d96 073d 9095 5bbe 3c21 953d b079 553f
00000360: 9446 4abf f18a 7cbf f766 80bf 57b9 60bf
00000370: 3630 5abf c1a5 27bf c0d2 a9be 803b 05be
00000380: 7481 b5be 7957 1abf aa18 45bf e3d0 41be
00000390: 5ffb 27be 111d a43e d7ba 673e ae46 fd3e
000003a0: 5cdf 253f e302 553d 2bf5 3c3e a686 063f
000003b0: 8aed 1f3e 0d59 7bbd 59da dd3e d8a3 46be
000003c0: ba26 423d 9880 febd 9783 a3bc d5f3 06be
000003d0: cf10 88be 1c13 aebd b4f0 a03e cc38 0ebe
000003e0: c6c6 503e 0a21 a83e f571 673e 1a56 c53e
000003f0: cadc a03d 1dfd e8be 3206 aabe 6be5 33bd
0.3325516 -0.47555482 -0.38306686 -0.048105568 0.049423598 0.47716695 0.24381275 0.342584
0.4681495 0.14234377 -0.50617826 -0.33261752 -0.17327973 0.13586968 -0.22424315 -0.010330974
0.011442009 -0.075609595 -0.10332385 0.28200436 0.13352638 0.23312443 0.021250734 -0.55910325
0.26750073 0.26284644 0.07068576 0.3224971 -0.04951127 -0.17189163 -0.0799224 -0.013252873
0.030823871 -0.12617527 -0.03197101 0.1042628 0.3144229 0.6413143 0.8110577 0.07974549
-0.051674925 0.20374215 -0.08126706 -0.42181158 -0.30306923 -0.09585769 0.06346007 0.087927274
-0.17812963 -0.41642305 -0.2057528 -0.26253715 0.19133997 -0.0855749 -0.088861674 -0.0786951
0.0023562233 0.23538876 0.23338555 0.10158785 0.20987225 -0.49560958 -0.43629748 -0.059588708
0.014075882 -0.18148221 -0.12145924 -0.10400451 -0.25515738 -0.23423065 -0.2152648 -0.52963006
0.07666646 -0.07764107 0.035052367 0.31406358 0.90754485 0.7235206 0.7758303 0.89776474
0.43965766 0.15483195 -0.05511655 -0.49757862 0.56792504 0.5559519 0.24811803 -0.12892097
-0.06583099 -0.34721547 0.04816707 -0.046633497 -0.030756628 -0.015404998 0.120706834 0.8102861
0.022645876 -0.22720702 0.28557426 -0.046825834 0.01600556 0.2833697 0.45124426 0.24772075
0.19207424 -0.10861022 -0.22909391 -0.58999705 -0.23971114 0.27760184 0.31427667 0.17400366
0.07690322 0.2394577 0.12803508 0.05654502 0.03132858 0.07112673 0.19870938 -0.10209032
-0.020936608 0.5423878 -0.1271026 -0.14577708 -0.35827956 -0.26469794 -0.34213454 -0.06744732
-0.015010209 -0.014114058 0.40693837 0.4060008 -0.08774038 0.101807006 -0.13929364 -0.20049754
-0.47291517 -0.10635395 -0.27203086 -0.2778095 -0.3742216 -0.088740915 0.29914805 0.7628993
-0.34420612 -0.11047972 -0.48315316 -0.85653436 -0.7699931 -0.27386734 -0.34478223 -0.13687919
-0.010272632 0.35824424 0.23183464 0.37687284 0.016313266 0.10251466 -0.22992599 -0.36525434
0.11664231 0.3762954 0.118255086 0.021436868 -0.09820757 -0.19638903 -0.39776716 0.4690121
-0.032053217 0.49329793 0.23107009 0.37286136 0.11483713 0.32003433 0.43176427 0.5732964
0.30091628 0.28998864 0.404611 -0.21629289 -0.052655473 0.5138958 0.6591092 0.66899264
0.47360334 0.1949617 0.47710764 0.15853629 0.2242136 0.16217527 0.1991795 -0.10513027
0.059802033 -0.29435998 -0.13636294 -0.420851 -0.26909542 -0.26071236 0.11676842 -0.14009316
-0.07821414 -0.2736043 -0.42177877 -0.005300866 0.32678798 -0.4621879 -0.76394874 -0.29755858
-0.28491452 -0.04425443 -0.2708056 0.06926023 0.03310244 -0.21443772 0.072817296 0.83388805
-0.79013944 -0.9864951 -1.0031422 -0.87782806 -0.85229814 -0.65487295 -0.33168602 -0.13010979
-0.35450327 -0.6028972 -0.7699076 -0.1892734 -0.16404484 0.32053426 0.22629867 0.49467987
0.64793944 0.052004706 0.18452899 0.5254921 0.15617958 -0.061364222 0.4333065 -0.19398439
0.047400214 -0.12426871 -0.019960208 -0.13178952 -0.26575324 -0.084997386 0.31433642 -0.13888854
0.20388326 0.32837707 0.22602065 0.38542253 0.07854612 -0.4550561 -0.33207852 -0.043919962

reshape.bias f4 [48]
00000000: 747f d63d 03af 283d 88a3 273c 1e09 9fbd
00000010: 0e95 a1bd 200a 81be 9dbb 443e f8ed 2a3d
00000020: fe4e 50bd dc0a 983e 76ed 6f3e 4333 0cb9
00000030: 2281 6f3d 2633 383e 347c 633e e752 76be
00000040: 022c 4a3d 6c29 2e3e ceae 1ebd 38ae b73d
00000050: 7625 123e aedf cbbb 1082 893e 081b 283e
00000060: e13c 253e 3b29 1d3e bd84 7bbe ec16 ea3d
00000070: 0917 0a3e 163b 3ebe 73b4 793c d745 833e
00000080: 0705 f73a 42c8 83bd 7969 89be 05b2 babd
00000090: fd8a 883e 4275 173e 9238 3e3e 8461 39be
000000a0: 6726 7dbc 9c7f 373b 3b45 c73e 1ad4 b4be
000000b0: 9a98 e3be b79c 46bd e27e e03d 3332 b1be
0.104735285 0.04118253 0.01023186 -0.07765411 -0.07889758 -0.25203037 0.19212194 0.04173085
-0.050856583 0.29695785 0.23430428 -0.00013370537 0.05847276 0.17988262 0.22215348 -0.24055062
0.049358375 0.17007989 -0.038740925 0.089687765 0.14272103 -0.006221733 0.26857042 0.16416562
0.16136505 0.1534776 -0.24562354 0.11430153 0.1348535 -0.18577227 0.015240776 0.2563922
0.0018846103 -0.064346805 -0.26838282 -0.09115986 0.2666854 0.14790824 0.18576267 -0.18103606
-0.01545105 0.0027999645 0.38920006 -0.3531807 -0.44452363 -0.0484893 0.10961701 -0.3460861

lstm.weight_ih_l0 f4 [192, 48]
00000000: 733d 233e 47f3 24be c206 ef3c 91fb 193e
00000010: 6a71 e3bc 27db b7bd a9fb a5bb b193 a53d
00000020: 67ad 89be 5439 153e ea4c 073d 7751 38be
00000030: 9bc3 353c 6643 613e 48f5 c53d f771 51be
00000040: 383b cc3d f68f f13c 70b9 923e 98a1 2c3e
00000050: a9c4 4cbe d2b3 2cbe 6ed8 e43b eeaf 533e
00000060: 32bb d73c 0bc9 7a3d 0785 3abc 3aff 3b3e
00000070: 6cb8 613d 57f3 eebd 2c69 5bbe f332 bdbd
00000080: fe50 4cbd 42c5 af3e 79a1 23be 211c 3a3e
00000090: 5778 14bc 2a57 943d d906 303e be26 5bbe
000000a0: bcc6 043e a7d4 cf3d 97ab 70bd 9452 05be
000000b0: 8712 cf3c 5d27 cebe fecc e33c 7127 cfbe
000000c0: b14a 8c3e a34f 62be 34bd bb3d a5d7 003e
000000d0: 2f19 13be d22a 8ebe e622 80bd 3079 c73e
000000e0: df9d bebe 97a9 d03e 4d1f 9dbe 8341 95bd
000000f0: 7c15 8cbd bae8 983e 7f81 8cbd 222f 02be
00000100: c5a7 963e 3902 66bd 14a6 0b3f f1e4 6c3e
00000110: 59ff 86be cead 72be aa42 99bc 40ef ad3d
00000120: c0d7 e33c 9835 0dbd 73c2 033e 1466 423e
00000130: c8d0 7a3e 2648 a6be 4dff 6d3c 4765 8cbe
00000140: 5920 04be cca4 ae3e 17ae 94be ff0a 6a3e
00000150: 2071 a83e 65ec 463e b4f8 c0bd f0cf 9abd
00000160: 520e d83d e2c1 923c 468d 9a3d 65dd b13b
00000170: 0f2f b6bd 2bbb 3ebf 503b 68bd 789d b9be
00000180: f29c fe3e eaa4 0cbf 845e 463e 9714 76be
00000190: 4ea2 1fbe fb3d af3e 03e2 22be 3600 583e
000001a0: 20f4 1e3f 1e00 02bf bb02 85be 9475 8e3e
000001b0: e79f 7f3d 5532 95be 6570 56bf 9924 d93e
000001c0: 0d13 ba3e 16e9 f5bd b2f7 48bf 79ed acbe
000001d0: 60fe bc3e 573e b1be 45fe ac3d f7b7 dbbd
000001e0: cc6e 20be 0479 723e 6493 863f 91b6 44bf
000001f0: 9b6a 1abf 7837 00bf 891c cb3e 13da 6d3e
00000200: 0fbb 9b3d cb85 b23e dcd4 393f 9a58 64be
00000210: 2124 123f 1963 1f3e f42b 44be 4d84 013f
00000220: 497c 83be 3d4a c7be eb03 073f 1354 edbd
00000230: 66c7 f8bd ef2f 56be 97c9 85bf e08c 94be
00000240: 84a6 163e 9c0b 0dbe d1c3 25be a5fa 08bc
00000250: d771 323e 54eb c4be b32a d53d 54e5 f93d
00000260: 9837 8cbe b1e8 c83e afaa 5cbe b4f3 54be
00000270: dd3b 87bd 5a44 0a3d 5a65 c73d 2070 4e3d
00000280: 8390 6d3e 894e 093e 9579 d63e 5e21 e03d
00000290: 50e5 94be c65d 9dbe b133 013c 9cf6 813d
000002a0: 06c1 6cbe dadc 51be 6c21 3c3e cdad 2b3c
000002b0: 3b75 873e b34b 73be 5235 88bd f6e4 69bd
000002c0: 7133 3bbe bd12 c53e 3353 70be 2ad9 fa3d
000002d0: f00b 493e 5b93 423d 4f08 8a3d e912 26bd
000002e0: caa1 0b3a 51f5 0c3e 160e e33d cdc0 1bbd
000002f0: e53c 2e3d 2ddf 9abe e0d7 a2bd face 4ebe
00000300: e9cb b83d 2ec6 73bd 9ba1 3fbe 3e2c a3bd
00000310: 7359 073f e90e 7cbd de8b 713d 1319 883d
00000320: d513 87bd b250 b63e d753 10be e6c8 2fbe
00000330: f672 c23d 0c43 473e ed6b 473d bcc8 5fbe
00000340: 7c5b a43e 8d0f fe3c a222 b53e 9e7d 813e
00000350: 70c3 b9be ffb3 1bbf fc30 033d c429 9cbd
00000360: 4a3a f6bd 0ca1 a3be 4d56 4a3d 77fd d43b
00000370: d3f0 323e 649b 8cbe 7a39 f2be ea97 d13d
00000380: 5424 993d 163d 433e 87f6 2bbe b5de 033d
00000390: 7656 a53e 6dd4 3fbc cc9c c33d b3c6 debe
000003a0: 5583 b2bc f0f1 a93e 2db7 393d f492 3fbe
000003b0: d3ee b4bc 6400 0abf 5268 3b3e 6bd2 d4be
000003c0: dd73 1e3f 051b 6dbe f888 37bc 3822 7abd
000003d0: e930 25be 3a6a 0a3f 2781 0b3f 06e5 edbb
000003e0: 5ce4 083f d304 ddbd 6070 613e 1023 903e
000003f0: 847c bf3e 30e4 553d 7036 3ebe ae50 b5be
0.1594141 -0.16108428 0.029178027 0.15037371 -0.027764041 -0.08977347 -0.0050654006 0.080848105
-0.26890108 0.1457265 0.033032335 -0.17999826 0.011093999 0.21998367 0.09665924 -0.2045363
0.099722326 0.029487591 0.28657103 0.16858518 -0.19996895 -0.16865471 0.0069838082 0.2067258
0.026334379 0.061226886 -0.011384255 0.1835908 0.05510752 -0.11667507 -0.21426839 -0.092382334
-0.049881928 0.34330183 -0.15979566 0.18174793 -0.009061894 0.07243188 0.17190112 -0.21401498
0.12966436 0.10147982 -0.05875739 -0.13019782 0.02527739 -0.40264407 0.027807709 -0.4045978
0.27400735 -0.22100691 0.09166947 0.12582262 -0.14365076 -0.27767044 -0.06256656 0.38959646
-0.3722982 0.40754387 -0.30687943 -0.07287886 -0.06840035 0.29865056 -0.06860637 -0.12713292
0.29424873 -0.056154463 0.5455029 0.23134209 -0.2636669 -0.23699114 -0.018708546 0.08492899
0.027812839 -0.03447494 0.12867145 0.18984252 0.24493706 -0.3247692 0.0145262005 -0.27421018
-0.12902965 0.34110105 -0.2903907 0.22855757 0.32898808 0.19426115 -0.09422436 -0.07559192
0.105496064 0.017914716 0.07546477 0.0054280036 -0.088956945 -0.74504346 -0.05669719 -0.36252952
0.49729115 -0.5493914 0.19371992 -0.24031292 -0.15589258 0.34226975 -0.15906529 0.2109383
0.62091255 -0.5078143 -0.25978646 0.2782408 0.062408354 -0.29139963 -0.8376525 0.42410734
0.3634266 -0.12007348 -0.78502953 -0.33774927 0.36912823 -0.34617874 0.084469356 -0.10728448
-0.15667266 0.23678976 1.051373 -0.76841074 -0.6031892 -0.5008464 0.39670208 0.2322772
0.07604038 0.348677 0.7259042 -0.22299424 0.5708638 0.15565147 -0.19157392 0.505925
-0.2568076 -0.38923827 0.52740353 -0.115883015 -0.12147407 -0.20916723 -1.0452145 -0.2901373
0.14711958 -0.1377396 -0.1618798 -0.00836054 0.17426239 -0.3846079 0.10408535 0.12201944
-0.27386165 0.3924003 -0.21549486 -0.2079609 -0.06603215 0.03375659 0.09736128 0.0503999
0.23199658 0.13408865 0.41889635 0.10943864 -0.29081202 -0.30735606 0.007885859 0.06345865
-0.23120508 -0.20494404 0.18372124 0.010478449 0.26456627 -0.23759346 -0.06650795 -0.05710312
-0.18281342 0.3849086 -0.23469238 0.12248452 0.1963346 0.04750381 0.06739866 -0.040545378
0.00053265376 0.13765456 0.11086671 -0.038025666 0.042538542 -0.30248395 -0.07951331 -0.20196143
0.09023268 -0.05951517 -0.18713991 -0.07967423 0.52870864 -0.061537657 0.05897128 0.066454075
-0.065955795 0.3560844 -0.14094482 -0.1716648 0.09494583 0.1945917 0.04868691 -0.21853918
0.32101047 0.031013275 0.35377985 0.2529115 -0.3628192 -0.6082153 0.032029137 -0.07625154
-0.120228365 -0.31958807 0.04939871 0.006499942 0.1747468 -0.27462304 -0.47309476 0.102340534
0.07477632 0.19066271 -0.16793261 0.03219481 0.32292527 -0.011708361 0.09551391 -0.4351097
-0.02179114 0.33192396 0.045340706 -0.18708402 -0.022086537 -0.53906846 0.18301514 -0.41566786
0.61895543 -0.23154838 -0.0112020895 -0.06106779 -0.16131939 0.5406834 0.54493946 -0.0072599677
0.5347345 -0.10791936 0.22015524 0.2815175 0.37399685 0.05221957 -0.18575454 -0.35413116

lstm.weight_hh_l0 f4 [192, 48]
00000000: d2f1 f03d 4d89 67be a822 273e 95fd 5b3e
00000010: a414 2e3e bd50 913d 4ccb 6cbe 8c9b 263d
00000020: f040 7ebe 1e2f 55bb e362 463e bd4d b63e
00000030: 8647 253e 4e52 ad3d d58f 51bf 5f9b b6bd
00000040: e5d2 d83d 17bf cf3d 85fd d33d 460a 2e3e
00000050: 247e 32bd 3df7 19bd 5f8b e63d 919a 043c
00000060: dd84 7c3d 3f12 13be 2eee 09be 515c febd
00000070: f4b1 fc3e ae3e 7fbe 21b3 3dbe 1b83 e53c
00000080: 8b33 b93c 71f6 3ebc 06b9 9d3c 22db 0f3e
00000090: 5128 303e faac e3bd 0463 48bc 5e10 813d
000000a0: 9965 8b3e 2da2 0cbe 4fca 803e 05b6 213d
000000b0: 6c53 64bd 6a0e b1bd 0a41 463e 2a19 91bd
000000c0: 91b4 063e b212 4ebd 42b2 613e 22e1 4a3b
000000d0: 7b87 843e bda3 fc3c 0993 75be 39f9 3c3e
000000e0: ce7b 3ebe 55ce 85bd 7d78 7a3e 41f4 813d
000000f0: 521f f03d 3b33 97bd e701 e9be a207 48be
00000100: a34f 013e 31f2 503e 35b7 3e3c c81e 823e
00000110: e51c 963c 45cb 493e cacf 1b3e f18c 3f3e
00000120: ac4a 1ebd e559 223d 78f5 53be 3b28 a8bd
00000130: e5e7 373f 6691 1abe b70b b5bd 03d0 e7bd
00000140: de4a c2bd 8f18 493c d3bc 47bc 02bb 803e
00000150: 6504 b43d d220 1cbe 9b67 61be ecd2 123d
00000160: f3a6 b13e 91d8 2ebe 7839 b03e 4c4f 363e
00000170: dc61 11be 5989 eabc 9ee2 4e3e d29d 68be
00000180: b005 a83e 166c 6dbe 3fb1 683d 08cf 703e
00000190: 5669 d23e f781 50be 73e7 50be a708 8a3e
000001a0: c530 7bbe acea 3cbe 7d6e 2a3e 6081 e03c
000001b0: 8eb6 803c 5b6a 43bb e02c 72be 35fa 17bd
000001c0: 4a22 813e 3302 bb3e 2276 453e c009 b83e
000001d0: aece 3dbd ad25 103e 567c 623e fe15 8e3e
000001e0: e358 f03d c2c1 e43b 11fe 24be 928c 0cbf
000001f0: 4942 403d c8c6 8abd 4da2 5bbe 76f2 913e
00000200: c608 c43d 5aea a93d 4f86 31bb b30c 833e
00000210: 46cc adbd 5746 023c f4c1 5dbd f7af 453e
00000220: bfd7 d23e 55f5 47be 5a56 aa3e 982f 063e
00000230: 9aef 34be b19a e7bd 1668 f73d 5fe6 8bbe
00000240: eb31 5f3e fd66 b1be 86fa 333e 9cb1 943e
00000250: 8497 f83e 4746 10be 40d6 87be d40f 163e
00000260: 3684 81be 4fef bebd 9936 2d3e af3a 5cbc
00000270: 68a8 22be c270 11be 42b0 6abf da4c e3bd
00000280: d157 503e 8655 ff3d eb3a fe3d 123e 3a3d
00000290: 7b22 0bbe f5cb 563e 32ab d73d 3021 0abd
000002a0: 89a4 5a3e 7d7f fa3d 086f 95be 778a a5be
000002b0: f39c 353f 1822 b4be 5866 9dbe fc9b f13e
000002c0: 2c89 213e 8cbb 7f3e 3c51 2a3d 127d 303e
000002d0: 891f 0e3f f481 afbd 11d7 87be 496e 313d
000002e0: cada ae3e fe1e 36bf 7360 053f f005 b9be
000002f0: b3e9 cabe adf7 843b 29fb 293e 6a7c e93c
00000300: 7a84 dc3c f376 66be fd4b 923e 2f94 e13d
00000310: ec8a 243d 95c6 d1be 7dac 44be a437 e93d
00000320: d067 39be df14 3fbd 19b3 873e 6396 e9be
00000330: d7ec 713e 88b2 c4bd 1ec9 2dbd cb23 afbe
00000340: 2468 d33e 3e83 af3e 71e7 3f3e d829 8a3c
00000350: a8f1 32bd 8628 9a3e 7488 853e 9e47 ae3e
00000360: 41be ad3e 5091 e5be 6a54 f1bd 3403 e6be
00000370: 09b6 943d 775f fbba 1f37 bfbd f971 1d3e
00000380: 34c6 10be e09f 4c3e 4e0d debe 6ea0 0cbe
00000390: ea1a 043d cce2 06be c0e7 12bd 8e93 aabb
000003a0: b05a 5b3e 2cb6 d53d f041 173e 8a15 07bf
000003b0: 1f15 2ebf 3c09 d6bd 7280 203e 14be cdbe
000003c0: b6ce 24bf 6e4a e93e 7422 8b3f b57c 8abe
000003d0: 2c62 0e3f 17dd 02be 128f ce3e 6694 8ebf
000003e0: 1327 2abf 4675 acbf 80d4 3bbf fca0 933f
000003f0: 8148 833f 3b7a a7be 8d87 03c0 d5e6 c7bf
0.117648736 -0.2261097 0.16321814 0.21483453 0.17000061 0.07095478 -0.23124427 0.040675685
-0.24829459 -0.0032529305 0.1937366 0.35606185 0.16140565 0.08462964 -0.81860095 -0.089163534
0.105871 0.10143869 0.103510894 0.16996107 -0.04357733 -0.0375893 0.11257052 0.008093492
0.061650146 -0.14362429 -0.13469765 -0.12419952 0.49354517 -0.24926254 -0.18525364 0.028016618
0.022607585 -0.011655436 0.019253265 0.14048436 0.1720288 -0.11116977 -0.012230638 0.0630195
0.2722595 -0.1373374 0.2515435 0.039480228 -0.05574362 -0.086453274 0.19360748 -0.07084878
0.13154818 -0.050310798 0.22040656 0.0030956944 0.25884613 0.030839795 -0.2398187 0.18454446
-0.18601915 -0.06533495 0.24460025 0.06345416 0.11724724 -0.07382818 -0.45509264 -0.19534162
0.12628035 0.20404889 0.01164036 0.2541411 0.018324325 0.19706447 0.15215984 0.18706109
-0.03864543 0.03963651 -0.20699108 -0.08210798 0.7183822 -0.15094528 -0.08840125 -0.11318972
-0.09486936 0.012273922 -0.012191015 0.25142676 0.08789901 -0.15246895 -0.22012179 0.035845682
0.34697685 -0.17074801 0.34418845 0.17803687 -0.14197487 -0.028629946 0.20203635 -0.22716454
0.3281684 -0.23185763 0.05680966 0.23516476 0.4109599 -0.20362078 -0.20400791 0.26959726
-0.24530323 -0.18448895 0.1664371 0.02740544 0.015712049 -0.0029818031 -0.23649931 -0.03710385
0.25221473 0.36525115 0.19283345 0.3594494 -0.046339683 0.14076872 0.22117743 0.27751154
0.11735704 0.0069811055 -0.16112544 -0.54901993 0.046938214 -0.06776196 -0.21448632 0.28505296
0.09571986 0.08296652 -0.002708811 0.25595626 -0.08486228 0.007951341 -0.054140046 0.19305407
0.41180226 -0.1952718 0.33269006 0.13104093 -0.17669526 -0.11308802 0.120804 -0.27324197
0.21796386 -0.34648886 0.17576036 0.29041755 0.48553097 -0.14089309 -0.26530647 0.14654475
-0.2529618 -0.09322988 0.16915359 -0.013441726 -0.15884554 -0.1420317 -0.916752 -0.11098643
0.20346 0.12467484 0.124135815 0.04546935 -0.13587372 0.20976241 0.105307 -0.033723056
0.21351828 0.12231348 -0.29186273 -0.32332203 0.7094261 -0.3518226 -0.30742145 0.4718932
0.15774983 0.24973887 0.041581377 0.1723521 0.5551687 -0.085697085 -0.2653127 0.043318067
0.34151298 -0.7114104 0.52100295 -0.36137342 -0.39631423 0.0040578456 0.16599716 0.028501708
0.026918638 -0.22506313 0.285736 0.11014592 0.04017155 -0.4097182 -0.19206424 0.11387566
-0.18106008 -0.046650764 0.26503828 -0.45622548 0.23625503 -0.09604365 -0.04242813 -0.34206995
0.4129039 0.34279817 0.18740632 0.016865656 -0.043687493 0.30109042 0.26080668 0.34039015
0.33934215 -0.44837427 -0.11783679 -0.4492432 0.07261283 -0.0019178231 -0.093366854 0.15375508
-0.14138108 0.19982862 -0.43369526 -0.13733074 0.03225223 -0.13172454 -0.035865545 -0.005205578
0.21421313 0.10435137 0.14771247 -0.5276724 -0.6800098 -0.1045098 0.15673998 -0.4018408
-0.64377916 0.45564598 1.0869889 -0.2704827 0.5561855 -0.12779652 0.4034353 -1.1139038
-0.6646587 -1.3473289 -0.73371124 1.1533504 1.0256501 -0.32710442 -2.0551484 -1.5617319

lstm.bias_ih_l0 f4 [192]
00000000: 5dee dc3d d92d cc3e 362e 2bbe 03a2 b43d
00000010: 203a a33e efd6 34bf e05d ad3e 29df 713d
00000020: 3b69 cc3e 953c ba3e 742b 473e 09f6 953e
00000030: 55b7 5b3e 563f 0abe 8df3 4a3f e38c 553e
00000040: 1c6d 7e3e a8e5 38be 27df 573e dda1 f2bc
00000050: abcf 8bbe c154 603e 7838 113d 628b 0b3e
00000060: e63d 973e c8f6 7d3f 5a72 52be c406 c53e
00000070: be4f e33e 64bd 87bd 6e11 183e 4ec6 3bbe
00000080: cdee ae3e 03e6 5c3e 6f3d b4be ee92 f93d
00000090: d25f 13bf 538d 573d f132 9d3e 2a3c b63e
000000a0: be3e 513f b0d5 1a3e 9bca 2d3e b26d 793d
000000b0: 2697 f53e 998c 643d 5711 1b3e aa6b ff3c
000000c0: 949d 483e 1699 873e 7bfe 203c 9fe5 683e
000000d0: 0643 5c3e 268c ae3e 3817 193d 3474 c23c
000000e0: 7bba 143e fe31 803e a59d 753e 9532 b0be
000000f0: b4b9 f2be abf0 563e f5bf 17be 35bc e23e
00000100: 631b 623e 3586 873e 9986 8d3e 273d 6b3e
00000110: a987 14be 7d61 ab3d 6d90 123e 1fc4 75be
00000120: a396 4f3d e755 623f 9153 c43e 8f69 a73e
00000130: 5524 73be 8a3e 86be 3497 8f3e 2cb1 8ebe
00000140: 30d2 2ebf e30e f03d 24e0 01be 3135 723e
00000150: 210d 93be a7d5 273c d41b 8b3d a8c3 d93d
00000160: d4a2 333f 806c 8ebe d75c e8be 58bd 953e
00000170: c839 d03e 314f 7dbe 95d4 803e 866e c63d
00000180: 8e76 383e f6cf 8cbe 3ed2 cf3d 39b4 8dba
00000190: f93d e53e 18c2 e0bc 18d3 83be 1cce ab3e
000001a0: 2322 35be 9f84 95be 8c0e be3d 4037 d33e
000001b0: aa51 ce3e 6608 8fbd 2fd7 fdbe 74fd a7be
000001c0: 8e83 9b3e d341 48bd 1924 e13e 9666 6c3e
000001d0: f478 f23d 61a5 473d cc18 dc3e deaa 893e
000001e0: 7031 823e 30a6 923c 0023 9cbc c2d1 cbbe
000001f0: 2707 1a3f db16 35bf 99e5 92be b825 863e
00000200: 74f1 40bd b0c6 a13e 6e0f bbbd 67ad 8f3e
00000210: 4a48 553e e6b2 ddbd 37d0 12be a596 893e
00000220: 2a18 313f b326 fbbd 31ad 1f3e 56ca 19be
00000230: 53d5 13be d10f b33d 60d2 1f3e 39d7 50be
00000240: e686 dd3e d141 a73e dbfe 06bd 05c9 203f
00000250: c301 fd3e d586 c93d 7b08 1a3f 2070 8f3e
00000260: c1a3 5d3e bd51 e53e b9d1 2c3f 4f9a 983d
00000270: 2c05 09bf 151e 913e 07c2 863f 6b27 dd3e
00000280: f418 9c3e 9bd0 99be 0b3f 0b3d 2dc5 f53e
00000290: b07c e7be 330d e63e 17e1 4dbe 8350 8e3e
000002a0: 9788 0f3e dbb2 b4bd 1dad 093f 54f5 323e
000002b0: 0f3f 2e3f 3033 003f 2bbb 0f3f 87bc 973e
000002c0: 4e99 843e fe29 053f 820c 2b3e 8409 903e
000002d0: 0a08 303e f5e5 bebe 11b8 d73d ced0 0a3f
000002e0: 825b 423f f22e fc3d 4d90 143f 69e0 313e
000002f0: 52d3 d33e a19b 923c 6f33 043f b768 9c3e
0.10787652 0.3987873 -0.16716847 0.08819964 0.31880283 -0.7064046 0.33860683 0.059050713
0.39924034 0.36374345 0.1945017 0.29289272 0.21456654 -0.13500723 0.7927788 0.20854525
0.2484631 -0.18056357 0.2108122 -0.029618198 -0.27306876 0.21907331 0.035454243 0.13627389
0.29539412 0.99204683 -0.20551434 0.38481724 0.44396776 -0.0662792 0.14850399 -0.18337366
0.34166566 0.21572118 -0.3520312 0.12186228 -0.57568085 0.05262501 0.30702928 0.35592777
0.8173636 0.15120578 0.16971819 0.06089563 0.4796688 0.055798147 0.15143333 0.031179268
0.19591361 0.26483983 0.009826298 0.22743843 0.21509942 0.340913 0.03737566 0.02373705
0.14524262 0.2503814 0.23985918 -0.3441359 -0.47407305 0.20990245 -0.1481932 0.44284216
0.2208076 0.2646958 0.27641752 0.22972547 -0.14504875 0.08368204 0.14312907 -0.24000596
0.050680768 0.88412327 0.38345006 0.32697722 -0.23744328 -0.2621959 0.28045046 -0.27869546
-0.6828947 0.117215894 -0.12683159 0.23653103 -0.28720954 0.01024381 0.06792417 0.106330216
0.7017033 -0.27817154 -0.4538333 0.2924602 0.40669084 -0.2473724 0.25162187 0.096890494
0.18013975 -0.27502412 0.101475224 -0.0010811157 0.44773844 -0.027436301 -0.2574699 0.33555686
-0.17688803 -0.29202744 0.09280118 0.4125309 0.4029668 -0.06984024 -0.49578235 -0.32810557
0.30373806 -0.0488909 0.43972853 0.23086008 0.11839476 0.048741702 0.4298767 0.26888174
0.25428343 0.01790151 -0.019059658 -0.3980847 0.60167164 -0.70738 -0.28690794 0.26200652
-0.047105268 0.315969 -0.09133802 0.28061983 0.20828357 -0.10825138 -0.1433724 0.26872745
0.69177496 -0.12263241 0.15593411 -0.15018591 -0.14436845 0.08743251 0.15607595 -0.20394601
0.43266982 0.326674 -0.032957893 0.6280673 0.49415407 0.0984017 0.6016919 0.28015232
0.21644498 0.44788924 0.6750751 0.07451307 -0.53523517 0.28343263 1.0527962 0.43194136
0.30487788 -0.30041966 0.03399567 0.48001996 -0.45212317 0.44931945 -0.20105396 0.277958
0.14016949 -0.088231765 0.53779775 0.17476398 0.6806497 0.50078106 0.5614497 0.29636022
0.25898212 0.520172 0.1670399 0.2813226 0.17190567 -0.37284818 0.10533155 0.5422486
0.7592088 0.123136416 0.58032686 0.17370762 0.41372162 0.017896475 0.5164098 0.3054864

lstm.bias_hh_l0 f4 [192]
00000000: 385a 2b3e 6867 b13e 6e0f 3bbe c7b6 b43e
00000010: bac2 293e e545 21bf 415d da3d 769e 543e
00000020: 6a32 ae3e 5625 633e 703d 7d3e 8a0a d63e
00000030: 566e 2f3e 5ee0 1abe ffa5 493f 6d26 e43c
00000040: 3c80 7f3e 6812 efbd 9571 383e 0f59 983c
00000050: 0182 86be 479f e83d d24e e13c a65c 773e
00000060: e7d0 933e 75a8 9a3f 5ba4 36be 6061 d03e
00000070: c413 063f 20b0 14bd 56b1 d83d 7de4 89be
00000080: f56d cc3e 0372 923e f124 84be 13ef 983e
00000090: d6b8 1bbf a36c febd 63a3 8c3e 808f 8e3e
000000a0: 15ab 513f 5739 a23e 92d2 093e 93fe a7bd
000000b0: b4e5 0c3f 6657 063e 568e b33e 14bd 1c3e
000000c0: 7bce 1c3e 40a7 733e 4782 353e 82b6 fd3d
000000d0: ed4f 9a3e 660a 473e ba98 7b3e 2aff 773e
000000e0: 3683 f73d 6afa 593e 2d0b 1f3d e7e9 87be
000000f0: d2ce e1be 3fc6 f03d 858a 903c 08d3 cc3e
00000100: 437d 6e3e 66da b33e edf4 3e3e d49f 913d
00000110: b99f 9abe e1f5 c23b 49f4 96b7 ef8f 08bb
00000120: 4f72 9f3e befb 5f3f de62 d53e 6ed2 4e3e
00000130: 31fc 19be 2a3a 6abe 7a5e 6a3e 0ba0 4bbe
00000140: 02eb 3fbf de9c c83d 97ff 3abd 3a39 373d
00000150: 393d 6fbe 4261 c1bc f347 8b3e 8ff4 4f3e
00000160: d942 2e3f 7725 1abe 3147 d6be cf83 763e
00000170: 6bae fe3e f5b7 83be cd66 5e3e 6728 bd3d
00000180: ce8d 5f3d 96b8 6abe 7b69 a13e 069f c53c
00000190: 41a7 ba3e 9ac5 a9bc 7841 43be 9bc4 d83e
000001a0: 3b8b 7ebd 647e b0be 2fba 313e e98f bd3e
000001b0: 3619 4d3e 5101 8c3d 9b1d bdbe cb48 87be
000001c0: b14a a43e 6409 623e 0957 b93e 4a4e 8a3e
000001d0: bb97 2e3e 8d76 163e 2d18 843e d00f bd3e
000001e0: b475 683e 147e 4e3d 516f bfbd fbd0 dfbe
000001f0: ca2e 2a3f 87f4 3ebf c54a 79be 6122 663d
00000200: 013a 89be b02d da3d 8b76 a93d e659 983e
00000210: a343 763e 44b7 ebbd d068 24be 3bfc 5b3e
00000220: 7a28 f43e 2066 98be 02fe 903e b418 b5bd
00000230: 8d52 1dbe dc48 6d3e 7249 753e 2f06 58be
00000240: cfb5 c93e 3bf0 a63e 508d f23c 45b9 353f
00000250: c6cf 853e 5580 863d 3d85 f53e 8edf a03d
00000260: f276 193e 47ea bb3e 2664 203f ca6f 833e
00000270: c391 12bf afdc 333e 7a0b 7e3f 2360 073f
00000280: 444e 083f ec9e f9be f760 193e 0453 9e3e
00000290: 1b10 8bbe 21ee 1c3f 0245 09bb c6d5 2d3e
000002a0: 3b43 7e3d a298 a23d 00cb 0a3f 1c65 543e
000002b0: 0dab 263f 2eac ec3e 3c6a f43e 0019 c03e
000002c0: 68ca 383e bf88 f43e 8f02 893e 5547 a93e
000002d0: a875 043e b568 59be feb7 643e 461b 143f
000002e0: 2032 333f 36e9 c03d 9b01 3f3f ebe5 27bd
000002f0: 3b17 ea3e 6c3c a03b 08c9 f23e 017d 7b3e
0.16733634 0.34649205 -0.18267605 0.35295698 0.16578189 -0.62997276 0.10662318 0.20763573
0.34022838 0.22182211 0.24730468 0.41804916 0.17131934 -0.15124652 0.78768915 0.027850354
0.24951261 -0.116734326 0.18012078 0.018597154 -0.2627106 0.11358505 0.027503405 0.24156436
0.28870317 1.2082659 -0.17836134 0.4069929 0.5237391 -0.03630078 0.10580699 -0.26932135
0.3992764 0.2860261 -0.25809434 0.298699 -0.6082891 -0.124230646 0.27468404 0.27843857
0.81901675 0.31684372 0.13459232 -0.08202853 0.55038 0.13119277 0.3506953 0.15306503
0.15313141 0.2379427 0.17725478 0.12388326 0.30139104 0.1943756 0.2456998 0.24218431
0.120855734 0.21286932 0.038829017 -0.2654564 -0.44103104 0.117565624 0.017644176 0.40004754
0.23289971 0.35127562 0.1864812 0.07110563 -0.30199984 0.005949721 -1.7995148e-05 -0.0020837744
0.31141898 0.87493503 0.41676992 0.2019746 -0.1503761 -0.2287375 0.22887602 -0.1988527
-0.7496797 0.09795545 -0.045653906 0.04473231 -0.23363198 -0.023605946 0.2720333 0.20308135
0.6807075 -0.15053354 -0.4185119 0.24073718 0.49742445 -0.25726286 0.21718903 0.09236222
0.054578595 -0.22921976 0.31525788 0.02412368 0.3645573 -0.020724107 -0.19067943 0.42337498
-0.0621445 -0.34471428 0.1735618 0.37023857 0.20029148 0.068361886 -0.3693665 -0.26422724
0.32088235 0.22073895 0.36199215 0.27012855 0.17050068 0.14693661 0.25799695 0.36926126
0.2270115 0.050413206 -0.09347404 -0.43714127 0.66477644 -0.7459187 -0.24344929 0.05618513
-0.26802066 0.106532454 0.082745634 0.29756087 0.24049239 -0.115095645 -0.16055608 0.21482937
0.4768713 -0.29765415 0.28318793 -0.08842602 -0.15363522 0.23172325 0.23953798 -0.21096109
0.3939652 0.32605156 0.029608399 0.70985824 0.2613508 0.06567446 0.47953215 0.0785514
0.1498678 0.36702177 0.62652814 0.25671226 -0.57253665 0.17564653 0.9923626 0.5288107
0.53244424 -0.4875406 0.14978395 0.3092271 -0.27160725 0.61300856 -0.0020945673 0.1697608
0.062075835 0.07939269 0.54216003 0.20741695 0.6510475 0.46225113 0.477373 0.37519073
0.18045962 0.4776058 0.26759765 0.33062235 0.12935507 -0.21231349 0.22335812 0.57854116
0.6999836 0.094194815 0.74611825 -0.04099075 0.45720848 0.0048900153 0.47419 0.24559404

lstm.weight_ih_l0_reverse f4 [192, 48]
00000000: 2fae 613f ecab 65c0 86ef 14be 7e5e 723d
00000010: a0e9 06bc 3151 cebd e01b 563f 1f57 9abe
00000020: ed9f 103f d700 90bf 6a5c 8a3e ba8d 313e
00000030: 73cd 313f 70bd 45be 5232 9c3e 299a e33d
00000040: a2c8 49bd 7049 22be 6a28 04bf dc9b 6d3f
00000050: 9836 7a3f 5eb4 8e3e 32c1 4d3e bb7b b2be
00000060: 3a85 463c d9a4 dc3e 881b a13e 7072 5a3e
00000070: 115f 8abf cf5d 51be 18ed ff3e 2385 023f
00000080: a831 b8bf 9055 ae3e 3893 cd3e d59d e53d
00000090: ddcf cbbd 9673 333d 4c4a a53e 5409 253f
000000a0: d267 89bd aa0c b2bd 928a ed3e 9f2a 6bbe
000000b0: ffc1 713d 23a0 eb3e 11fd 233e 0d78 993e
000000c0: 3700 6f3e 087a 0ebe 33ee ab3c cd24 56bd
000000d0: d7cd 49be 5aae 22bf 43db a73f a2bb 973e
000000e0: 9bc6 40be ca47 d63a 05a4 18bf 9f17 a6be
000000f0: fc51 433f c7b6 b13e 17c3 2fbf 22e5 63bf
00000100: 540f 26bd 561b a33e 94da 5bbe 057c 933f
00000110: af20 3abf 3b4d 253f 36e5 a73e 056c d1be
00000120: b392 fdbe 3891 dc3e 2fef 81bf 0f28 1b3e
00000130: 3a32 9a3f bec7 f5be 651b a73f 8de6 6bbf
00000140: c864 69bf 40ee e83d a282 d73d 6e14 263f
00000150: 5b99 273e e10d a3bd a936 fabe 3d91 473f
00000160: 6d93 353f fe53 cebe 469b 813e e944 ad3e
00000170: beca ed3d 9a5c 293e 1d89 06bf 2ca7 babe
00000180: b35f 75bf 7820 f33e aef8 c3be b528 a1be
00000190: 3eb5 72be ebdf c2be 7470 763e 2174 bbbb
000001a0: 9e67 98be a2ea 3c3e d755 b8be 6989 6b3d
000001b0: 4bad 9c3e c926 953d 3cd6 f03d 4d03 de3e
000001c0: 9a08 01bf 6e24 1d3e ad68 8e3e e167 60bd
000001d0: 00e8 2abf bdde 2a3e e885 ab3d 88e6 bbbe
000001e0: e26e 613d 2f8f d53d d13a 0a3f e5e3 593c
000001f0: 7327 833e cd4b 8cbd 1ae2 a9be 3642 84be
00000200: 156f 5e3e 1ba4 403e 7bbf a6be 385e 85be
00000210: b6fc 4abf ff8d 633e 70de 6c3d d8a5 563e
00000220: 432b 953d 7a14 c93e 37ce 33bf 8004 0d3e
00000230: cf32 c33e d3e8 90be 276c 733e a13e aabe
00000240: 28a4 0dbe f7ef 3a3e 8e54 08bf 7c45 e2be
00000250: d956 cdbd ee6e 66be c725 46be b6b8 153d
00000260: cc52 113e 765f 293f 795f 9a3d 3611 6bbe
00000270: 8dae 4fbe 3923 03be 09b7 abbd 2923 bd3e
00000280: 7ad9 14bf 6bac 6bbd 268c 16bf 1419 59be
00000290: b9a1 d0be f5eb 2cbe e06c 343d ac5a 46be
000002a0: 8bef 773e 7efb 733e 12bb b63e f50a 06bf
000002b0: 8f30 08be 08a2 b73e c2dd c6be d45b 0a3f
000002c0: 40e4 1c3f bbf3 483c 78e6 8c3d 5203 3d3e
000002d0: ea2d 213f 22c0 abbd eb4c 7d3e 10a7 41bf
000002e0: 2009 c6bd 1f1d a8be e729 7b3e b40e 103f
000002f0: bf6b 323f 38a2 71bf 32e1 58be f3ae 3dbf
00000300: 3caf 2a3e 5664 223e 3623 163f 00c2 093f
00000310: 4266 99bf b13d 62be 6454 20be 2ad2 bfbd
00000320: 9c8b 3abe 72ef 5d3f 90e2 3cbe 23d4 70bf
00000330: ede3 5cbe d840 07bd 3852 0e3e a10d e03d
00000340: 26b0 7abe 7a55 46bf e08c 02bf cf4d 3dbe
00000350: 13af 8a3e 5e0f 8c3f cd41 e13e 45d1 2a3e
00000360: 0a6f ca3e af4e 643f 6510 183f c52c 10bf
00000370: bfa1 24bf baf3 263f f800 8f3d 7221 be3d
00000380: 70ff 583f 4956 27be 8b80 52bd 4353 9d3d
00000390: f614 2ebe 8052 d03e eae9 fabc 7a7c 313c
000003a0: b840 3abe 2875 14bf 339f a9be 3d38 f63b
000003b0: ef32 96be 4c31 42bf 0ed0 ebbe 283d ba3e
000003c0: 2c38 1b3e 879a 41be 2b99 f5be a7a8 2bbe
000003d0: d944 e73e 273e c23d 66a4 1f3f 755b 063f
000003e0: 4107 f73e 1c8f ac3d 295c 9d3e 62b2 5a3b
000003f0: 887a 2c3f 396f 7d3e 68c4 2fbf bf00 24be
0.8815641 -3.5886183 -0.14544496 0.059172146 -0.0082344115 -0.1007408 0.83636284 -0.30144593
0.5649403 -1.1250256 0.2702363 0.1733922 0.69454116 -0.19310546 0.3050714 0.11113388
-0.049263604 -0.15848327 -0.51624167 0.9281595 0.97739553 0.27871984 0.2009323 -0.34860024
0.012116725 0.4309452 0.31466317 0.21332717 -1.0810262 -0.20445941 0.49985576 0.509844
-1.4390154 0.34049654 0.40151381 0.11211745 -0.09951756 0.043811403 0.32283247 0.6446736
-0.06709255 -0.08693822 0.46394783 -0.22965477 0.0590229 0.46020612 0.16014506 0.29974404
0.23339926 -0.13913739 0.020987606 -0.05228119 -0.19707428 -0.6354729 1.3113788 0.2963534
-0.18825762 0.0016348299 -0.59625274 -0.32439896 0.76296973 0.3470976 -0.6865706 -0.89021504
-0.04054196 0.31856793 -0.214701 1.1522223 -0.7270612 0.6457097 0.32792062 -0.40902725
-0.49525985 0.43079543 -1.0151118 0.15152 1.2046578 -0.48003954 1.3055235 -0.9214867
-0.91169405 0.113735676 0.10522963 0.64874923 0.16367094 -0.079616316 -0.48869827 0.7795599
0.7092808 -0.40298456 0.25313777 0.33841637 0.11610936 0.16539231 -0.5255297 -0.36455667
-0.9584915 0.4748571 -0.38275665 -0.3147637 -0.23701951 -0.3806146 0.24066335 -0.0057206308
-0.29766554 0.1844888 -0.3600299 0.05750409 0.30600962 0.07282788 0.11759612 0.43361893
-0.5040375 0.15345928 0.27814236 -0.054786567 -0.66760254 0.1668653 0.0837515 -0.3669932
0.055037387 0.10427701 0.53995997 0.013298963 0.25616035 -0.06850395 -0.33180314 -0.25831765
0.21722062 0.18812601 -0.32567963 -0.26048446 -0.79291856 0.22222136 0.05782932 0.20961702
0.07283642 0.39273435 -0.70236534 0.13771248 0.381247 -0.2830263 0.23771726 -0.33250907
-0.13832152 0.18255602 -0.5325402 -0.44193637 -0.100263305 -0.22503254 -0.19350348 0.036553107
0.14191741 0.66161287 0.07537741 -0.22955784 -0.2028143 -0.12806405 -0.083845206 0.36940888
-0.5814434 -0.057537477 -0.588076 -0.21200973 -0.40748385 -0.16886885 0.044049144 -0.19370526
0.24212472 0.23826405 0.35689598 -0.5236047 -0.13299774 0.35865808 -0.38841063 0.5404637
0.6128578 0.012265141 0.06879896 0.18458298 0.62960684 -0.08386256 0.24736373 -0.7564554
-0.09669709 -0.32834718 0.24527703 0.56272435 0.6969566 -0.9438815 -0.21179655 -0.74095076
0.16668409 0.15858588 0.5864748 0.53811646 -1.1984332 -0.22093846 -0.15657192 -0.093662575
-0.18217319 0.8669349 -0.18445802 -0.94073695 -0.21571322 -0.033020824 0.13898551 0.109400995
-0.24481258 -0.77474177 -0.5099621 -0.18486713 0.27086696 1.094219 0.43995515 0.16681392
0.3953784 0.8918256 0.59400016 -0.5631831 -0.64309305 0.6521565 0.06982607 0.09283723
0.84764767 -0.16341509 -0.05139212 0.076818965 -0.17000183 0.40687943 -0.030629117 0.0108329
-0.1818875 -0.57991266 -0.33129272 0.0075140283 -0.29335734 -0.7585647 -0.4605717 0.36374784
0.15158147 -0.18906604 -0.4796842 -0.16763555 0.45169714 0.09484511 0.6236023 0.524833
0.48247722 0.084257334 0.30734375 0.0033370485 0.6737447 0.2474946 -0.6865907 -0.1601591

lstm.weight_hh_l0_reverse f4 [192, 48]
00000000: 01d1 e6bf b9d7 843f 1dde 80be 71ae 1bbf
00000010: 9a1d 0b3e 5a57 2f3f 750b 9f3f c651 c3bc
00000020: a3e9 843e 8d8b 66bf 917d 9b3d 9437 aabd
00000030: 7aa7 1fbe 5568 7abf 63d0 8cbf 9aa2 6f3f
00000040: 6bd3 38bf c741 14be a282 5f3e 5aa4 49bc
00000050: 7317 f6bc 26dc 6f3d 5594 70bf a574 b33e
00000060: 3382 8dbe b711 03bf b513 eebd adff 0bbf
00000070: b3d6 263f 8c08 ccbe a8b9 81be 6103 673f
00000080: c484 5bbf 6832 c13f b35c 703f 3ef7 68be
00000090: db27 55be 89ee 32be 7db3 c3be 42b9 b6be
000000a0: 6a8e 8abe ce8e 45bf 55fe cd3d a58e db3e
000000b0: 7c21 c1be cdea c1be a6e1 8c3e 4ead 153e
000000c0: 4219 5a3e 0279 75bf c95e 9cbf b044 aabf
000000d0: ff60 873e eb37 c83c 966e dc3e 2482 10bf
000000e0: 8218 b33e 7da9 793e 536c d43e 5ecc a7bf
000000f0: 5afd b9bb 2b15 01c0 4bba ac3f 090f fe3e
00000100: 03a5 603f db5c aa3e 40eb 91bf 46e6 6abf
00000110: e42b 7bbf 243d bc3c f7d7 fb3e 02ef a63e
00000120: f800 7ebc f345 4f3f d86c 33bf 9f27 5f3f
00000130: 2c40 9e3f ea5b b3bf cefa 983f abe1 42bf
00000140: 73fe b63e 6050 c33f fb85 9cbf a9c8 333e
00000150: c435 2b3f 1020 d4be f089 d43d 29a1 d9be
00000160: dc16 b4bf ce36 9b3f ec70 f4be 5061 3ebe
00000170: 3e99 78bd b44a 53bc d7ba 0ebf 35a0 a1bf
00000180: f0e9 8ebf d0b0 4c3e 5a17 0c3f 2b37 143f
00000190: 0407 f0be 7053 e5bf f6af 85bf cb53 04bf
000001a0: 8b9f 6a3f 0138 80bf eac1 413f ed22 41be
000001b0: 7e66 a9bf 1e50 d8bd 58c9 6f3f 1d69 6f3f
000001c0: 3280 713f d775 c3bf 9b25 28bf ef72 a5be
000001d0: 1aee 88bf 41f1 393e fb6d 0640 f0d4 8f3e
000001e0: 53de 77bf 7cda e83e 0f25 713f ce3f 0640
000001f0: da75 053f 8faa e5be f3d2 253f 27a3 98bf
00000200: 47ce 5a3f 29e4 443f dca6 e03e 8989 b53f
00000210: b6a0 0140 10fc 60bd b72e 94bf bb81 0740
00000220: 8819 a1bf 9d28 783f 73c7 d4bf 146d 653e
00000230: 089d b5be 389c ad3e d068 05be 262a b0bf
00000240: 0381 9ebf d774 033e 2c59 af3f 536b 853f
00000250: 9ccb 003f c779 c5be 66de 88bf 446a 50bd
00000260: f7ba 8bbd 3f63 603f 633b 643f 2c75 17bd
00000270: 0266 f33e 4544 73bf 11ca c33f 4b87 993f
00000280: da87 813f e2f7 cfbe bfa6 863f ed3b a8bf
00000290: 4ea8 40bf d7f2 98bf 5e98 c53f 7dde 89bf
000002a0: f665 13be 9d79 133f 453e 3ebf fe7c 8cbf
000002b0: 11c6 3abe c37c a93f 7ecd c73f e1ad 91bf
000002c0: b3dd 663c fc56 353f d20b c63f 5df6 9340
000002d0: db8f e83f e6f4 8c3e a61b e4be 8165 9b3f
000002e0: 977d 2bbe d3ac ddbe eb4c 3dbe e33a 183e
000002f0: 5ce5 cdbe 44f6 0abf fe67 603f f00b 4e3e
00000300: 8a17 5cbf b837 673d cbb3 05be a4e8 123d
00000310: 739d bcbd 5510 f4be c063 a8bf dc05 83be
00000320: f691 0c3f e0b6 01bb e11e 233e 0f18 fbbe
00000330: 1f5d 95bf 6e4e 303f b713 803e 01b0 c0bd
00000340: 3c61 2cbd 614c 233f a4a8 8b3e 4db3 293e
00000350: 1c22 133f d333 5b3d 9b6c c93d 25c3 07bf
00000360: 5255 1cbf fb51 f9bd 334f da3e 31d3 a739
00000370: 8f21 0f3f cfe1 aabe 488a 163f e7b3 42bf
00000380: e098 513f 7d9e 9f3e 89b3 d4bd da72 46bf
00000390: 8b67 c73e 1c77 b23e e48b 7dbf c7b3 8c3f
000003a0: 0859 82bf bdb7 62be 05d0 623f d6d2 383f
000003b0: 5ca5 dd3d 7089 f43e be5d a0bf 2c9d 28bf
000003c0: ac2a af3f 45f7 9bbf 998b 1cbf fa07 43bf
000003d0: 762d cc3e 8500 093f 33f3 7a3f 1b7e 073f
000003e0: 880c 473f 876c 233f 06e3 903d cc93 923e
000003f0: ac33 94bf 5b77 fd3e 6f78 71bf ec7d 09bd
-1.8032533 1.0378333 -0.2516946 -0.6081305 0.13585511 0.6849266 1.2425371 -0.023842704
0.259595 -0.9005669 0.07592309 -0.08311382 -0.15591231 -0.9781545 -1.1001095 0.93607485
-0.721976 -0.14478217 0.21827176 -0.012307251 -0.030040478 0.05855956 -0.93976337 0.3504993
-0.27638397 -0.51198906 -0.116248526 -0.54687005 0.65171355 -0.3985027 -0.25336957 0.9023953
-0.8574946 1.5093508 0.9389145 -0.22750565 -0.20815985 -0.17473806 -0.38222876 -0.35688215
-0.27061778 -0.7717103 0.100582756 0.42882267 -0.3772086 -0.3787445 0.27515906 0.14616892
0.21298698 -0.9588777 -1.2216426 -1.3302212 0.2644119 0.024440726 0.4305312 -0.5644858
0.34979635 0.24381061 0.41488895 -1.3109243 -0.005675954 -2.016917 1.3494352 0.49620846
0.8775179 0.33273968 -1.1399918 -0.9175762 -0.98113847 0.022978373 0.49188206 0.32604223
-0.015503161 0.8096611 -0.7008796 0.8716983 1.2363334 -1.4012425 1.195154 -0.7612559
0.35741004 1.5258904 -1.2228388 0.17557015 0.66878915 -0.41430712 0.10377872 -0.42505768
-1.4069476 1.21261 -0.47742403 -0.1859181 -0.06069302 -0.012896229 -0.55753845 -1.2627016
-1.1165142 0.19989324 0.5472313 0.5789668 -0.46880352 -1.7916088 -1.0444324 -0.5169036
0.91649693 -1.0017091 0.75686514 -0.1886098 -1.3234403 -0.10562156 0.936666 0.93519765
0.94336236 -1.5270337 -0.6568238 -0.3231425 -1.0697663 0.18158437 2.1004627 0.28092146
-0.96823615 0.4547919 0.9419717 2.0976443 0.5213295 -0.44856688 0.6477501 -1.192479
0.85471004 0.76910645 0.43877304 1.4182597 2.025434 -0.054927886 -1.1576756 2.1172931
-1.2585917 0.9693697 -1.6623367 0.22404891 -0.35471368 0.33908248 -0.13028264 -1.3762863
-1.2383121 0.1283754 1.3699088 1.0423378 0.50310683 -0.3856947 -1.0692871 -0.050882593
-0.0682277 0.8765144 0.89153117 -0.03697698 0.47538763 -0.95026046 1.5296041 1.1994413
1.0119584 -0.40618807 1.0519637 -1.3143288 -0.7525681 -1.1949109 1.5437124 -1.0771023
-0.14394364 0.5760744 -0.74313766 -1.0975645 -0.18239619 1.3241199 1.5609586 -1.1381189
0.014090943 0.7083585 1.5472357 4.6238236 1.8168901 0.27530593 -0.44552344 1.2140352
-0.16747127 -0.43295917 -0.18486373 0.14866214 -0.4021405 -0.5428202 0.8765868 0.20121741
-0.8597342 0.056449622 -0.13056867 0.035866395 -0.092097186 -0.4766871 -1.3155441 -0.25590408
0.5491022 -0.001979284 0.15929748 -0.49041793 -1.1669043 0.68869674 0.2501504 -0.0940857
-0.042084917 0.6378842 0.272771 0.16572304 0.5747392 0.05351622 0.09835168 -0.5303214
-0.6106769 -0.1217384 0.4263855 0.00032010072 0.5591058 -0.33375403 0.5880475 -0.7605576
0.81873894 0.31175604 -0.10385806 -0.77519 0.38946185 0.34856498 -0.9904158 1.0992364
-1.018342 -0.22140403 0.8859866 0.7219671 0.108225554 0.47761106 -1.2528608 -0.65864825
1.3684897 -1.2184836 -0.6115051 -0.76184046 0.39878434 0.5351642 0.9802734 0.52926797
0.77753496 0.63837475 0.07074551 0.28628385 -1.1578269 0.49505123 -0.9432439 -0.033567354

lstm.bias_ih_l0_reverse f4 [192]
00000000: 31ab 1abf 6e94 f4be bc91 2f3f 439a af3f
00000010: 8db5 53be e15c 52bf 290d ca3e 3645 6b3e
00000020: 08f8 833d f2d7 013e 88c7 66bf c286 d83e
00000030: 1bed 953e 73f7 563e a34b f03d 2509 013d
00000040: 40bf e2be d189 f6be 4063 453e 29e9 863d
00000050: 69d5 61be 928d 29bf 4875 0ebe ee65 00bf
00000060: 4027 643f 2615 e23e fe79 c63e ba35 c83f
00000070: c38f f23e 0fa7 9c3c bb18 d93e 7592 493f
00000080: 0060 d03e 7717 2f3f e582 953f 791e 1b3f
00000090: 69cb 2a3f fa15 cd3c 8ef6 a4bd 15c0 ccbe
000000a0: 5914 54bf 8f5e c63e ca71 49bd 5293 a3bd
000000b0: bcc4 03bf 1dcb 573f feb0 ed3b 6791 293f
000000c0: 070e 313d b6b4 87bd ccfc 00be dfb7 733e
000000d0: 2ab0 b13e 65a0 c7be 9930 ffbe 445f 053e
000000e0: 76e8 633d c503 babe a899 20be 37a5 713e
000000f0: 4ea4 a2be 5e25 b33d 0bec 043e 0dfe ab3e
00000100: 4478 863f 5ef2 e4bd c789 223e aeac b0bc
00000110: 4dc1 b6be b7e8 0dbf be9b cd3d 22d6 aabe
00000120: 1e5b 283e 63b6 193d e1d6 bebe 22fc ad3e
00000130: 675c a03e ccbd ea3e 5073 183f f9b5 2abd
00000140: b601 053d 0402 5bbd 806a 653e 1171 f4be
00000150: 588a bc3e 1b43 5e3e 95fa 9abc 2683 a6be
00000160: 0a54 773e bd87 6ebd dbdd 99bd b459 b53e
00000170: 65d4 183f 72b0 413e 5f09 8a3d dbbc c13e
00000180: 8027 e23e 92e0 023f 50f3 ed3e d07c 86bf
00000190: 59bb 113e 357f 153f a30b ddbe 757f ed3e
000001a0: 364a 13be 1914 49bf 4716 413f a1e2 89bf
000001b0: 0e72 673e 12c6 a8bb 2613 233f 2434 3ebf
000001c0: fe7b 53bf b2d9 103e 1379 943e 3289 b33e
000001d0: 34c8 b7be 3604 c4be 4ccf 32bd 2617 323f
000001e0: 636e 253f e72e 163f 330f 653f 9097 7b3f
000001f0: 3755 1dbe 66d7 603f 7e14 683f 4fac 8b3f
00000200: e7b7 46bf f441 143f 629f 57bf 67f7 503f
00000210: 3a12 7ebf 0899 12bf 46c7 55bf d41a 813e
00000220: c7f9 87be 1d42 3b3f 1e73 e23d 0942 17bf
00000230: 39e4 14bf e71b 11bf 18e6 1e3e 563c 243f
00000240: aabe b1bc ed49 1e3f 6a38 d53e 2f1e 803f
00000250: b55c 863e 9ae4 dc3e cf82 51bd db8d 02be
00000260: 8222 1c3f 44c5 62be d183 823e 8254 1cbc
00000270: 6d55 93be 554c 4f3f 780c ce3e 2bd4 743f
00000280: 485a 7ab8 8bdf 3a3c e89c 333e a74d eebe
00000290: 178d d7be 401a 833e 348d 46bd f577 013f
000002a0: a148 2c3f a160 77be 6bc1 d43d d3bb a13e
000002b0: 5810 00bf b5a7 e03d 9b18 ee3e 8a7a d13f
000002c0: d252 9f3e 691c ba3e cc8a a43e 6720 3f3f
000002d0: 34e3 91bd 3ab3 d53e 7ceb 863e 2477 863e
000002e0: 7e4d ef3e a51f 47be 0555 4cbe e736 b6bd
000002f0: c788 683e 953b e33d dade 393f d405 ab3d
-0.6041747 -0.47769493 0.6858175 1.3718952 -0.20674725 -0.8217297 0.39463165 0.2297562
0.064437926 0.12680033 -0.9014821 0.42290312 0.2928246 0.20992832 0.117331766 0.03150286
-0.44286537 -0.4815202 0.19276142 0.065874405 -0.22054066 -0.66231644 -0.13911927 -0.5015553
0.8912239 0.4415676 0.38764948 1.5641396 0.47375306 0.019122628 0.4240168 0.787391
0.40698242 0.6839518 1.1680571 0.6059337 0.6671663 0.025034893 -0.08054839 -0.39990297
-0.8284355 0.38744017 -0.049180783 -0.079870835 -0.5147207 0.842943 0.007253765 0.6623749
0.04322627 -0.06626265 -0.12596434 0.2380061 0.34704715 -0.3898956 -0.49841765 0.13024622
0.055641614 -0.36331 -0.15683615 0.2359818 -0.3176598 0.087473616 0.12980668 0.33592263
1.0505452 -0.1117904 0.1587287 -0.021566715 -0.35694352 -0.5543322 0.10039471 -0.33366495
0.16441008 0.037527453 -0.37273315 0.33981425 0.31320497 0.4584793 0.5955095 -0.04167745
0.032472335 -0.05346872 0.22403908 -0.47742513 0.36824298 0.21705286 -0.018918315 -0.32521933
0.24153152 -0.05823492 -0.07513019 0.3542 0.5969909 0.18914965 0.06740069 0.37839398
0.4417076 0.5112392 0.46474695 -1.050684 0.14231624 0.5839723 -0.4317294 0.46386304
-0.14383778 -0.7854629 0.7542462 -1.0772287 0.22602102 -0.005150565 0.63701093 -0.7429831
-0.8261107 0.14145544 0.28998622 0.3506561 -0.3589493 -0.38284463 -0.043654725 0.6956657
0.6462156 0.5866532 0.8947632 0.9827814 -0.15364538 0.8782867 0.9065627 1.091196
-0.7762436 0.57913136 -0.84227574 0.81627506 -0.9924656 -0.5726476 -0.8350719 0.2521578
-0.26557752 0.73147756 0.11057113 -0.59085137 -0.5816074 -0.566832 0.15517461 0.64154565
-0.021697361 0.6183155 0.41644603 1.0009211 0.26242605 0.4314316 -0.05115014 -0.12749426
0.60990155 -0.22145563 0.25491193 -0.009541633 -0.28776112 0.8097585 0.40243888 0.9563624
-5.9688726e-05 0.011405836 0.17540324 -0.4654362 -0.4209983 0.25605965 -0.048474506 0.50573665
0.6729832 -0.24157955 0.10388454 0.3158861 -0.5002494 0.109694876 0.46503147 1.6365521
0.31117874 0.363498 0.32137144 0.7465882 -0.07123414 0.41738302 0.26351535 0.26262772
0.4673881 -0.19445665 -0.19954307 -0.088971905 0.22708426 0.11095349 0.7260567 0.08350721
